models/res_adapter/sd1.5/resolution_normalization.safetensors (safetensors, 407928 bytes, 88 tensors)

down_blocks.0.resnets.0.norm1.bias f4 [320]
0.006430522 -0.038540438 -0.069955826 -0.06860723 -0.07984569 -0.03147941 0.0007618911 -0.11720369
-0.10962381 -0.11528947 -0.056793492 -0.03304932 -0.029550139 -0.12830581 -0.0053408956 -0.038430557
0.01446263 -0.07402428 -0.050890423 -0.08633017 -0.011405781 -0.08756785 -0.09798468 -0.19217102
-0.08381907 -0.14523815 -0.07166983 -0.0010497771 -0.00062321004 -0.15180124 -0.01572293 -0.13393266
-0.11391664 -0.10833579 -0.11046289 -0.04360617 0.049732506 -0.046804685 -0.14936388 -0.12951952
-0.06866317 -0.15387528 -0.030637471 -0.050659213 -0.102136716 -0.058342118 -0.06810475 -0.17668606
-0.009994959 -0.0012999048 -0.06857503 0.032214966 -0.10401621 0.027194599 -0.08834704 0.0012189259
-0.102972455 -0.057949528 -0.06251812 0.029140329 -0.06603678 0.038958974 0.011238214 0.04993023
-0.08756205 0.024589565 -0.060422014 -0.056767248 -0.10674983 -0.034034204 -0.047513872 -0.13341376
-0.0047670235 -0.07435237 0.032789197 -0.029715782 -0.15067624 -0.085099265 -0.16165635 -0.07385599
-0.1224713 -0.03716273 -0.082710914 -0.07321002 -0.06996215 -0.09655315 -0.14905955 -0.09376784
-0.0046096477 -0.021185081 -0.037906416 0.0103779705 -0.11548659 -0.10729876 -0.06767074 -0.07351814
-0.027529925 0.037711095 -0.105985224 -0.0017051316 -0.013568894 -0.066708885 0.0015345822 -0.026150534
0.054510564 -0.09605458 -0.102437936 -0.10396408 0.026410002 -0.13914071 0.022193728 -0.100796014
-0.0077839904 -0.03319429 -0.02831294 -0.0018993913 -0.038064465 -0.03360643 -0.13976073 0.0048089884
-0.06280048 -0.07151376 -0.112898335 0.038505066 -0.089211226 -0.05923936 -0.06754539 -0.06964846
-0.052352864 0.041212056 -0.11182061 -0.10658431 0.022258207 -0.052223984 -3.8423575e-05 -0.02037481
-0.13075142 -0.0776446 -0.07537562 -0.059256334 -0.09613253 -0.08130259 -0.031402707 0.017982895
-0.03157424 -0.20172371 0.0112618245 -0.059166737 -0.08700713 -0.022311255 -0.11967536 -0.050098937
-0.08682467 -0.1587784 0.040015217 -0.08842207 -0.0036848318 -0.13394505 -0.0948851 0.010314239
-0.12432886 -0.03563982 -0.094325386 -0.037799675 -0.10687303 -0.06168832 -0.16588593 -0.050683625
-0.05228431 -0.12677199 -0.10984221 -0.05141928 -0.013403459 -0.10322724 -0.10391213 0.030527176
-0.029318947 -0.0076839845 -0.11201586 -0.025574261 -0.11126201 -0.11070048 -0.073323995 -0.16483185
-0.14764135 -0.08431038 0.02388873 -0.0019108836 -0.09266997 -0.018897563 0.016034117 -0.070941575
-0.01535891 0.010056599 0.05524099 0.006889138 -0.09828583 -0.074840456 -0.04723388 0.03383521
-0.11222225 -0.11392086 -0.020666083 -0.0057927333 -0.008703688 -0.06706026 0.0014375821 -0.06067735
-0.014431841 -0.026909437 -0.15221886 0.027744012 -0.12323772 0.028858958 -0.100615755 -0.09972557
-0.032174323 -0.102883704 -0.12020772 -0.015362095 -0.10081043 -0.13052385 -0.11419875 -0.05121154
-0.07117115 0.018380167 -0.01838022 0.014523657 0.003044048 0.0085984 -0.122094795 -0.056246422
-0.14172418 -0.21124619 -0.04306006 -0.09058764 0.015747407 0.043462604 -0.05531277 -0.03990164
0.012359472 -0.08670251 0.0053718127 -0.035601668 -0.027669236 -0.11195749 -0.109534875 -0.013116118
-0.10446998 0.040273823 0.020593213 -0.11764693 -0.07689993 -0.04043866 -0.12522262 -0.12343873
00000000: 21b7 d23b 94dc 1dbd 0045 8fbd f381 8cbd
00000010: 2386 a3bd 8ef0 00bd a5b9 473a 7d08 f0bd
00000020: 7382 e0bd e31c ecbd 4ba0 68bd b95e 07bd
00000030: 2213 f2bc 9962 03be ae02 afbb 5c69 1dbd
00000040: abf4 6c3c 0b9a 97bd 7a72 50bd dfcd b0bd
00000050: 50df 3abc c656 b3bd 31ac c8bd 7bc8 44be
00000060: 55a9 abbd 4fb9 14be a2c7 92bd ad98 89ba
00000070: eb5e 23ba c971 1bbe 60cd 80bc a525 09be
00000080: 214d e9bd 28df ddbd 5e3a e2bd 629c 32bd
00000090: 50b4 4b3d 45b6 3fbd d8f2 18be c4a0 04be
000000a0: 479f 8cbd 7b91 1dbe 6ffb fabc 0980 4fbd
000000b0: 0e2d d1bd 25f8 6ebd 817a 8bbd 31ed 34be
000000c0: e6c1 23bc 9161 aaba 1171 8cbd d7f3 033d
000000d0: 7306 d5bd 35c7 de3c 4bef b4bd 5ec4 9f3a
000000e0: 39e3 d2bd 7c5c 6dbd 8009 80bd b3b7 ee3c
000000f0: 4b3e 87bd 7293 1f3d 7c20 383c a483 4c3d
00000100: bb53 b3bd 0e70 c93c 137d 77bd c684 68bd
00000110: a89f dabd 7367 0bbd e89d 42bd 9e9d 08be
00000120: b134 9cbb 0e46 98bd f74d 063d 836e f3bc
00000130: df4a 1abe 8648 aebd 3e89 25be cf41 97bd
00000140: 3cd2 fabd f237 18bd 5764 a9bd 23ef 95bd
00000150: 5148 8fbd a8bd c5bd 11a3 18be 5a09 c0bd
00000160: 870c 97bb 568c adbc c243 1bbd 5d08 2a3c
00000170: 3c84 ecbd 74bf dbbd f596 8abd ae90 96bd
00000180: 7086 e1bc f376 1a3d c80e d9bd b97e dfba
00000190: 1150 5ebc ab9e 88bd 0924 c93a a539 d6bc
000001a0: 7846 5f3d 43b8 c4bd fbca d1bd 1feb d4bd
000001b0: ca59 d83c e77a 0ebe 9fcf b53c 246e cebd
000001c0: d810 ffbb bcf6 07bd 8af0 e7bc fff4 f8ba
000001d0: 7ce9 1bbd e5a6 09bd 701d 0fbe b894 9d3b
000001e0: 8a9d 80bd ce75 92bd 3e37 e7bd 7db7 1d3d
000001f0: 60b4 b6bd f9a4 72bd 3d55 8abd daa3 8ebd
00000200: f56f 56bd f9cd 283d 3402 e5bd e048 dabd
00000210: d856 b63c d1e8 55bd 0029 21b8 13e9 a6bc
00000220: b3e3 05be 2204 9fbd 885e 9abd c5b6 72bd
00000230: 22e1 c4bd f981 a6bd 20a0 00bd dd50 933c
00000240: fe53 01bd a990 4ebe 8483 383c d258 72bd
00000250: cb30 b2bd 18c6 b6bc 5b18 f5bd 8b34 4dbd
00000260: 22d1 b1bd ce96 22be ffe6 233d a116 b5bd
00000270: 387d 71bb e428 09be 1f53 c2bd 0efd 283c
00000280: 21a0 febd 0ffb 11bd ab2d c1bd d5d3 1abd
00000290: 3fe0 dabd e4ac 7cbd 00de 29be a299 4fbd
000002a0: 1328 56bd 84d0 01be f4f4 e0bd 069d 52bd
000002b0: 2f9a 5bbc ce68 d3bd e2cf d4bd 2114 fa3c
000002c0: 4a2e f0bc efc9 fbbb 9268 e5bd 1d81 d1bc
000002d0: 56dd e3bd efb6 e2bd e42a 96bd aec9 28be
000002e0: 4b2f 17be ecaa acbd 4cb2 c33c 9d76 faba
000002f0: c1c9 bdbd 10cf 9abc fb59 833c d149 91bd
00000300: f0a3 7bbc 6fc4 243c 6044 623d 47be e13b
00000310: 154a c9bd f445 99bd 5078 41bd ca96 0a3d
00000320: c7d4 e5bd 574f e9bd eb4b a9bc f8d0 bdbb
00000330: ea99 0ebc e456 89bd 406d bc3a d088 78bd
00000340: 8773 6cbc 2e71 dcbc 43df 1bbe 6947 e33c
00000350: 0f64 fcbd 9f69 ec3c a20f cebd eb3c ccbd
00000360: 39c9 03bd b1b4 d2bd 772f f6bd 4cb1 7bbc
00000370: b375 cebd 0ba8 05be 09e1 e9bd 31c3 51bd
00000380: 2ec2 91bd 0192 963c 1d92 96bc a2f4 6d3c
00000390: a77e 473b 4ee0 0c3c d60c fabd a662 66bd
000003a0: 2520 11be ec50 58be bf5f 30bd 0386 b9bd
000003b0: b500 813c d805 323d a58f 62bd e76f 23bd
000003c0: 627f 4a3c 1691 b1bd 0806 b03b 0ed3 11bd
000003d0: 98aa e2bc f849 e5bd d253 e0bd fce4 56bc
000003e0: 5bf4 d5bd 2af6 243d 19b3 a83c e0f0 f0bd
000003f0: b67d 9dbd 02a3 25bd 5c3a 00be 72cd fcbd

down_blocks.0.resnets.0.norm1.weight f4 [320]
0.44064435 0.49287158 0.3288479 0.44832483 0.40331048 0.48400772 0.50801986 0.33877486
0.41300327 0.4268857 0.45155132 0.45325276 0.31828004 0.3010338 0.4098426 0.507228
0.60414004 0.4497141 0.37138757 0.349215 0.70460355 0.37557065 0.67648757 0.35301718
0.39663967 0.46974638 0.4012213 0.6446994 0.48666653 0.41262755 0.4519813 0.41852844
0.40777364 0.5350285 0.46398953 0.36854076 0.5324898 0.41428143 0.4391092 0.43081906
0.49011877 0.3450593 0.44611093 0.51683867 0.32186642 0.50909024 0.5141192 0.2610421
0.4871834 0.5174416 0.51891524 0.42198968 0.20142907 0.31668842 0.31422007 0.4074338
0.32029003 0.38762447 0.5286502 0.47557163 0.35448515 0.59798265 0.5720313 0.5809028
0.4367825 0.51055825 0.32967606 0.47247475 0.52035505 0.3334335 0.35636196 0.3491607
0.4340894 0.33392212 0.5117939 0.31896156 0.31735516 0.34996662 0.40880612 0.29528418
0.39071217 0.38746408 0.38986117 0.35940295 0.594744 0.34137136 0.3670673 0.2795173
0.48201153 0.5347339 0.34673062 0.41320676 0.36348888 0.4033853 0.65547323 0.23398891
0.43478945 0.37273538 0.29574984 0.42762768 0.37136605 0.37498727 0.4523667 0.34083828
0.51260936 0.30688557 0.38698786 0.33812433 0.5135149 0.3805972 0.45116088 0.39904547
0.44138202 0.42467743 0.43161035 0.48943695 0.32008412 0.345175 0.45222443 0.5116534
0.37307757 0.50582993 0.42885 0.5705139 0.39539155 0.48205453 0.32272723 0.41761914
0.4186021 0.4860193 0.33880457 0.36288604 0.53329015 0.43210483 0.66952884 0.52908546
0.34971273 0.41343555 0.46285722 0.54054016 0.36842853 0.34949237 0.3182341 0.3912384
0.47077963 0.45286077 0.4291673 0.2644341 0.30962119 0.34839603 0.34999785 0.41285738
0.30887938 0.33382925 0.48674965 0.4932074 0.4812551 0.42896613 0.5114663 0.45594022
0.4439807 0.46794048 0.44400406 0.49204707 0.5210107 0.43186474 0.7018545 0.49004182
0.43246108 0.50006706 0.3559804 0.4224499 0.46014377 0.38337442 0.4488102 0.5507373
0.44865108 0.5571281 0.47530237 0.44587705 0.31778196 0.43411887 0.3635529 0.3586159
0.30637032 0.41083437 0.44874334 0.62115544 0.45396626 0.48585027 0.470837 0.40339565
0.29420045 0.4304709 0.37933138 0.33843222 0.398416 0.33497694 0.28146085 0.42395005
0.33394033 0.39715528 0.6166878 0.50694114 0.39039582 0.541613 0.45520148 0.3919497
0.49219748 0.5249881 0.4085408 0.515268 0.3949865 0.42501453 0.32825014 0.39456826
0.4400751 0.36040834 0.33969772 0.6757031 0.24603929 0.41801283 0.34223372 0.47097582
0.37789503 0.4830863 0.4490254 0.5057487 0.4457929 0.5258994 0.28501338 0.2964067
0.3375044 0.29740837 0.5913352 0.33422968 0.63324344 0.63946354 0.42011026 0.3551651
0.5479019 0.41762146 0.47589195 0.47018546 0.4653098 0.28065854 0.33854392 0.38326377
0.3331228 0.54178375 0.6265196 0.39012256 0.31534785 0.56940264 0.47197485 0.31717518
00000000: 239c e13e aa59 fc3e c05e a83e d58a e53e
00000010: b67e ce3e dccf f73e 970d 023f e673 ad3e
00000020: 2a75 d33e c390 da3e bc31 e73e bf10 e83e
00000030: 9af5 a23e 1a21 9a3e e4d6 d13e b2d9 013f
00000040: eca8 1a3f ed40 e63e 8326 be3e 4fcc b23e
00000050: e660 343f cc4a c03e 4a2e 2d3f abbe b43e
00000060: 5b14 cb3e 9982 f03e e16c cd3e 050b 253f
00000070: 5b2c f93e eb43 d33e 186a e73e 5c49 d63e
00000080: b5c7 d03e a1f7 083f 0990 ed3e 60b1 bc3e
00000090: 4051 083f b21c d43e ecd2 e03e 5194 dc3e
000000a0: d9f0 fa3e 9dab b03e a768 e43e 8a4f 043f
000000b0: adcb a43e bd53 023f 519d 033f 4fa7 853e
000000c0: 1a70 f93e 0d77 043f a1d7 043f 080f d83e
000000d0: 6c43 4e3e fc24 a23e 74e1 a03e 2a9b d03e
000000e0: 0efd a33e b776 c63e 9f55 073f 207e f33e
000000f0: 147f b53e 6415 193f a570 123f 0cb6 143f
00000100: f5a1 df3e f2b3 023f 4dcb a83e 36e8 f13e
00000110: fd35 053f ccb7 aa3e 1375 b63e 31c5 b23e
00000120: f740 de3e d7f7 aa3e ed04 033f ee4e a33e
00000130: 607c a23e d32e b33e 094f d13e 7d2f 973e
00000140: 6d0b c83e b161 c63e e29b c73e aa03 b83e
00000150: 2541 183f 3ac8 ae3e 3ff0 bb3e e41c 8f3e
00000160: 37ca f63e 52e4 083f ad86 b13e d68f d33e
00000170: 371b ba3e 8588 ce3e 18cd 273f ca9a 6f3e
00000180: b99c de3e 2cd7 be3e 866c 973e 04f2 da3e
00000190: b123 be3e 55fe bf3e 9c9c e73e 5b82 ae3e
000001a0: 5e3a 033f 1b20 9d3e 4623 c63e a21e ad3e
000001b0: b675 033f a3dd c23e 8ffe e63e b04f cc3e
000001c0: d3fc e13e 526f d93e 08fc dc3e 7b97 fa3e
000001d0: 11e2 a33e c7ba b03e f689 e73e b8fb 023f
000001e0: 0604 bf3e 127e 013f 3a92 db3e 330d 123f
000001f0: c370 ca3e dacf f63e 813c a53e 2dd2 d53e
00000200: 0453 d63e 86d7 f83e cb77 ad3e 33cc b93e
00000210: b485 083f d83c dd3e 3e66 2b3f 2572 073f
00000220: 8c0d b33e d3ad d33e 9ffb ec3e d760 0a3f
00000230: aaa2 bc3e aaf0 b23e 94ef a23e 6650 c83e
00000240: 070a f13e 5edd e73e d1bb db3e e863 873e
00000250: ab86 9e3e f760 b23e eb32 b33e 0b62 d33e
00000260: 7025 9e3e abeb aa3e 4037 f93e ae85 fc3e
00000270: 1267 f63e 73a1 db3e 75ef 023f ff70 e93e
00000280: 7051 e33e e595 ef3e 8054 e33e 98ed fb3e
00000290: f560 053f 601d dd3e bdac 333f c3e6 fa3e
000002a0: 8a6b dd3e 6504 003f 1043 b63e 5a4b d83e
000002b0: f797 eb3e a749 c43e 73ca e53e 1ffd 0c3f
000002c0: 98b5 e53e f29f 0e3f d55a f33e ff49 e43e
000002d0: 51b4 a23e d444 de3e 9b23 ba3e 819c b73e
000002e0: 92dc 9c3e e258 d23e b0c1 e53e 0b04 1f3f
000002f0: 446e e83e 5ec1 f83e 8c11 f13e e089 ce3e
00000300: 71a1 963e af66 dc3e b937 c23e fd46 ad3e
00000310: 2ffd cb3e 1982 ab3e a31b 903e fb0f d93e
00000320: 3afa aa3e f057 cb3e 40df 1d3f e5c6 013f
00000330: f6e1 c73e 26a7 0a3f 2b10 e93e a2ad c83e
00000340: 4f01 fc3e 9f65 063f 422c d13e 9be8 033f
00000350: ac3b ca3e 819b d93e 6710 a83e da04 ca3e
00000360: 8651 e13e 7187 b83e dcec ad3e e1fa 2c3f
00000370: b9f1 7b3e c705 d63e 4239 af3e be23 f13e
00000380: 757b c13e 1657 f73e a8e6 e53e bf78 013f
00000390: f83e e43e 58a1 063f 46ed 913e 9ec2 973e
000003a0: 60cd ac3e e945 983e be61 173f 2720 ab3e
000003b0: 3e1c 223f e2b3 233f b118 d73e 33d8 b53e
000003c0: 4d43 0c3f 7bd2 d53e 1ca8 f33e 26bc f03e
000003d0: 163d ee3e 7ab2 8f3e a155 ad3e 263b c43e
000003e0: 128f aa3e 57b2 0a3f 9763 203f 25be c73e
000003f0: 4675 a13e 5fc4 113f b0a6 f13e c964 a23e

down_blocks.0.resnets.0.norm2.bias f4 [320]
-0.08551484 -0.14141679 -0.1137977 -0.065615766 -0.19702329 -0.16254325 0.00022687738 -0.010834957
-0.17939724 -0.09097607 -0.16850904 -0.052303094 -0.1090063 -0.08909469 -0.12673569 0.029443378
0.03374808 -0.017537294 0.030886924 -0.10647833 -0.05739973 -0.0312902 -0.13553372 -0.061316933
-0.111786105 -0.08451642 -0.10046451 -0.06790289 -0.11315454 -0.19444886 -0.21438016 -0.13815938
-0.034075193 -0.17429276 -0.1955433 -0.28459492 -0.1285786 -0.07408997 -0.120800905 -0.120784044
-0.09761689 -0.033000156 -0.0649281 -0.08514685 -0.08119163 -0.0020455762 -0.068630025 -0.04288824
-0.007505589 -0.050789446 -0.15382737 -0.09024489 -0.068249814 -0.05595861 -0.09703226 -0.14784706
-0.15031655 -0.22212385 -0.10649348 -0.16275093 -0.11230018 -0.08536823 -0.15685244 -0.1060352
-0.20103477 -0.09073877 -0.043475114 -0.057353735 -0.05243795 -0.20128798 -0.008508931 -0.028438188
-0.14274457 -0.062192257 0.0785325 -0.13206895 0.0007126256 -0.010946804 -0.07784136 -0.13759673
-0.08743523 -0.093286134 -0.122295186 -0.13867275 -0.098881796 -0.029013628 -0.10729798 -0.1417212
-0.100604825 -0.08380158 -0.036524113 0.029190674 -0.06722735 -0.10325823 -0.15617146 -0.10335712
-0.05638668 -0.08526759 -0.08084813 -0.091804266 -0.11323772 -0.2328607 -0.08079184 -0.061361726
-0.088693485 -0.05972683 -0.13167267 -0.053643037 -0.108810045 -0.1681153 -0.07384143 -0.08802247
-0.2123739 0.0042436607 0.068437956 -0.04614911 -0.09079489 -0.13412862 -0.07268275 -0.11149769
-0.09156762 -0.0921228 -0.09666567 -0.09647333 -0.09027786 -0.062214497 -0.116427355 -0.08709539
-0.11155553 -0.073504485 0.013640991 -0.120641604 -0.14375761 -0.045563493 -0.09303395 -0.07010479
-0.10444782 -0.061264705 -0.10613757 -0.20030215 -0.091454186 0.007326878 -0.05452674 -0.07750385
-0.15451846 -0.073541455 -0.06549474 -0.044026513 -0.074442625 -0.07573883 -0.072055794 -0.046515718
-0.082815595 -0.0764003 0.0025608824 -0.10035802 -0.044374138 0.037121475 -0.034634434 -0.044065364
-0.08060544 -0.041501235 -0.08145439 -0.039645653 -0.067345805 -0.084719636 -0.10023369 -0.14944713
0.048089165 -0.05028279 -0.14448388 -0.033007197 -0.0068040993 -0.07344553 -0.08463358 -0.033816747
-0.11702685 -0.048796482 -0.033246897 -0.11380029 -0.119887315 -0.06259677 -0.168117 -0.2038867
-0.20487872 -0.11874812 -0.15092939 -0.23124042 -0.02566994 -0.10359714 -0.015360569 -0.06358792
-0.10738801 -0.19622312 -0.14566368 -0.09466643 -0.14089334 -0.11407493 -0.03225901 -0.11466227
-0.065003194 0.0020523218 -0.038422037 -0.13202779 0.033240467 -0.11126336 -0.114647515 -0.124427415
-0.07390998 -0.009991405 -0.08040428 -0.10264585 -0.114588924 -0.103031926 -0.11288855 -0.120163396
0.11666827 -0.18315805 -0.12478252 -0.08071544 0.17547716 -0.12891231 -0.11856723 -0.1679525
-0.1196631 -0.14583965 -0.0938349 -0.14803584 -0.1008863 -0.16273412 -0.019485893 -0.0327043
-0.11388697 -0.12645204 -0.1296532 -0.01155477 -0.020235801 -0.05866686 -0.085738994 -0.0286655
-0.107027575 -0.045628782 -0.063894704 -0.065025814 -0.031009447 -0.09315414 -0.065238595 -0.036719505
-0.07077747 0.039193653 -0.055416103 -0.041592207 -0.08680194 -0.06158168 -0.12280524 -0.10315661
00000000: 6822 afbd 90cf 10be c50e e9bd 8f61 86bd
00000010: 79c0 49be bd71 26be efe5 6d39 1a85 31bc
00000020: e9b3 37be a951 babd a28d 2cbe c53b 56bd
00000030: b23e dfbd 4777 b6bd 00c7 01be 3d33 f13c
00000040: 6d3b 0a3d 5faa 8fbc 9306 fd3c 5011 dabd
00000050: fb1b 6bbd 272a 00bd 5ac9 0abe 7727 7bbd
00000060: 1df0 e4bd f216 adbd 56c0 cdbd ac10 8bbd
00000070: 91bd e7bd 9a1d 47be 7986 5bbe a779 0dbe
00000080: 6e92 0bbd cd79 32be 813c 48be 6db6 91be
00000090: 1caa 03be 7bbc 97bd 7766 f7bd a05d f7bd
000000a0: 5deb c7bd 2c2b 07bd 06f9 84bd 7961 aebd
000000b0: cc47 a6bd 130f 06bb e68d 8cbd 94ab 2fbd
000000c0: 72f1 f5bb 9808 50bd ec84 1dbe 50d2 b8bd
000000d0: 8fc6 8bbd db34 65bd d9b8 c6bd 3865 17be
000000e0: 95ec 19be 6f74 63be 4119 dabd 2ea8 26be
000000f0: a3fd e5bd 8ad5 aebd ed9d 20be fc28 d9bd
00000100: 0fdc 4dbe 40d5 b9bd f612 32bd c0eb 6abd
00000110: 2dc9 56bd 701e 4ebe 0b69 0bbc 34f7 e8bc
00000120: a22b 12be 4fbd 7ebd a6d5 a03d 153d 07be
00000130: 7fcf 3a3a 395a 33bc 4a6b 9fbd 28e6 0cbe
00000140: 3e11 b3bd cd0c bfbd e675 fabd 3b00 0ebe
00000150: 8a82 cabd fdad edbc 0bbf dbbd 5d1f 11be
00000160: e709 cebd 2aa0 abbd 4f9a 15bd 4821 ef3c
00000170: 7eae 89bd 0d79 d3bd 69eb 1fbe e6ac d3bd
00000180: b8f5 66bd c6a0 aebd b493 a5bd e003 bcbd
00000190: 2ee9 e7bd 0973 6ebe 3176 a5bd 6f56 7bbd
000001a0: eea4 b5bd 1fa4 74bd 33d5 06be cdb8 5bbd
000001b0: cdd7 debd 6b26 2cbe 2d3a 97bd 2045 b4bd
000001c0: 8b78 59be 680e 8b3b 3329 8c3d d906 3dbd
000001d0: acf2 b9bd 0359 09be b2da 94bd e758 e4bd
000001e0: ce87 bbbd e1aa bcbd a7f8 c5bd cf93 c5bd
000001f0: 99e3 b8bd a1d4 7ebd 7771 eebd 115f b2bd
00000200: 3a77 e4bd 8589 96bd 777e 5f3c f212 f7bd
00000210: 3235 13be c9a0 3abd 9588 bebd 1a93 8fbd
00000220: bde8 d5bd b3f0 7abd a85e d9bd 021c 4dbe
00000230: 554c bbbd 4f16 f03b 6e57 5fbd 57ba 9ebd
00000240: 163a 1ebe e79c 96bd 1b22 86bd 2555 34bd
00000250: 6075 98bd f61c 9bbd fd91 93bd 4487 3ebd
00000260: 399b a9bd c377 9cbd 7ad4 273b 8188 cdbd
00000270: a8c1 35bd b00c 183d d6dc 0dbd e27d 34bd
00000280: 7714 a5bd 33fd 29bd 8fd1 a6bd 7b63 22bd
00000290: 99ec 89bd 7d81 adbd 5247 cdbd ab08 19be
000002a0: 25f9 443d 54f5 4dbd 95f3 13be 8e32 07bd
000002b0: ecf4 debb 9c6a 96bd 5f54 adbd 6e83 0abd
000002c0: c6ab efbd d2de 47bd e62d 08bd 2010 e9bd
000002d0: 7b87 f5bd bc32 80bd dd26 2cbe adc7 50be
000002e0: bacb 51be 3732 f3bd 3c8d 1abe 4aca 6cbe
000002f0: c449 d2bc bd2a d4bd e5aa 7bbc 623a 82bd
00000300: 3fee dbbd b7ee 48be dc28 15be 79e0 c1bd
00000310: 5846 10be 1ea0 e9bd 0622 04bd 0dd4 eabd
00000320: 6520 85bd 3f80 063b 6d60 1dbd 4b32 07be
00000330: 2827 083d 0bde e3bd 51cc eabd cdd3 febd
00000340: 1e5e 97bd fdb2 23bc 00ab a4bd fd37 d2bd
00000350: 99ad eabd 6702 d3bd 1d32 e7bd 3a18 f6bd
00000360: c6ef ee3d c98d 3bbe fa8d ffbd 234e a5bd
00000370: 49b0 333e 9701 04be 60d3 f2bd bdfb 2bbe
00000380: ed11 f5bd fd56 15be 832c c0bd b596 17be
00000390: 7a9d cebd c6a3 26be e1a0 9fbc f2f4 05bd
000003a0: 923d e9bd a57c 01be cfc3 04be 3850 3dbc
000003b0: 8dc5 a5bc a94c 70bd ed97 afbd e9d3 eabc
000003c0: 4631 dbbd 3fe5 3abd 3adb 82bd 412c 85bd
000003d0: 8607 febc 99c7 bebd d09b 85bd 3167 16bd
000003e0: c7f3 90bd 8689 203d fffb 62bd 975c 2abd
000003f0: 37c5 b1bd 123d 7cbd 5081 fbbd c643 d3bd

down_blocks.0.resnets.0.norm2.weight f4 [320]
0.24932675 0.6455332 0.3403093 0.41132823 0.15310787 0.19209933 0.5620975 0.33174828
0.9894097 0.5505221 0.13573703 0.27856597 0.21586323 0.8285122 0.46234575 0.3391266
0.5682631 0.27880973 0.31086615 0.28647473 0.50052077 0.42169395 0.269135 0.5660384
0.6154622 0.33474115 0.16668507 0.21536852 0.28355366 0.21233413 0.28592673 0.15412565
0.34911463 0.16001426 0.72811157 0.9154024 0.3398206 0.34639376 0.7843114 0.6493059
0.12974471 0.17767508 0.18055153 0.20160338 0.19346823 0.52366984 0.38306206 0.22701938
0.24421854 0.3496422 0.26476702 0.9369528 0.20752099 0.4020197 0.49160537 0.66678035
0.1763083 0.8980369 0.19652379 1.4784209 0.4644043 0.32121482 0.40715957 0.46314335
0.32308325 0.32023436 0.32368797 0.19173612 0.36856005 0.6734364 0.2358654 0.33604977
0.21266039 0.2792996 0.2698705 0.12395225 0.31078503 0.6355658 0.6227631 0.66234714
0.2592272 0.8127332 0.5723608 1.1513106 0.55637974 0.2475347 0.17342281 0.2502825
0.2567982 0.19162452 0.43069535 0.24032037 0.21300457 0.2607115 0.3698045 0.32491347
0.363119 0.26276854 0.2523946 0.22095133 0.2551238 0.6711559 0.27429712 0.25253275
0.31943953 0.28703293 0.26095384 0.73642296 0.2727212 0.28914514 0.22805393 0.26378667
0.70909595 0.1930816 0.39727172 0.20645827 0.17694588 0.3137458 0.19556394 0.16429104
0.25948775 0.51999694 0.5931647 0.33272192 0.27179158 0.628572 0.2222574 0.22485708
0.22707528 0.44461992 0.29863945 0.21719764 0.14402233 0.6647244 0.5278422 0.22465286
0.98700935 0.65002745 0.2753589 0.6088193 0.23888771 0.44119215 0.20420332 0.22216557
0.3980104 0.21839838 0.228365 0.3488187 0.24010035 0.20979033 0.19478887 0.2062722
0.20083825 0.27365333 0.40866113 0.19749297 0.16911702 0.47850952 0.19140656 0.3901137
0.39906248 0.19513036 0.22971237 0.2760479 0.20223135 0.23937677 0.3840563 0.17358303
0.4233538 0.37214363 0.15906426 0.27183244 0.4327208 1.3209949 0.16370444 0.729091
0.1509183 0.35136586 1.1094606 0.18295309 0.19615486 0.4339287 0.83537227 0.35120773
0.48769513 1.1108035 0.65169364 0.20403953 0.45222455 0.6734401 0.31132075 0.7105737
0.1980665 0.5456299 0.4202032 0.16857073 0.32727712 0.74923605 0.22054297 0.15080449
0.80964535 0.19981638 0.2372665 0.34062907 0.39818957 0.16198847 0.55567974 0.19810714
0.21359415 0.3881862 0.8452577 0.65362895 0.26509205 0.17706907 0.41272083 0.83020926
0.28483108 0.14496137 0.22019853 0.24931881 0.242539 0.21200643 0.9905483 0.2673799
1.3553646 0.20815021 0.24692933 1.0879643 0.27510807 0.7382012 0.21056594 0.17239302
0.6085027 0.909132 0.23477775 0.23813516 0.24857624 0.21700616 0.21092014 0.23840915
0.23844576 0.19527648 0.20380248 0.21648873 0.21293743 0.3719509 0.18634617 0.24058464
0.21484838 0.5262351 0.2549448 0.59864944 0.21045299 0.30737048 0.22327225 0.20551428
00000000: 834f 7f3e aa41 253f 053d ae3e 9d99 d23e
00000010: 4fc8 1c3e b0b5 443e 9fe5 0f3f e9da a93e
00000020: f449 7d3f 04ef 0c3f a6fe 0a3e 33a0 8e3e
00000030: 400b 5d3e 6019 543f 95b8 ec3e 00a2 ad3e
00000040: b179 113f 26c0 8e3e d929 9f3e d1ac 923e
00000050: 2122 003f 45e8 d73e 10cc 893e e5e7 103f
00000060: ee8e 1d3f 3163 ab3e 7eaf 2a3e 9189 5c3e
00000070: f22d 913e 1e6e 593e fd64 923e 1dd3 1d3e
00000080: 27bf b23e c7da 233e 8565 3a3f d057 6a3f
00000090: f7fc ad3e 865a b13e a2c8 483f e938 263f
000000a0: ccdb 043e 75f0 353e 80e2 383e 1e71 4e3e
000000b0: 891c 463e 3a0f 063f b620 c43e c577 683e
000000c0: 6d14 7a3e 4d04 b33e 8b8f 873e 24dc 6f3f
000000d0: 6280 543e 87d5 cd3e b3b3 fb3e 1eb2 2a3f
000000e0: 2a8a 343e bfe5 653f 883d 493e e53c bd3f
000000f0: 67c6 ed3e 4576 a43e 3877 d03e 2021 ed3e
00000100: 2b6b a53e c2f5 a33e 6eba a53e 7956 443e
00000110: e7b3 bc3e 5466 2c3f b386 713e b70e ac3e
00000120: a5c3 593e 5b00 8f3e 772c 8a3e adda fd3d
00000130: 371f 9f3e 71b4 223f 676d 1f3f 958f 293f
00000140: 6db9 843e 480f 503f 3d86 123f 255e 933f
00000150: e76e 0e3f bd79 7d3e c095 313e 0725 803e
00000160: 0e7b 833e 3839 443e 1a84 dc3e 8b16 763e
00000170: df1d 5a3e fa7b 853e 0457 bd3e 0f5b a63e
00000180: bcea b93e 9989 863e dd39 813e 1141 623e
00000190: 969f 823e e0d0 2b3f ac70 8c3e f94b 813e
000001a0: 948d a33e fbf5 923e be9b 853e 3786 3c3f
000001b0: 1da2 8b3e d50a 943e f886 693e 0c0f 873e
000001c0: 5087 353f 2fb7 453e 3367 cb3e cc69 533e
000001d0: 4d31 353e 4aa3 a03e ea41 483e e93b 283e
000001e0: 94db 843e 851e 053f a4d9 173f 875a aa3e
000001f0: 4428 8b3e 18ea 203f 7297 633e ef40 663e
00000200: 6c86 683e 39a5 e33e 45e7 983e 0f69 5e3e
00000210: 977a 133e 612b 2a3f ab20 073f 660b 663e
00000220: a5ac 7c3f 3368 263f d7fb 8c3e 95db 1b3f
00000230: fb9e 743e f0e3 e13e ad1a 513e 5f7f 633e
00000240: 05c8 cb3e d3a3 5f3e 84d8 693e 5d98 b23e
00000250: dedc 753e 47d3 563e bc76 473e 0539 533e
00000260: 8ba8 4d3e 4a1c 8c3e 083c d13e 993b 4a3e
00000270: 032d 2d3e 33ff f43e 1500 443e fcbc c73e
00000280: eb51 cc3e 41d0 473e b839 6b3e 2656 8d3e
00000290: bc15 4f3e 2f1f 753e 07a3 c43e c0bf 313e
000002a0: d4c1 d83e 9c89 be3e bee1 223e 9f2d 8b3e
000002b0: 958d dd3e 5c16 a93f 23a2 273e b5a5 3a3f
000002c0: 548a 1a3e 3ae6 b33e ce02 8e3f 0e58 3b3e
000002d0: d2dc 483e e72b de3e f5da 553f 80d1 b33e
000002e0: 2db3 f93e cf2e 8e3f 65d5 263f bdef 503e
000002f0: fa89 e73e 9266 2c3f 6f65 9f3e 28e8 353f
00000300: f2d1 4a3e 67ae 0b3f e024 d73e ce9d 2c3e
00000310: de90 a73e efcd 3f3f 04d6 613e 7e6c 1a3e
00000320: eb44 4f3f aa9c 4c3e fdf5 723e ef66 ae3e
00000330: 81df cb3e 4ee0 253e 0741 0e3f 99dc 4a3e
00000340: 6db8 5a3e 57c0 c63e cf62 583f 3a54 273f
00000350: 25ba 873e 9851 353e 2550 d33e 9888 543f
00000360: 61d5 913e c170 143e b97b 613e 6e4d 7f3e
00000370: 255c 783e 3718 593e 9394 7d3f 05e6 883e
00000380: 967c ad3f 5425 553e 0bdb 7c3e 6a42 8b3f
00000390: f7da 8c3e c1fa 3c3f 999e 573e cc87 303e
000003a0: d5c6 1b3f e0bc 683f 9469 703e b4d9 733e
000003b0: c58a 7e3e dd36 5e3e 73fb 573e 8721 743e
000003c0: 202b 743e 8ff6 473e 99b1 503e 39af 5d3e
000003d0: 450c 5a3e 5970 be3e 88d1 3e3e d25b 763e
000003e0: 3701 5c3e 58b7 063f 2088 823e 1741 193f
000003f0: fd80 573e aa5f 9d3e 7ba1 643e 5672 523e

down_blocks.0.resnets.1.norm1.bias f4 [320]
-0.06416495 0.22084883 -0.16051643 -0.05827993 -0.03674454 -0.15798804 -0.033112273 -0.062191598
-0.06966308 -0.04101435 -0.052016705 0.02808975 -0.05459896 -0.0811809 -0.049748093 0.0137677705
-0.1435267 -0.074053764 -0.12901904 -0.15761076 -0.022039631 -0.06946399 -0.0868024 0.042587645
-0.0057776785 0.047881607 -0.032326028 -0.0776512 -0.036332905 -0.030264778 -0.14108343 -0.08327389
-0.0063021146 -0.16172837 -0.07875313 -0.01221419 0.029066116 -0.1295097 -0.071973786 -0.117476314
0.024581777 -0.054398175 -0.017739005 0.02435507 -0.04169694 -0.10293017 -0.05819147 -0.027088128
-0.095486924 -0.036070738 -0.039678488 0.16274488 -0.027812582 -0.04645888 -0.04625541 -0.06447704
-0.1325907 -0.06548789 -0.038567323 -0.013454091 -0.10641408 -0.14678174 -0.027313415 0.018760514
-0.08158056 0.045587145 -0.035023 -0.05066528 -0.06293007 0.027620474 -0.007297193 -0.021593291
-0.04806022 -0.01580243 -0.071345076 -0.07949852 -0.09309523 -0.035974752 -0.03759661 -0.07445585
-0.07707588 0.007543173 -0.018154832 -0.088564165 -0.07549007 -0.08570727 -0.08731229 -0.041539453
-0.016155714 -0.038011756 -0.076097496 -0.084493466 -0.06741501 -0.083453305 0.24292512 -0.0722135
-0.05049501 -0.09179595 -0.04636231 -0.06795197 -0.03341993 -0.04132375 0.0044787186 -0.053941924
0.0027128505 -0.022763418 -0.011742655 -0.0019262304 0.09462686 -0.009279385 -0.11414356 -0.06563094
-0.03963659 -0.022069195 -0.021623926 -0.14646846 -0.017920664 -0.077550575 -0.02376755 -0.14677086
-0.07916585 -0.10503991 -0.08791605 -0.0913009 0.31196812 -0.080361776 -0.06874412 -0.08977945
-0.043365616 -0.052923545 -0.015889514 -0.06822399 -0.00841583 -0.071274355 -0.11994679 0.014378483
-0.028183889 -0.012676052 0.04318164 -0.007099147 -0.08699146 -0.037350137 -0.035522047 -0.025861997
-0.03905588 -0.16608419 0.12769803 -0.026520163 -0.01592257 -0.12087695 -0.033987086 -0.14132391
-0.09801351 0.032672014 -0.032068256 -0.114002526 -0.048089195 0.07916547 -0.0136395795 -0.046916444
-0.16414686 0.09109402 -0.008301028 -0.03132331 0.01690965 -0.0762762 -0.045248326 0.074473985
-0.01495232 -0.06966981 -0.056075875 -0.114514805 -0.14815621 -0.02824766 -0.056803655 0.14133327
-0.06256785 -0.013886147 -0.042804603 -0.06835652 -0.079328515 -0.10492592 -0.06813074 -0.054843232
-0.001331563 -0.0041674525 -0.035210293 -0.108414814 -0.17441641 -0.07448119 -0.13444646 -0.020367522
-0.036435895 -0.084564194 0.0736298 -0.096751526 -0.043156456 -0.059532076 -0.053918734 -0.09126538
-0.14436305 -0.123014845 -0.032955 -0.09976627 -0.092685975 -0.09330449 -0.055365626 -0.09159979
0.25958392 -0.0880089 -0.06002602 -0.004148931 -0.06272911 0.021639364 -0.11760567 -0.011478233
0.008585889 0.0051090727 -0.022880381 0.013507017 -0.02660238 -0.06948118 -0.050866082 -0.05676177
-0.054163385 0.01139647 -0.038366828 0.019530013 -0.0108126355 0.06415174 -0.053473774 0.076706916
0.033695582 0.019251354 -0.05824021 0.007760307 -0.04090893 -0.017097797 -0.055620026 -0.17957602
-0.015743893 -0.02174359 0.008851201 -0.013138619 0.018205326 -0.06245692 -0.007949598 -0.048962
0.052732658 -0.0011392339 -0.04871235 -0.06371739 -0.05279705 0.24069162 -0.117152475 -0.107037924
00000000: ea68 83bd 3226 623e 6b5e 24be f0b6 6ebd
00000010: 7181 16bd 9ec7 21be bca0 07bd 9ebc 7ebd
00000020: 84ab 8ebd aafe 27bd 780f 55bd 7a1c e63c
00000030: 29a3 5fbd 2c42 a6bd a8c4 4bbd 3792 613c
00000040: aaf8 12be 80a9 97bd 911d 04be b764 21be
00000050: 758c b4bc 2343 8ebd 75c5 b1bd 6270 2e3d
00000060: ae52 bdbb 811f 443d 4c68 04bd 9807 9fbd
00000070: d0d1 14bd d7ed f7bc 2d78 10be 808b aabd
00000080: f881 cebb 1f9c 25be 5249 a1bd 071e 48bc
00000090: 101c ee3c 319e 04be fe66 93bd 6c97 f0bd
000000a0: b95f c93c 9fd0 5ebd 6451 91bc 4984 c73c
000000b0: 69ca 2abd 0ecd d2bd 2e5a 6ebd ece7 ddbc
000000c0: a68e c3bd e9be 13bd e985 22bd 98a6 263e
000000d0: 36d7 e3bc ab4b 3ebd 5076 3dbd 8a0c 84bd
000000e0: dbc5 07be 841e 86bd c5f8 1dbd 8c6e 5cbc
000000f0: a0ef d9bd f44d 16be 62c0 dfbc a6af 993c
00000100: b513 a7bd 96b9 3a3d 4774 0fbd 6686 4fbd
00000110: 7be1 80bd 5544 e23c 4b1d efbb 6ae4 b0bc
00000120: cbda 44bd 1974 81bc 5e1d 92bd 1fd0 a2bd
00000130: b6a8 bebd 435a 13bd e7fe 19bd 4f7c 98bd
00000140: f5d9 9dbd b92c f73b 71b9 94bc 2161 b5bd
00000150: 8a9a 9abd 4b87 afbd c9d0 b2bd 4625 2abd
00000160: fd58 84bc 37b2 1bbd 01d9 9bbd e90a adbd
00000170: e110 8abd 91e9 aabd 5dc1 783e ace4 93bd
00000180: dbd3 4ebd 84ff bbbd 68e6 3dbd 672a 8bbd
00000190: 56e3 08bd 1843 29bd 37c2 923b 35f2 5cbd
000001a0: 14ca 313b 597a babc 4464 40bc 9179 fcba
000001b0: bacb c13d 9008 18bc 19c4 e9bd 8469 86bd
000001c0: fa59 22bd 75ca b4bc a924 b1bc d4fb 15be
000001d0: 5bce 92bc d6d2 9ebd 2ab4 c2bc 1a4b 16be
000001e0: b521 a2bd 2a1f d7bd 540d b4bd f7fb babd
000001f0: 49ba 9f3e b794 a4bd b8c9 8cbd 4ade b7bd
00000200: 25a0 31bd 5cc6 58bd ba2a 82bc 05b9 8bbd
00000210: 8de2 09bc 4af8 91bd aaa6 f5bd bb93 6b3c
00000220: e6e1 e6bc 37af 4fbc 3bdf 303d f69f e8bb
00000230: 9428 b2bd 75fc 18bd 917f 11bd 8adc d3bc
00000240: 0ff9 1fbd f911 2abe 46c3 023e d040 d9bc
00000250: 0d70 82bc 568e f7bd 0b36 0bbd 37b7 10be
00000260: 4fbb c8bd 17d3 053d 015a 03bd 287a e9bd
00000270: 2df9 44bd 8221 a23d 8b78 5fbc 752b 40bd
00000280: 1d16 28be 808f ba3d 0901 08bc df4c 00bd
00000290: 1b86 8a3c b236 9cbd 4f56 39bd d185 983d
000002a0: 93fa 74bc 0caf 8ebd d1af 65bd bd86 eabd
000002b0: 43b6 17be a367 e7bc f3aa 68bd abb9 103e
000002c0: 9323 80bd b982 63bc e153 2fbd 81fe 8bbd
000002d0: fd76 a2bd 67e3 d6bd 2188 8bbd 4ca3 60bd
000002e0: d787 aeba 208f 88bb ab38 10bd 9608 debd
000002f0: 379a 32be 9889 98bd 55ac 09be cad9 a6bc
00000300: ce3d 15bd fe2f adbd 38cb 963d aa25 c6bd
00000310: d3c4 30bd e8d7 73bd e4d9 5cbd 58e9 babd
00000320: e8d3 13be 35ef fbbd d2fb 06bd 4252 ccbd
00000330: 25d2 bdbd 6d16 bfbd 11c7 62bd ac98 bbbd
00000340: 2fe8 843e 033e b4bd d8dd 75bd c1f3 87bb
00000350: 1f78 80bd 0945 b13c 3edb f0bd 330f 3cbc
00000360: d4ab 0c3c 026a a73b a36f bbbc 894c 5d3c
00000370: 3ced d9bc 264c 8ebd f458 50bd 087f 68bd
00000380: 6dda 5dbd 42b8 3a3c 8926 1dbd 68fd 9f3c
00000390: 7b27 31bc fd61 833d 5107 5bbd 8418 9d3d
000003a0: 6104 0a3d 04b5 9d3c 498d 6ebd 2c4a fe3b
000003b0: 1f90 27bd ae10 8cbc d3d1 63bd c7e2 37be
000003c0: 56f9 80bc 9d1f b2bc a104 113c 5d43 57bc
000003d0: 5623 953c d4d2 7fbd 083f 02bc 618c 48bd
000003e0: 33fe 573d 5952 95ba 9a86 47bd 437e 82bd
000003f0: b841 58bd dd77 763e a3ed efbd b336 dbbd

down_blocks.0.resnets.1.norm1.weight f4 [320]
0.3993402 0.2003011 0.22280104 0.29499295 0.40449318 0.4341951 0.32622287 0.41464007
0.48478004 0.34868237 0.37353668 0.5295262 0.28310552 0.34799376 0.22974385 0.5485032
0.37334692 0.30113703 0.3598393 0.23533583 0.45670822 0.22060265 0.30887765 0.20133719
0.2234372 0.2775822 0.32372504 0.5383268 0.24155144 0.30931738 0.6356305 0.37166998
0.2768664 0.61278874 0.310841 0.33503914 0.5428107 0.29914305 0.33093026 0.3736304
0.22378974 0.20177391 0.27964437 0.2340811 0.192546 0.22201018 0.2363121 0.21958992
0.42095232 0.1626471 0.40893945 0.24604562 0.21655819 0.23775886 0.24167344 0.3504766
0.21138461 0.3134267 0.41676998 0.38040859 0.16010325 0.3782501 0.32870233 0.18948175
0.21301958 0.20897456 0.25683084 0.20221525 0.3391881 0.2015507 0.24990658 0.30383816
0.34788963 0.17554882 0.36607578 0.3745604 0.31788796 0.33488247 0.22919805 0.2310237
0.24626796 0.22307076 0.22189955 0.54007906 0.5610081 0.1691716 0.2285308 0.21973142
0.22873133 0.30109316 0.3754991 0.40325907 0.44302446 0.3713778 0.2418932 0.2838231
0.36915222 0.22370172 0.36724424 0.32054842 0.10917468 0.29760692 0.329578 0.25030637
0.2983229 0.20572312 0.27074897 0.25511217 0.42706057 0.23596443 0.4256484 0.20350453
0.3557679 0.24697869 0.21334483 0.3438459 0.31470373 0.28058383 0.39888546 0.79464114
0.4196044 0.29414573 0.46504351 0.35093403 0.27042437 0.37933645 0.32333288 0.25855136
0.38586557 0.38283 0.18191664 0.1704643 0.2228262 0.44715777 0.59670746 0.20111144
0.1927775 0.20079905 0.2247265 0.21527597 0.4052345 0.32338294 0.3352826 0.24682063
0.40937108 0.40697536 0.20861731 0.3693605 0.3647818 0.25948626 0.21010478 0.23129562
0.38051233 0.2517999 0.34967035 0.1839148 0.23508814 0.18407394 0.44077542 0.50239277
0.21940033 0.29876885 0.19024791 0.28047425 0.25071174 0.3419104 0.19760397 0.40892583
0.34851283 0.30722228 0.297567 0.35983053 0.44683555 0.28345346 0.24723512 0.67371184
0.25689057 0.32457143 0.3069402 0.25971872 0.1698103 0.23873606 0.16469704 0.37958762
0.23175484 0.26040962 0.39021984 0.3119261 0.7509009 0.36573446 0.36717784 0.32714143
0.28303748 0.42177564 0.22148302 0.27608255 0.4475143 0.30389202 0.20931497 0.38294572
0.37883943 0.2877832 0.4779196 0.4602614 0.33389083 0.368499 0.665384 0.2776299
0.31066066 0.50537795 0.1735528 0.18367523 0.32875228 0.3774084 0.14665575 0.2630056
0.1954608 0.07483754 0.17557915 0.26769337 0.1884941 0.25518852 0.22130394 0.279806
0.22859564 0.5491688 0.29244313 0.1993828 0.2415314 0.25281557 0.40586427 0.22821434
0.3159645 0.31231657 0.36513874 0.20527777 0.53814656 0.44258514 0.41278 0.18243848
0.35394543 0.21781327 0.31162754 0.25057733 0.22531956 0.16395684 0.2030465 0.27368638
0.3371389 0.23635472 0.4040761 0.26477346 0.34976014 0.36001563 0.31531942 0.35985455
00000000: 5276 cc3e bb1b 4d3e f525 643e 5109 973e
00000010: bb19 cf3e d24e de3e af06 a73e b44b d43e
00000020: 1735 f83e 7f86 b23e 3340 bf3e 078f 073f
00000030: 35f3 903e 3d2c b23e f941 6b3e b56a 0c3f
00000040: 5427 bf3e a22e 9a3e db3c b83e e0fb 703e
00000050: a9d5 e93e a9e5 613e 3625 9e3e 562b 4e3e
00000060: b9cc 643e 411f 8e3e 4abf a53e c9cf 093f
00000070: 4359 773e d95e 9e3e aeb8 223f 874b be3e
00000080: 6fc1 8d3e b9df 1c3f 8d26 9f3e 408a ab3e
00000090: a4f5 0a3f 4729 993e b16f a93e 7c4c bf3e
000000a0: 2329 653e d29d 4e3e 8c2d 8f3e f5b2 6f3e
000000b0: c72a 453e a356 633e cdfb 713e 2edc 603e
000000c0: 1087 d73e f68c 263e 8360 d13e 62f3 7b3e
000000d0: 6ec1 5d3e 0f77 733e 3e79 773e ab71 b33e
000000e0: 3575 583e 7779 a03e e062 d53e eac4 c23e
000000f0: 1bf2 233e ffa9 c13e ac4b a83e 8107 423e
00000100: ce21 5a3e 6dfd 553e 557f 833e 8411 4f3e
00000110: 10aa ad3e 4f63 4e3e 83e7 7f3e ad90 9b3e
00000120: 971e b23e 12c3 333e 496e bb3e 61c6 bf3e
00000130: 36c2 a23e b775 ab3e e5b2 6a3e 7a91 6c3e
00000140: ab2d 7c3e a96c 643e a339 633e 9f42 0a3f
00000150: 3a9e 0f3f 523b 2d3e fa03 6a3e 4601 613e
00000160: 8c38 6a3e e228 9a3e 6b41 c03e f977 ce3e
00000170: 1ad4 e23e 3b25 be3e dab2 773e 4351 913e
00000180: 8501 bd3e 1012 653e 7007 bc3e ec1e a43e
00000190: fa96 df3d ef5f 983e 73be a83e 2828 803e
000001a0: c7bd 983e 15a9 523e 9c9f 8a3e 109e 823e
000001b0: afa7 da3e a9a0 713e 96ee d93e 7e63 503e
000001c0: 3627 b63e fbe7 7c3e 1177 5a3e 920c b03e
000001d0: d920 a13e afa8 8f3e b73a cc3e 9a6d 4b3f
000001e0: 63d6 d63e 459a 963e 2f1a ee3e a0ad b33e
000001f0: 1075 8a3e 6338 c23e e38b a53e d860 843e
00000200: 2c90 c53e 4b02 c43e 5b48 3a3e 328e 2e3e
00000210: 8d2c 643e ddf1 e43e d2c1 183f 28f0 4d3e
00000220: 7767 453e 449e 4d3e b41e 663e 4e71 5c3e
00000230: e57a cf3e 7392 a53e 29aa ab3e 8cbe 7c3e
00000240: 1699 d13e 135f d03e c79f 553e d21c bd3e
00000250: aec4 ba3e 62db 843e b525 573e c2d8 6c3e
00000260: 83d2 c23e ebeb 803e fe07 b33e 2954 3c3e
00000270: f2ba 703e e17d 3c3e 51ad e13e d09c 003f
00000280: 7baa 603e 3bf8 983e 59d0 423e 529a 8f3e
00000290: 4a5d 803e e10e af3e b258 4a3e ba5e d13e
000002a0: 4670 b23e 3d4c 9d3e b45a 983e b53b b83e
000002b0: a1c7 e43e d020 913e 342b 7d3e 6178 2c3f
000002c0: 2987 833e 3a2e a63e 4427 9d3e daf9 843e
000002d0: c0e2 2d3e 3a77 743e 57a6 283e 4f59 c23e
000002e0: 2451 6d3e 6954 853e e5ca c73e c7b4 9f3e
000002f0: 0b3b 403f 8c41 bb3e bcfe bb3e 157f a73e
00000300: 4aea 903e faf2 d73e 72cc 623e b15a 8d3e
00000310: 9820 e53e bc97 9b3e aa56 563e 7611 c43e
00000320: 3ef7 c13e 5258 933e e1b1 f43e 62a7 eb3e
00000330: bdf3 aa3e e7ab bc3e 9b56 2a3f 8225 8e3e
00000340: ea0e 9f3e 7360 013f d3b7 313e 5c15 3c3e
00000350: 3852 a83e ac3b c13e ed2c 163e aca8 863e
00000360: e026 483e 6d44 993d 05cb 333e 1b0f 893e
00000370: 9904 413e 12a8 823e 809d 623e bb42 8f3e
00000380: fa14 6a3e 5496 0c3f 1bbb 953e 012b 4c3e
00000390: 0254 773e 0b71 813e 71cd cf3e 05b1 693e
000003a0: 19c6 a13e f5e7 9f3e 77f3 ba3e 5634 523e
000003b0: f9c3 093f 859a e23e e657 d33e 27d1 3a3e
000003c0: 5638 b53e 710a 5f3e a58d 9f3e ac4b 803e
000003d0: 2cba 663e 4de4 273e 6ceb 4f3e 9f20 8c3e
000003e0: 789d ac3e f906 723e 10e3 ce3e 6390 873e
000003f0: c313 b33e f853 b83e 8c71 a13e db3e b83e

down_blocks.0.resnets.1.norm2.bias f4 [320]
-0.2309022 -0.15053736 -0.10520768 -0.18739223 -0.2587087 -0.09671105 -0.08396417 -0.1765273
-0.25448602 -0.19877194 -0.062263843 -0.26951465 -0.23936675 -0.111815676 -0.20765574 -0.26192045
-0.06578603 -0.2766598 -0.05886462 -0.18345478 -0.15656552 -0.07473644 -0.29403198 -0.08428436
-0.2500483 -0.1285459 0.0062580076 -0.07401196 -0.21802674 -0.23091075 -0.22603112 -0.20324706
-0.17844379 -0.32096502 -0.20851874 -0.103074364 -0.12148703 0.010332354 -0.13940611 -0.21703562
-0.11648275 -0.2603146 -0.43465397 -0.41373783 -0.17190076 -0.21967621 -0.28460512 -0.29381543
-0.284719 -0.16999106 -0.23164548 -0.20788446 -0.08286342 -0.25277773 -0.31130472 -0.17357454
-0.29208604 -0.13303433 -0.102139786 -0.15248299 -0.09217613 -0.0723592 -0.117236 -0.11832205
-0.11560155 -0.28238907 -0.3242382 -0.12141732 -0.17238878 -0.16379437 -0.09420674 -0.07668667
-0.029110227 -0.32003003 -0.24581267 -0.3148311 -0.089644715 -0.14915831 -0.123472795 -0.10636731
-0.17171907 -0.17418693 -0.12901366 -0.14895158 -0.33258033 -0.36767006 -0.056834754 -0.31658158
-0.25554353 -0.17396528 -0.19081688 -0.12247225 -0.048094124 -0.16666938 -0.034231998 -0.16683725
-0.07028031 -0.16391347 -0.23444167 -0.11473248 -0.08620381 -0.59985214 -0.2209594 -0.28700396
-0.09959305 -0.2957105 -0.23278785 -0.08463425 -0.2421871 -0.22290857 -0.19314606 -0.0017884875
-0.09658365 -0.12112396 -0.20052364 -0.2651999 -0.20630391 -0.21446729 -0.10488308 -0.20193698
-0.12309984 -0.15927738 -0.019756254 -0.14840639 0.061720952 -0.121501654 -0.2401268 -0.1645026
-0.2866017 -0.25660607 -0.24922094 -0.33454952 -0.24209334 -0.2314331 -0.17600307 -0.13039388
-0.34900436 -0.28813237 -0.05907881 -0.13943791 -0.18809383 -0.20438416 -0.35563132 -0.2516625
-0.10341635 -0.17584135 -0.27964276 -0.20746063 -0.050868988 -0.205794 -0.06938668 -0.25540358
-0.2340005 -0.20834981 -0.22904044 -0.07666121 -0.15620722 -0.17562892 -0.12625803 -0.11880623
-0.15639426 -0.052453123 -0.1860037 -0.18730569 -0.24262068 -0.18984345 -0.15426074 -0.4293576
-0.21414723 -0.26650274 -0.2726577 -0.23440409 -0.085414425 -0.22406165 -0.27936924 -0.35512587
-0.13790715 -0.10934567 -0.1447618 -0.08800655 -0.11920807 -0.15634972 -0.0125161335 -0.103749886
-0.1044394 -0.19865175 -0.1431516 -0.17059839 -0.19577102 -0.21546623 -0.37667438 -0.14195113
-0.0929595 -0.35032052 -0.1876111 -0.29897356 -0.22234996 -0.3186366 -0.19638973 -0.1312433
-0.160503 -0.22876872 -0.14545432 -0.3336368 -0.06412915 -0.18818007 -0.008699029 -0.21090463
-0.22484984 -0.13877356 -0.1567777 -0.19482097 -0.32001823 -0.24739921 -0.16872267 -0.099383734
-0.21476461 -0.31096354 -0.20848855 -0.16097468 -0.14841327 -0.1381876 -0.107520506 -0.24080905
-0.13951996 -0.22973652 -0.11066156 -0.09574746 -0.2605282 -0.28544065 -0.18233287 -0.23187028
-0.16966604 -0.109800264 -0.09899843 -0.15326466 -0.07724055 -0.21049784 -0.20599923 -0.12685017
-0.3772619 -0.16600943 -0.3115603 -0.2802591 -0.13619682 0.02029734 -0.33535373 -0.3184409
-0.42920342 -0.19652364 -0.40536442 -0.19272952 -0.064887345 -0.1340819 -0.24808304 -0.1365306
00000000: a071 6cbe 7726 1abe 2077 d7bd c0e3 3fbe
00000010: 7775 84be 7110 c6bd 68f5 abbd 93c3 34be
00000020: fe4b 82be df8a 4bbe 5f08 7fbd d3fd 89be
00000030: 8f1c 75be 9eff e4bd b5a3 54be 701a 86be
00000040: d3ba 86bd 5aa6 8dbe 071c 71bd 92db 3bbe
00000050: b652 20be 6b0f 99bd 5c8b 96be 479d acbd
00000060: 5506 80be 89a1 03be f90f cd3b 9593 97bd
00000070: 6742 5fbe de73 6cbe b474 67be ff1f 50be
00000080: f8b9 36be 8755 a4be f085 55be a718 d3bd
00000090: 31ce f8bd 0949 293c 7ac0 0ebe 963e 5ebe
000000a0: 828e eebd f547 85be f78a debe 72d5 d3be
000000b0: c106 30be cdf2 60be c3b7 91be fa6e 96be
000000c0: b0c6 91be 2312 2ebe 7934 6dbe aadf 54be
000000d0: 4cb4 a9bd 156c 81be 5563 9fbe 86bd 31be
000000e0: 4d8c 95be 273a 08be aa2e d1bd 8024 1cbe
000000f0: d7c6 bcbd 0f31 94bd 6e19 f0bd d552 f2bd
00000100: 81c0 ecbd 4d95 90be 8d02 a6be a5a9 f8bd
00000110: af86 30be b6b9 27be 77ef c0bd e70d 9dbd
00000120: 9278 eebc fada a3be 51b6 7bbe 8b31 a1be
00000130: a697 b7bd f5bc 18be 4edf fcbd 1bd7 d9bd
00000140: 20d7 2fbe 0f5e 32be 281c 04be c386 18be
00000150: f847 aabe 403f bcbe 8fcb 68bd fb16 a2be
00000160: 9ad6 82be f423 32be 8065 43be bbd2 fabd
00000170: 58fe 44bd 61ab 2abe da36 0cbd 62d7 2abe
00000180: 20ef 8fbd efd8 27be 7a11 70be ddf8 eabd
00000190: a08b b0bd e98f 19bf 2e43 62be 2ff2 92be
000001a0: 71f7 cbbd 5e67 97be f05f 6ebe b954 adbd
000001b0: e5ff 77be 2542 64be 15c8 45be af6b eaba
000001c0: a6cd c5bd d70f f8bd 1256 4dbe 48c8 87be
000001d0: 5541 53be 509d 5bbe f1cc d6bd 91c8 4ebe
000001e0: c51b fcbd 9c19 23be ded7 a1bc d8f7 17be
000001f0: 1ccf 7c3d dcd5 f8bd cde3 75be 5f73 28be
00000200: 75bd 92be df61 83be c633 7fbe 134a abbe
00000210: 51e7 77be ccfc 6cbe 263a 34be f985 05be
00000220: b3b0 b2be 1686 93be 9ffc 71bd d0c8 0ebe
00000230: ab9b 40be 154a 51be 4f15 b6be e8d9 80be
00000240: f4cb d3bd c10f 34be 562d 8fbe 8f70 54be
00000250: 005c 50bd aabb 52be 9b1a 8ebd 42c4 82be
00000260: d49d 6fbe a759 55be 9489 6abe 8d00 9dbd
00000270: c9f4 1fbe 11d8 33be c949 01be ae50 f3bd
00000280: d125 20be 16d9 56bd c177 3ebe 10cd 3fbe
00000290: 8e71 78be 5266 42be 87f6 1dbe c2d4 dbbe
000002a0: 6949 5bbe 0c73 88be ca99 8bbe a007 70be
000002b0: c2ed aebd 6b70 65be 7c09 8fbe 0fd3 b5be
000002c0: 8837 0dbe 9ff0 dfbd 703c 14be c73c b4bd
000002d0: 5c23 f4bd 241a 20be 7810 4dbc d27a d4bd
000002e0: 53e4 d5bd 5d6b 4bbe 5596 12be 58b1 2ebe
000002f0: 3378 48be 2ea3 5cbe 77db c0be a35b 11be
00000300: 8d61 bebd 365d b3be 201d 40be 1013 99be
00000310: b5af 63be 5624 a3be 641a 49be a564 06be
00000320: e65a 24be 5942 6abe faf1 14be 71d2 aabe
00000330: 2556 83bd 47b2 40be 5f86 0ebc 62f7 57be
00000340: 093f 66be a81a 0ebe 558a 20be 267f 47be
00000350: 6ed9 a3be 3856 7dbe a3c5 2cbe b389 cbbd
00000360: 41eb 5bbe 9d36 9fbe 067e 55be 8cd6 24be
00000370: a6f9 17be 0d81 0dbe b633 dcbd a696 76be
00000380: 52de 0ebe 0d40 6bbe 87a2 e2bd 3f17 c4bd
00000390: f463 85be 4725 92be 78b5 3abe 676f 6dbe
000003a0: efbc 2dbe f6de e0bd b0bf cabd 69f1 1cbe
000003b0: 4b30 9ebd bf8c 57be 76f1 52be 03e5 01be
000003c0: 7928 c1be 60fe 29be d584 9fbe 1f7e 8fbe
000003d0: 2e77 0bbe 9b46 a63c 7cb3 abbe b00a a3be
000003e0: 8dc0 dbbe 7e3d 49be ed8b cfbe e35a 45be
000003f0: a8e3 84bd c44c 09be 7b09 7ebe adce 0bbe

down_blocks.0.resnets.1.norm2.weight f4 [320]
0.7030859 0.53578895 0.5217083 0.34861627 0.6298419 0.7361157 0.44065693 0.37554994
0.72235537 0.303356 0.3835259 0.44055974 0.5710713 0.33630764 0.6873852 0.5936071
0.6035003 0.5771372 0.5172487 0.6083717 0.31971166 0.7168904 0.79634964 0.41966632
0.45062608 0.39463624 0.4110791 0.45196363 0.5508684 0.59447366 0.9088442 0.44834846
0.49507758 0.5678982 0.49687743 0.7173401 0.42671743 0.52450377 0.2814094 0.3271946
0.58403087 0.5806248 0.7915602 0.69696385 0.29496545 0.5931979 0.61346054 0.58830184
0.37919593 0.652085 0.4374881 0.35714802 0.5130139 0.572899 0.7891354 0.30049202
0.62893224 0.33919188 0.2951744 0.8176411 0.46773687 0.42403945 0.56243026 0.27383628
0.581005 0.656598 0.6469234 0.6290908 0.26727632 0.6877176 0.58886015 0.36761072
0.4939429 0.6867023 0.5329564 0.79771733 0.28691664 0.4821327 0.5226489 0.3795027
0.35944602 0.58932585 0.5660089 0.5090285 0.8488121 1.1041865 0.3280857 0.70739394
0.3419981 0.4761723 0.6680766 0.45304012 0.33554912 0.51457 0.30862522 0.543911
0.44172 0.6353489 0.5928538 0.34785748 0.41313472 1.3407055 0.4718435 0.5138563
0.53575075 0.7227296 0.25205687 0.60541147 0.6695364 0.59540933 0.40661705 0.46547323
0.27960113 0.49862784 0.57323927 0.7889716 0.73087937 0.4213838 0.4501396 0.57471126
0.27131444 0.38665694 0.706501 0.55396795 0.53023237 0.5483173 0.6574785 0.6342885
0.42329168 0.53078187 0.486424 0.6449689 0.36441526 0.779058 0.5553232 0.29052958
1.0802635 0.45262814 0.4755935 0.55054843 0.24399346 0.38349044 0.94238293 0.99306697
0.31709602 0.5232787 0.6689284 0.47972643 0.5596246 0.2532385 0.3000978 1.0166368
0.69394934 0.5138739 0.6014343 0.35916108 0.32917967 0.5485072 0.31911817 0.49643937
0.69924974 0.3677032 0.44486818 0.5634034 0.855706 0.27010405 0.57918185 1.0882663
0.6049449 0.6022522 0.48353106 0.3956765 0.3287021 0.5873602 0.529704 0.7991416
0.7913517 0.46737248 0.29418886 0.38429052 0.7059046 0.6085717 0.2594877 0.2801348
0.6912531 0.33988377 0.6575056 0.608307 0.622398 0.308514 0.85916775 0.6258932
0.6596639 0.5483097 0.43779933 0.5510963 0.28897536 0.6495077 0.5338677 0.43756416
0.3912067 0.6772456 0.6783224 0.5378917 0.42876774 0.712994 0.6183864 0.31931335
0.57286376 0.66415966 0.55258304 0.5306543 0.56777024 0.87875336 0.37891573 0.6061922
0.5150213 1.0138708 0.5392533 0.2309945 0.42047152 0.31600907 0.6812828 0.4748997
0.32850817 0.5870612 0.42456207 0.64288247 0.48268697 0.45404723 0.45039585 0.7022074
0.33813828 0.66163224 0.3252875 0.7210882 0.39172778 0.4599458 0.5643852 0.36208037
0.63263154 0.2704503 0.6586153 0.5645223 0.23682946 0.5252272 0.8236402 0.6753
0.7916522 0.69231814 0.5419834 0.3270403 0.7394742 0.5378753 0.49720624 0.5402606
00000000: 70fd 333f 7729 093f ad8e 053f d57d b23e
00000010: 523d 213f 1472 3c3f c99d e13e 1548 c03e
00000020: 48ec 383f 7a51 9b3e 825d c43e 0c91 e13e
00000030: bb31 123f 8430 ac3e 7af8 2f3f a3f6 173f
00000040: ff7e 1a3f 43bf 133f 696a 043f 3fbe 1b3f
00000050: 3fb1 a33e 2186 373f 92dd 4b3f 81de d63e
00000060: 76b8 e63e c30d ca3e f678 d23e c767 e73e
00000070: b605 0d3f 6d2f 183f 03aa 683f ee8d e53e
00000080: cf7a fd3e c761 113f b866 fe3e 9aa3 373f
00000090: b57a da3e e145 063f e514 903e 0d86 a73e
000000a0: 0c83 153f d4a3 143f b0a3 4a3f 396c 323f
000000b0: b605 973e d1db 173f c00b 1d3f f39a 163f
000000c0: f825 c23e 0bef 263f 71fe df3e 1bdc b63e
000000d0: e154 033f 82a9 123f c704 4a3f 17da 993e
000000e0: b401 213f 8faa ad3e 1921 973e ed50 513f
000000f0: 357b ef3e b31b d93e 6efb 0f3f 4534 8c3e
00000100: bebc 143f ce16 283f c69c 253f 180c 213f
00000110: 71d8 883e 430e 303f 8abf 163f 7937 bc3e
00000120: 15e6 fc3e b9cb 2f3f d56f 083f 3437 4c3f
00000130: bde6 923e 19da f63e 51cc 053f 2e4e c23e
00000140: 4f09 b83e 0fde 163f f6e5 103f b14f 023f
00000150: c04b 593f fc55 8d3f d9fa a73e c517 353f
00000160: 601a af3e dbcc f33e 1107 2b3f e0f4 e73e
00000170: 18cd ab3e dcba 033f 2004 9e3e c03d 0b3f
00000180: 2029 e23e 3aa6 223f 44c5 173f 601a b23e
00000190: 6586 d33e 3d9c ab3f 7995 f13e 168c 033f
000001a0: f626 093f cf04 393f 990d 813e 3ffc 1a3f
000001b0: bd66 2b3f bf6c 183f 1c30 d03e 8252 ee3e
000001c0: e127 8f3e 264c ff3e cfbf 123f 0bfa 493f
000001d0: e91a 3b3f 9ebf d73e b378 e63e 4720 133f
000001e0: bae9 8a3e e6f7 c53e 40dd 343f d8d0 0d3f
000001f0: 4fbd 073f 865e 0c3f 8350 283f bb60 223f
00000200: b0b9 d83e 52e1 073f 910c f93e af1c 253f
00000210: a394 ba3e 5870 473f a929 0e3f 4bc0 943e
00000220: 1346 8a3f e0be e73e fe80 f33e bef0 0c3f
00000230: 6cd9 793e dc58 c43e 0240 713f a339 7e3f
00000240: 695a a23e 98f5 053f e43e 2b3f b49e f53e
00000250: 8f43 0f3f 7aa8 813e 6ba6 993e 2821 823f
00000260: aaa6 313f 3d8d 033f 99f7 193f f6e3 b73e
00000270: 3d8a a83e f86a 0c3f 7563 a33e 4d2d fe3e
00000280: 0802 333f 9843 bc3e c3c5 e33e 353b 103f
00000290: 8c0f 5b3f 144b 8a3e 4345 143f 4f4c 8b3f
000002a0: abdd 1a3f 332d 1a3f 6291 f73e 1c96 ca3e
000002b0: a44b a83e 3d5d 163f ae9a 073f 8b94 4c3f
000002c0: 0696 4a3f 724b ef3e ec9f 963e bac1 c43e
000002d0: 2ab6 343f 5bcb 1b3f 92db 843e d46d 8f3e
000002e0: f7f5 303f 3f05 ae3e 4952 283f 02ba 1b3f
000002f0: 7a55 1f3f 8cf5 9d3e 6bf2 5b3f 893a 203f
00000300: bcdf 283f 065e 0c3f 3c27 e03e a614 0d3f
00000310: 94f4 933e 2346 263f 8eab 083f 6908 e03e
00000320: 3f4c c83e f85f 2d3f 89a6 2d3f 45b3 093f
00000330: 7287 db3e c686 363f 924e 1e3f 0a7d a33e
00000340: 33a7 123f 5e06 2a3f 1576 0d3f f6d8 073f
00000350: 6459 113f fbf5 603f 3e01 c23e 692f 1b3f
00000360: 70d8 033f 85c6 813f 810c 0a3f d289 6c3e
00000370: 0b48 d73e f1cb a13e 8d68 2e3f 0e26 f33e
00000380: 3932 a83e a549 163f 3360 d93e f293 243f
00000390: bf22 f73e e178 e83e 499a e63e ddc3 333f
000003a0: 7620 ad3e bb60 293f 158c a63e 3c99 383f
000003b0: 8b90 c83e 047e eb3e 8c7b 103f 9962 b93e
000003c0: 24f4 213f 7678 8a3e 039b 283f 8984 103f
000003d0: 6c83 723e 4a75 063f 16da 523f 76e0 2c3f
000003e0: b8a9 4a3f c33b 313f 6dbf 0a3f d471 a73e
000003f0: 2e4e 3d3f 32b2 093f d191 fe3e 854e 0a3f
