models/res_adapter/resadapter_v1_sdxl/pytorch_lora_weights.safetensors (safetensors, 923064 bytes, 8 tensors)

lora_unet_down_blocks_0_downsamplers_0_conv.lora_down.weight f2 [16, 320, 3, 3]
00000000: 8f96 0f2c 072c da9c 8425 0b2c b2a5 7e24
00000010: d42d e7ac ef2c baa4 9f22 1c2c f4ad 4825
00000020: 952a 89a4 9d2c 91a0 1e20 bd9f d0a9 caad
00000030: 7530 2b26 fda9 71a8 dba3 df2f 91b0 5da6
00000040: feaa 2e20 972b c7a5 c0a5 5dad 8dab 8ea0
00000050: 2724 4daf f625 0224 2228 b6aa fca0 85ac
00000060: 95a9 df27 0022 c830 3229 83ab 32a8 b51b
00000070: b620 042f 5221 3c1f 53ab 8e9d 42b0 09a2
00000080: 00a6 2daa bca0 4f28 62a9 75a6 63a7 e026
00000090: a629 f3a5 9eac bea6 062b 49ae c5a1 922e
000000a0: e8a5 3ca7 4328 ce27 2fa7 3bad 7a2f 92ad
000000b0: 19ac a3ae 7923 b02a 002d b22f ab25 d0a4
000000c0: 4024 212a 6e21 94a8 dd1b af2f c4a5 f8aa
000000d0: 7329 c9a9 9028 7aac 22a8 19a4 77ac 7b27
000000e0: d62a 0b2d 9720 65a5 91a7 4d29 51a9 c0aa
000000f0: 532d 5828 a02d 4b24 0423 922c 4ba5 9923
00000100: e025 80a4 35a5 dd27 cdad 9b22 9ca8 a2aa
00000110: 5427 33b0 58ab 2790 d1ae d12a 31af dbac
00000120: f326 dd9a 8322 f924 3d28 4aa6 8b25 67a8
00000130: e2ac 66a8 c5a9 0e20 aaac fca5 80ab 2529
00000140: 11af 4caa 522d 45ab 8d24 55a5 3530 f0ae
00000150: 3a24 a82e eca8 46a8 23ab 36b0 a026 49b2
00000160: 9ead 3dac a4af 28ac a8aa 7017 812d 38a6
00000170: 3694 3528 04a6 e328 4f9c 96a4 fead cbad
00000180: 2aae b4a8 72a9 13a6 c1ad 8b2c 1228 3b25
00000190: bd29 4223 3329 0ca5 bb23 4caa 722a 4a2f
000001a0: b127 bd2b b2a8 9ba6 4a28 0c2c cf2c 952a
000001b0: 1ea8 f5a9 e1aa a5ad 3031 142e 12b0 1820
000001c0: 1f2a 20af 301e 93ad 27a5 05b0 00af 009f
000001d0: 82a6 b59c 452b 74a1 d12c 18ab 96a0 93a7
000001e0: 2225 352d 2aa8 5d2d f3ad cca7 81ac 312c
000001f0: 37ad 77a4 1029 fc21 619f 3426 0c28 149a
-0.001601 0.0634 0.0629 -0.004738 0.02155 0.0632 -0.02225 0.01755
0.09106 -0.0766 0.0771 -0.01846 0.01293 0.0642 -0.093 0.02063
0.05142 -0.01772 0.0721 -0.00892 0.00804 -0.007557 -0.0454 -0.09045
0.1393 0.0241 -0.04678 -0.0347 -0.01534 0.123 -0.1427 -0.02486
-0.05463 0.00816 0.0593 -0.02257 -0.02246 -0.0838 -0.059 -0.008896
0.01622 -0.1141 0.02328 0.01566 0.0323 -0.05243 -0.009735 -0.0706
-0.0436 0.03075 0.01172 0.1494 0.0406 -0.0587 -0.03278 0.003763
0.0092 0.1096 0.01039 0.007065 -0.05722 -0.005424 -0.133 -0.01179
-0.02344 -0.04825 -0.00925 0.03366 -0.04205 -0.02522 -0.02885 0.02686
0.04413 -0.02324 -0.07214 -0.02634 0.05487 -0.0982 -0.01127 0.10266
-0.02307 -0.02826 0.0333 0.03049 -0.02806 -0.0817 0.1168 -0.08704
-0.064 -0.1037 0.014595 0.05225 0.0781 0.12024 0.02214 -0.0188
0.0166 0.04788 0.010605 -0.03577 0.00384 0.12006 -0.02252 -0.05444
0.04257 -0.0452 0.03564 -0.06995 -0.0323 -0.016 -0.06976 0.02922
0.0534 0.0788 0.008965 -0.02107 -0.02956 0.0414 -0.04153 -0.05273
0.0832 0.03394 0.0879 0.01677 0.0137 0.0714 -0.02068 0.01484
0.02295 -0.01758 -0.02034 0.03072 -0.09064 0.0129 -0.036 -0.05182
0.02863 -0.1312 -0.05737 -0.000507 -0.1065 0.05325 -0.11237 -0.07587
0.02715 -0.003351 0.01272 0.01942 0.0331 -0.02457 0.02165 -0.0344
-0.0763 -0.03436 -0.04507 0.00792 -0.0729 -0.02338 -0.0586 0.0402
-0.1104 -0.0492 0.0831 -0.0568 0.01778 -0.02083 0.1315 -0.1084
0.01651 0.104 -0.03845 -0.0334 -0.05576 -0.1316 0.02588 -0.1964
-0.08777 -0.0662 -0.1194 -0.06494 -0.052 0.001816 0.086 -0.02429
-0.001028 0.03287 -0.0235 0.03818 -0.004208 -0.01791 -0.0936 -0.0905
-0.0963 -0.03674 -0.04254 -0.02373 -0.0899 0.071 0.0318 0.02043
0.04483 0.014175 0.04062 -0.01971 0.0151 -0.0492 0.05035 0.1139
0.03004 0.06046 -0.03668 -0.0258 0.0335 0.06323 0.07513 0.05142
-0.03217 -0.04654 -0.05374 -0.0882 0.1621 0.095 -0.1272 0.007996
0.04782 -0.1113 0.006042 -0.0871 -0.02013 -0.1256 -0.1094 -0.006836
-0.02542 -0.004597 0.0568 -0.01065 0.07526 -0.05542 -0.00896 -0.02959
0.02005 0.08136 -0.03253 0.0838 -0.09296 -0.03046 -0.0704 0.0655
-0.0815 -0.01744 0.03955 0.01169 -0.007206 0.02423 0.03162 -0.002968

lora_unet_down_blocks_0_downsamplers_0_conv.lora_up.weight f2 [320, 16, 1, 1]
00000000: 799f 7620 db28 0425 1ba4 119e 5ea8 68a7
00000010: 541e 3919 7415 2f9b 0014 9420 1a91 64a1
00000020: 2fa5 0a9c 289f 499b 82a7 339c b619 0627
00000030: 7c24 ca24 cd1b 89a2 d3a5 c19f 419f a624
00000040: f525 bc27 bf28 45a8 2da4 f4a4 7827 5920
00000050: 57a7 bfa6 06a5 bc24 581d 16a7 42a4 54a4
00000060: 97a4 2298 2ba4 fc9b f59c d3a0 6496 9425
00000070: d124 5a25 ada4 8715 3da6 9d1b f29d b523
00000080: 1a24 1125 7d1c 4ea4 0f9c 04a0 0824 f81a
00000090: 24a4 789a df1f 3c24 bc00 d425 19a5 4c9e
000000a0: 3fa6 76a9 95ab 6925 a028 2c29 0698 f011
000000b0: 3327 1828 d82b 88a8 48a9 ad2a 7921 5829
000000c0: daa5 28a9 53a9 b027 fd24 9527 cda9 a91f
000000d0: d828 222a 3127 3fa6 8aa8 a827 ea29 8828
000000e0: de1d c59f 151e 2397 a122 0a9a 97a5 1118
000000f0: f29e be9e a51c 1922 5f25 ea1b c5a3 9592
00000100: 05a4 a7a3 9e9c 0c21 8528 f729 3faa 99a0
00000110: 3a25 e921 c129 14a4 46a7 3e21 28a8 9526
00000120: 9224 8c8e 2c95 241f fe23 ada4 361b 59a5
00000130: 98a4 6ea5 2423 9623 6025 919e f41d a80c
00000140: 78a9 a5ab bfa8 5927 a125 c72a 97a6 4d0a
00000150: 472a f92a 9629 99a9 62a7 5d28 fb29 a524
00000160: eda0 59a4 6aa5 8d1e dd1e ea22 83a0 1322
00000170: 2026 da25 ba28 aca3 f5a6 a422 0925 cd28
00000180: 839e a7a8 d9a1 e920 12a1 0b28 a7a1 e9a0
00000190: e428 2818 46a0 579f d219 8d94 2621 1928
000001a0: 2b2a e926 9329 0812 5f26 93a9 d29c 54a5
000001b0: cda8 11ab 30a1 a12a dc27 00a5 3e1d 11a9
000001c0: 192a 4125 0f20 a7a7 80a7 16a6 0325 2999
000001d0: 56a6 87a1 cfa7 3628 7f26 cda4 b719 16a7
000001e0: 4ba3 7ea0 5920 5d25 e909 2d20 4222 4122
000001f0: 8b2b 1829 3322 8aa5 5ca4 0622 5da5 a021
-0.007298 0.00871 0.03793 0.01959 -0.01604 -0.005924 -0.03412 -0.02893
0.00618 0.00255 0.001331 -0.003508 0.000977 0.00894 -0.0006227 -0.01053
-0.02025 -0.003944 -0.00699 -0.003557 -0.02933 -0.0041 0.002789 0.02744
0.01752 0.0187 0.003809 -0.012764 -0.02275 -0.007572 -0.007084 0.01816
0.02327 0.03021 0.03708 -0.03336 -0.01631 -0.01935 0.02917 0.00849
-0.02867 -0.02635 -0.01962 0.0185 0.00522 -0.02768 -0.01663 -0.0169
-0.01793 -0.002018 -0.01628 -0.003899 -0.00484 -0.00942 -0.00156 0.02179
0.01881 0.0209 -0.01826 0.001349 -0.02437 0.003717 -0.005806 0.01505
0.01602 0.01979 0.004383 -0.01682 -0.003963 -0.00784 0.01575 0.003403
-0.01617 -0.003159 0.007687 0.01654 1.12e-05 0.02277 -0.01991 -0.00615
-0.0244 -0.04266 -0.05923 0.02113 0.03613 0.0404 -0.001965 0.000725
0.02812 0.03198 0.06128 -0.0354 -0.04126 0.05215 0.01069 0.04175
-0.02286 -0.04028 -0.0416 0.03003 0.01949 0.02962 -0.04532 0.00748
0.03784 0.0479 0.02809 -0.0244 -0.03546 0.0299 0.0462 0.0354
0.00573 -0.007587 0.00594 -0.001742 0.01295 -0.002949 -0.02184 0.001986
-0.006783 -0.006584 0.004536 0.01191 0.02098 0.003864 -0.015175 -0.0008035
-0.0157 -0.014946 -0.00451 0.00986 0.0353 0.0466 -0.0488 -0.00898
0.02042 0.01154 0.04495 -0.01593 -0.02841 0.01024 -0.03247 0.02571
0.01785 -0.0003996 -0.001263 0.006973 0.01561 -0.01826 0.003521 -0.02089
-0.01794 -0.02121 0.01395 0.01482 0.021 -0.006413 0.005814 0.0002842
-0.04272 -0.05972 -0.03708 0.0287 0.02199 0.05295 -0.02574 0.0001923
0.04904 0.05447 0.04364 -0.04373 -0.02884 0.0341 0.04672 0.01814
-0.00962 -0.01698 -0.02115 0.006397 0.006702 0.013504 -0.00881 0.01186
0.02393 0.02286 0.03693 -0.014984 -0.02718 0.01297 0.01967 0.0375
-0.00636 -0.03635 -0.01142 0.00959 -0.0099 0.0316 -0.01104 -0.00959
0.0382 0.00203 -0.00835 -0.007168 0.002842 -0.001111 0.010056 0.032
0.0482 0.027 0.04355 0.000736 0.02489 -0.04355 -0.004707 -0.02081
-0.0375 -0.0552 -0.01013 0.0518 0.0307 -0.01953 0.00512 -0.03958
0.04764 0.02052 0.00793 -0.02989 -0.0293 -0.02377 0.01958 -0.00252
-0.02475 -0.010796 -0.0305 0.0329 0.02538 -0.01875 0.00279 -0.02768
-0.014244 -0.00877 0.00849 0.02095 0.0001804 0.008156 0.01222 0.012215
0.05893 0.0398 0.01211 -0.02164 -0.01703 0.011765 -0.02095 0.01099

lora_unet_down_blocks_1_downsamplers_0_conv.lora_down.weight f2 [16, 640, 3, 3]
00000000: fe30 782c a925 6a2c e9ae c7af 352c 27ad
00000010: eaae 7531 6e2d 5d24 e02f 3a2c f729 2e30
00000020: ec2b ce1c 30ab 05b1 8e27 7f2d 99b0 c7ae
00000030: 3fa6 1da8 2eac 8ea1 a5a6 5a2a 3a28 96ad
00000040: e0ab 49aa 3ba8 9424 ffaa 42a1 6224 23a9
00000050: 4130 5ba0 282d f213 89a4 15ac 5724 04a8
00000060: 7413 8eac f6ab 9bae 95a9 86a2 502d 65ad
00000070: fea4 26a2 28ae e496 a2aa 7ba5 89a8 ad9f
00000080: 18ad d8ac 352c 2525 04ae 5c29 ffad 6aa4
00000090: afa0 5caa a529 f1ab 912d 70ac 092c ff23
000000a0: 62a1 9dad 301f a52a d1a2 061d 3629 2930
000000b0: acaa 6cab a026 4da3 caac 452c 772f 3d2e
000000c0: 5030 0529 a0a7 f1a6 2628 baa3 5f2d 7c24
000000d0: 749b fba6 eb23 b529 de29 3a24 a5ae be2b
000000e0: 9229 b7a5 5f21 7729 3a9a 8524 c5a7 4c22
000000f0: 21ac f8a5 f1ae 10ac 322d 9fac 392e 2b30
00000100: 612c 3030 6b2a 31ad 0f2e c8a7 d42a 66ab
00000110: 32a8 35a9 ff18 7a24 c9ac f4a6 a1ac 779d
00000120: 99ab 6ca7 0f24 dfa2 5aad 402c 68a1 11ac
00000130: 3729 022a 4725 3fad 8722 7527 25aa 14aa
00000140: 3f9d 7729 292c 8b28 deab 9e1c 73ad fd28
00000150: a625 54ad 3519 dd21 79aa 03a7 43a6 982a
00000160: a929 e5ad 9eac 0323 5ba1 9028 29a9 02a8
00000170: 75a8 75a5 e6ac 4e25 c4ac f8b0 d2ab 73ac
00000180: b299 1faf f7b1 639b e6a2 98ab f32e 0623
00000190: 2ba9 b12b c3ae 3129 1930 6528 da2c 1b30
000001a0: 2425 322c 202d a99c 1c2c 5330 86a9 e82f
000001b0: 0830 2e1e 5eac f326 37af 1ea9 b22b db98
000001c0: c8a2 1429 40ad 66ad 89ac 8ab0 62a8 f2ad
000001d0: 63ab 0b28 ecad cda8 372c bb06 3f2a c71c
000001e0: 8826 da29 69a5 aba8 52a3 cba6 902c c3ac
000001f0: a1a8 5bad 19a8 dfad 23a6 6718 5824 a429
0.156 0.0698 0.02211 0.069 -0.108 -0.1215 0.06573 -0.0805
-0.10803 0.1705 0.08484 0.01704 0.12305 0.06604 0.0466 0.1306
0.0619 0.004692 -0.05615 -0.1569 0.02951 0.0859 -0.1437 -0.1059
-0.0244 -0.03214 -0.0653 -0.01085 -0.02596 0.04962 0.03302 -0.0873
-0.06152 -0.0491 -0.03305 0.01788 -0.05466 -0.01027 0.01712 -0.04013
0.1329 -0.00851 0.08057 0.00097 -0.01772 -0.0638 0.01695 -0.03137
0.00091 -0.07117 -0.0622 -0.1032 -0.0436 -0.01274 0.083 -0.0843
-0.0195 -0.01201 -0.0962 -0.001682 -0.05182 -0.02141 -0.03543 -0.007496
-0.0796 -0.0757 0.06573 0.0201 -0.094 0.04187 -0.0937 -0.01724
-0.00915 -0.04968 0.0441 -0.06204 0.087 -0.06934 0.06305 0.01562
-0.01051 -0.0877 0.00702 0.0519 -0.01331 0.004906 0.0407 0.13
-0.05212 -0.05798 0.02588 -0.01426 -0.0748 0.0667 0.11664 0.0975
0.1348 0.0392 -0.02979 -0.02711 0.0324 -0.01509 0.0839 0.01752
-0.00364 -0.02727 0.015465 0.0446 0.04584 0.01651 -0.1038 0.0605
0.04352 -0.02232 0.01049 0.0427 -0.00304 0.01765 -0.03035 0.0123
-0.0645 -0.02332 -0.10846 -0.0635 0.0812 -0.0722 0.0972 0.1302
0.0684 0.1309 0.05014 -0.0811 0.09467 -0.0304 0.05334 -0.0578
-0.03278 -0.04068 0.00244 0.01749 -0.07477 -0.02716 -0.0723 -0.005337
-0.05936 -0.02899 0.01585 -0.01342 -0.0836 0.0664 -0.01056 -0.06354
0.04074 0.04694 0.02061 -0.082 0.01275 0.02913 -0.048 -0.0475
-0.005123 0.0427 0.065 0.0355 -0.06146 0.00451 -0.08514 0.03897
0.02206 -0.08325 0.002542 0.01145 -0.05057 -0.02739 -0.02446 0.0515
0.04422 -0.0921 -0.07214 0.013695 -0.01046 0.03564 -0.0403 -0.0313
-0.03482 -0.02132 -0.07654 0.02072 -0.07446 -0.1553 -0.0611 -0.0695
-0.00278 -0.11127 -0.1864 -0.003607 -0.01347 -0.05933 0.1086 0.01372
-0.04037 0.0601 -0.10565 0.04056 0.128 0.03433 0.0758 0.1283
0.02008 0.06555 0.0801 -0.00455 0.0642 0.1351 -0.04315 0.12354
0.126 0.006035 -0.06824 0.02715 -0.11273 -0.03998 0.06012 -0.00237
-0.013245 0.03967 -0.08203 -0.08435 -0.07086 -0.1418 -0.03424 -0.0929
-0.0577 0.0316 -0.0925 -0.0375 0.06586 0.0001027 0.0488 0.004665
0.02551 0.04572 -0.02113 -0.03647 -0.0143 -0.02654 0.0713 -0.0744
-0.03616 -0.0837 -0.032 -0.09174 -0.02397 0.00215 0.01697 0.04407

lora_unet_down_blocks_1_downsamplers_0_conv.lora_up.weight f2 [640, 16, 1, 1]
00000000: 2ea3 af28 e51e f626 9c2b f3a1 db28 e31c
00000010: a4a8 57a8 b623 2ba4 718a c8a5 42a8 fca4
00000020: 919c 151c 32a2 b616 549d 2b22 7421 28a2
00000030: 7f1f 9620 289e f497 eaa3 831c 0e1e 4d9a
00000040: 2f2c 51ac 1fad b5a9 44ad 342c 6baa f7a9
00000050: c128 f42c dbac 442b 282b 5b2c 4c2b 502c
00000060: 36a0 0625 8c91 b422 9124 5720 5f24 449c
00000070: 8423 129b 321b 5726 90a4 10a4 c7a0 531c
00000080: f1a4 9029 3b27 a326 3025 d6a5 7728 c1a6
00000090: 2aa8 25a5 4c28 62a8 8ea4 f6a5 2ca5 81a7
000000a0: 0ca8 3629 9025 d229 8f26 cfa7 6a24 5729
000000b0: 39a9 cda6 cb26 5fa9 caa5 43a8 fda8 32a7
000000c0: 2fa6 2c22 8527 1025 da28 0da4 aa28 102a
000000d0: 139f 61a8 4e27 40a8 e3a9 5ba8 04a8 0ca6
000000e0: 9f17 17a6 02a8 5daa a3a7 7027 999b 39a3
000000f0: f324 bc1f a99f 9625 a225 3c28 1527 0728
00000100: 7f28 a6a5 eda9 1fa2 8aa8 5829 8ba2 2fad
00000110: 9f23 072c 85ab 8529 d728 f928 882a d129
00000120: c5a6 1d28 4e28 4525 b125 03a7 8724 6b22
00000130: 87a5 b4a7 241a 4aa3 a5a8 40a8 6ba4 39a5
00000140: 97ad d528 6c2a ef27 5429 31a9 002b ce2b
00000150: dba9 d6ab 932c 5eaa 21ad e9aa 3aab fda9
00000160: 91a1 5f17 eb25 599c fa25 d59e 0521 1926
00000170: 711d bfa5 949a 3aa4 07a4 6916 5c14 d5a1
00000180: b320 4fa5 2f9e 88a3 5da0 5123 eea8 2526
00000190: 1d26 3720 ae21 e223 a426 0c22 789d 3622
000001a0: dc25 a9aa 9da3 f1a9 95ab 2d25 78a5 dcaa
000001b0: c521 5526 72a0 8f20 1929 c328 5726 1926
000001c0: a79f b61e fc1f e721 2322 6f9e 3ea1 b22a
000001d0: f19c 51aa 6822 4fa5 9da7 76a4 48a7 2e93
000001e0: 3d94 0a9a 2818 9424 a51e 9121 8320 41a7
000001f0: 1221 6e92 a1a3 1e20 fe9f fd1e 5918 1223
-0.01402 0.0366 0.006733 0.02719 0.05945 -0.01162 0.03793 0.004772
-0.03625 -0.0339 0.01506 -0.01628 -0.0001966 -0.02258 -0.03326 -0.01947
-0.00446 0.003986 -0.0121 0.001638 -0.005203 0.01205 0.01065 -0.012024
0.00732 0.00896 -0.006012 -0.001942 -0.01546 0.004406 0.005913 -0.003077
0.06537 -0.06744 -0.08 -0.0446 -0.0823 0.0657 -0.05014 -0.0466
0.03714 0.0774 -0.07587 0.05676 0.0559 0.06805 0.057 0.0674
-0.008224 0.01962 -0.000677 0.01309 0.01784 0.00848 0.01707 -0.004166
0.01468 -0.003452 0.003513 0.02477 -0.01782 -0.01587 -0.00933 0.004223
-0.0193 0.04346 0.02824 0.02592 0.02026 -0.0228 0.03488 -0.02638
-0.03253 -0.0201 0.03357 -0.03424 -0.01779 -0.02328 -0.0202 -0.02931
-0.03162 0.0407 0.02173 0.04547 0.02562 -0.0305 0.01724 0.04172
-0.0408 -0.02657 0.02654 -0.04196 -0.02261 -0.0333 -0.03897 -0.0281
-0.02415 0.012054 0.02937 0.01978 0.0379 -0.01582 0.03644 0.04736
-0.00691 -0.0342 0.02853 -0.0332 -0.046 -0.03403 -0.03137 -0.02362
0.001861 -0.02379 -0.0313 -0.0497 -0.02983 0.02905 -0.00371 -0.01411
0.01933 0.007553 -0.00748 0.02182 0.022 0.03308 0.02766 0.03146
0.03513 -0.02206 -0.0463 -0.011955 -0.03546 0.04175 -0.01278 -0.081
0.014885 0.0629 -0.05875 0.04312 0.0378 0.03885 0.05103 0.04544
-0.02644 0.03214 0.03363 0.02058 0.02223 -0.02739 0.01768 0.012535
-0.02159 -0.03009 0.002998 -0.01424 -0.0363 -0.0332 -0.01726 -0.0204
-0.08734 0.03775 0.05017 0.03099 0.04163 -0.04056 0.0547 0.06097
-0.04575 -0.06122 0.0715 -0.04974 -0.08014 -0.054 -0.05646 -0.04678
-0.01087 0.0018 0.02312 -0.004246 0.02335 -0.00667 0.0098 0.02382
0.005314 -0.02245 -0.003212 -0.01651 -0.01573 0.001565 0.001064 -0.01139
0.00918 -0.02074 -0.00604 -0.01471 -0.00852 0.01429 -0.0385 0.024
0.02388 0.00823 0.01109 0.015396 0.02594 0.01181 -0.00534 0.01213
0.02289 -0.05203 -0.01487 -0.04642 -0.05923 0.02022 -0.02136 -0.0536
0.01127 0.02473 -0.00868 0.0089 0.03983 0.0372 0.02477 0.02382
-0.007473 0.006554 0.007797 0.01153 0.011986 -0.006283 -0.01024 0.0523
-0.004826 -0.04935 0.01251 -0.02074 -0.02974 -0.01743 -0.02844 -0.0008764
-0.001035 -0.002949 0.00203 0.01788 0.00649 0.01087 0.00881 -0.02834
0.0099 -0.000785 -0.0149 0.00804 -0.007805 0.006824 0.002123 0.01381

lora_unet_up_blocks_0_upsamplers_0_conv.lora_down.weight f2 [16, 1280, 3, 3]
00000000: d7a8 1b25 f121 912c b0a2 1ba4 3aae b328
00000010: cb2f 8730 4eaf 7328 922a 9625 87ad 15ab
00000020: 2aa5 6c25 f7ad 462c 99a9 1ea0 49a4 e3a4
00000030: 59ad e827 3d21 c228 672c f02a 162c b599
00000040: 15aa 7630 2da3 baa6 e7ab 3aa8 a61a 6aaa
00000050: 26a2 5ca9 0e26 8e26 6ca4 d8ab d02c 392c
00000060: 9cac 3827 5ba8 c72c 3398 4897 28b1 1622
00000070: 5da8 74ab 7125 3fad beac 5f2b 2baa 35a0
00000080: bbaa f7ab 73a0 38a8 90aa 0013 2727 fba8
00000090: 94a7 c82e fe28 a0a5 6ca9 e4a6 eea7 0424
000000a0: 7b2c 2930 8c24 08aa 3119 9530 8d27 1b2c
000000b0: 3a2f 0630 4cac 21a1 759e 9ca8 dfa0 069d
000000c0: 95a1 33ac af23 1e28 ea28 7d28 22aa a6ab
000000d0: 7125 90a8 2c2c e7a8 e2a8 c41e 12a5 5ca5
000000e0: 3b30 a4a4 d32c bd9b cd22 65ac 4528 c2a5
000000f0: c528 b6b0 af1c b7a5 a1a8 27a7 0fa1 2ca8
00000100: 9628 d8a8 6aa9 9f2b 49aa 7128 a526 76a8
00000110: 04a7 8cb2 7527 0627 f3ab 58a6 93ac cead
00000120: 2e9a 412b 862b 9425 fcaf 499c 6fa8 40aa
00000130: f5af 092e 31aa 4624 532b 4a2d 422b 1da4
00000140: b62c 1026 2f28 4e98 1f1b 02ad ad23 0db0
00000150: 92a8 95aa e7aa 7829 c4a4 0695 bda9 2620
00000160: 90aa 52b1 0621 64ac 46af cf2c 0816 43a4
00000170: ad2b 921e 1698 9cb1 9829 2fa0 e6a9 1f27
00000180: 03ad 08a6 5918 1da9 9129 712e eaab a42d
00000190: 5a2f 99a1 ce25 c6aa 97a7 ca29 fc2c e596
000001a0: 53ad c6a5 51af 30ab 2ea8 3d29 8128 dfa5
000001b0: 5ba9 34a8 d9a4 b8aa 532d b4a5 9aab dcaa
000001c0: 151f 0da9 bda9 1a25 1925 882f 1ba2 029b
000001d0: dea4 f9ad 4c2a 429c 38a0 3e96 df28 8e2e
000001e0: 9d28 44ac 4d25 a49e 9910 38aa 32b1 fd29
000001f0: 3eaf 60a8 a525 e397 9b8e 3d2b 34a0 2ea8
-0.0378 0.01994 0.011604 0.07135 -0.01306 -0.01604 -0.0973 0.0367
0.12177 0.1415 -0.11414 0.03476 0.05133 0.02182 -0.08636 -0.05533
-0.02017 0.02118 -0.0932 0.0668 -0.04373 -0.00804 -0.01674 -0.01909
-0.08356 0.03088 0.01023 0.03717 0.0688 0.0542 0.06384 -0.002787
-0.04752 0.1394 -0.014015 -0.02628 -0.06174 -0.03302 0.003246 -0.0501
-0.01201 -0.04187 0.02365 0.0256 -0.01727 -0.06128 0.0752 0.066
-0.072 0.0282 -0.03403 0.07465 -0.00205 -0.001778 -0.1611 0.01189
-0.0341 -0.05823 0.02126 -0.082 -0.0741 0.0576 -0.0482 -0.00822
-0.05258 -0.06223 -0.00869 -0.03296 -0.05127 0.0008545 0.02794 -0.0389
-0.0296 0.10596 0.039 -0.02197 -0.04236 -0.02692 -0.03098 0.01569
0.07 0.13 0.01776 -0.04712 0.002535 0.1432 0.0295 0.06415
0.1129 0.1257 -0.06714 -0.01002 -0.006306 -0.036 -0.009514 -0.004906
-0.0109 -0.0656 0.01501 0.03217 0.0384 0.03506 -0.0479 -0.05975
0.02126 -0.03564 0.0652 -0.0383 -0.03815 0.006607 -0.0198 -0.02094
0.1322 -0.01813 0.0754 -0.003778 0.01328 -0.06866 0.03336 -0.02249
0.03726 -0.1472 0.004574 -0.02232 -0.03616 -0.02794 -0.00988 -0.0326
0.03583 -0.03784 -0.0423 0.05954 -0.0491 0.0347 0.02596 -0.03485
-0.0274 -0.2046 0.02913 0.02744 -0.0621 -0.02478 -0.0715 -0.0907
-0.003017 0.05667 0.05878 0.02179 -0.12476 -0.004185 -0.03464 -0.04883
-0.1243 0.0943 -0.04837 0.0167 0.05722 0.08264 0.0567 -0.01607
0.0736 0.02368 0.03268 -0.002102 0.003477 -0.07825 0.01499 -0.1266
-0.0357 -0.05142 -0.05392 0.04272 -0.01862 -0.001226 -0.04483 0.0081
-0.05127 -0.1663 0.00981 -0.0686 -0.11365 0.07513 0.001472 -0.01665
0.05997 0.006416 -0.001995 -0.1753 0.0437 -0.00817 -0.04608 0.02782
-0.0783 -0.02356 0.002123 -0.03995 0.0435 0.10065 -0.06183 0.08813
0.11487 -0.01093 0.02267 -0.05292 -0.02965 0.04523 0.0779 -0.001683
-0.0832 -0.02255 -0.1143 -0.05615 -0.03265 0.04092 0.0352 -0.02293
-0.04184 -0.03284 -0.01894 -0.0525 0.0832 -0.02228 -0.0594 -0.0536
0.006916 -0.03946 -0.04483 0.01993 0.01991 0.1177 -0.011925 -0.003422
-0.01901 -0.0933 0.0492 -0.004158 -0.00824 -0.001524 0.03806 0.1024
0.03604 -0.06665 0.0207 -0.006485 0.000561 -0.04858 -0.1624 0.04678
-0.11316 -0.03418 0.02205 -0.001925 -0.0004032 0.05655 -0.00821 -0.03265

lora_unet_up_blocks_0_upsamplers_0_conv.lora_up.weight f2 [1280, 16, 1, 1]
00000000: c696 2518 fe23 8024 5ea7 40a4 32a1 0f20
00000010: 479d 7821 29a5 7b21 eb9f 12a7 a422 a496
00000020: 811e 571f 46a4 a321 4c97 7e9c f00e a219
00000030: 721c 30a1 1d22 df21 3b1d 9121 531a d9a4
00000040: 2920 cb9c e39f 01a2 0d20 0d1c d91f 559f
00000050: 7b22 d09d 8925 7d1d c01b 2fa4 19a3 e79e
00000060: 3921 0aa9 ba2a 2c24 3d28 49a9 5197 2928
00000070: 8c26 7428 c5aa b526 9095 9da8 721f 571b
00000080: ca22 1c1d 759e 3b23 fe1f 1325 f19e 4a22
00000090: 90a2 8918 c4a0 5b21 15a1 a8a2 0c28 1121
000000a0: 0b29 cd1a ada2 dd1e 4d13 f89f 8222 2c20
000000b0: 8fa5 e31f 1325 afa1 db16 bb21 059c cba4
000000c0: 1c8b 5427 1621 311f 2e9e 81a6 3e9f fca4
000000d0: c999 ae9f 491e f39d 5fa0 a4a0 4ca3 8c22
000000e0: 70a0 dd28 cfa8 7a18 4f24 3ea0 a327 f2a5
000000f0: 989c 5998 5520 bf23 23a0 c098 79a4 9ea4
00000100: 0da8 3d1d f790 a499 74a4 7b26 e5a3 f89c
00000110: 41a3 8a21 8a1b 8d9b 5720 7305 69a0 f5a2
00000120: f61e 9c9c 6927 449b b425 4f20 0d1c 8121
00000130: f39c e126 e51c ef99 5f1c c407 f0a3 7a9c
00000140: 3628 e99d 21a3 0aa8 9f9d 6a96 a7a7 eba9
00000150: e19f 5722 2824 33a8 a322 0b22 83a5 af22
00000160: 041a 8199 94a4 c495 6f27 f614 1b1c 219c
00000170: 3a23 6a96 aa99 8623 e59f 411c 1521 9c21
00000180: 7194 70a3 0e18 4423 4d24 48a2 caa2 f423
00000190: b821 111c aaa2 2b18 599a fda0 3123 f414
000001a0: a1a5 2ea6 3f23 3ba5 bc26 aba5 af96 40a5
000001b0: 7e1d c9a3 cea3 d48d a7a6 8f29 5aa1 09a5
000001c0: a224 e59e ec12 59a3 1420 ad21 27a4 a8a5
000001d0: 0b8e 68a6 4320 54a8 f29b cb23 2aa2 b320
000001e0: aea0 5e9d 411c da9f 7d1c b29b 841e ba11
000001f0: 791d 3226 7fa4 3520 9e94 33a1 36a0 3224
-0.001654 0.002024 0.01561 0.01758 -0.02878 -0.0166 -0.01015 0.00793
-0.005154 0.01068 -0.02016 0.010704 -0.007732 -0.02762 0.01297 -0.001621
0.00635 0.007168 -0.0167 0.01101 -0.001781 -0.004387 0.0004234 0.00275
0.00434 -0.01013 0.01194 0.01147 0.005108 0.01087 0.003088 -0.01894
0.008125 -0.00468 -0.0077 -0.01173 0.00791 0.003956 0.007664 -0.00716
0.01266 -0.005676 0.02162 0.00536 0.003784 -0.01634 -0.01386 -0.00674
0.0102 -0.03937 0.05255 0.0163 0.0331 -0.0413 -0.001786 0.0325
0.02557 0.0348 -0.0529 0.0262 -0.001358 -0.03604 0.00727 0.003584
0.01326 0.00499 -0.006306 0.01412 0.007805 0.01982 -0.00678 0.01228
-0.01282 0.002214 -0.00931 0.01046 -0.009926 -0.013 0.03162 0.009895
0.0394 0.00332 -0.01304 0.006702 0.000891 -0.007782 0.01271 0.00815
-0.02171 0.0077 0.01982 -0.0111 0.001674 0.01119 -0.003925 -0.01872
-0.000217 0.02863 0.00993 0.007023 -0.006035 -0.0254 -0.007072 -0.01947
-0.002825 -0.0075 0.006138 -0.00581 -0.00854 -0.00906 -0.01425 0.01279
-0.00867 0.038 -0.03757 0.002186 0.01683 -0.008286 0.02983 -0.02322
-0.004486 -0.002123 0.00846 0.01513 -0.00808 -0.00232 -0.01747 -0.01804
-0.03165 0.005116 -0.000606 -0.002754 -0.0174 0.02531 -0.01542 -0.004852
-0.01417 0.01082 0.003681 -0.003687 0.00848 8.315e-05 -0.00861 -0.01359
0.006798 -0.0045 0.02895 -0.003548 0.02228 0.008415 0.003956 0.01075
-0.004833 0.02687 0.00478 -0.002897 0.00427 0.0001185 -0.0155 -0.00437
0.0329 -0.00577 -0.01392 -0.03156 -0.00549 -0.001566 -0.02989 -0.04623
-0.007694 0.01238 0.01624 -0.0328 0.01296 0.0118 -0.02153 0.013054
0.002937 -0.002687 -0.01788 -0.001408 0.02904 0.001211 0.00401 -0.004032
0.014114 -0.001566 -0.002766 0.014694 -0.00771 0.004154 0.009926 0.010956
-0.001084 -0.01453 0.00198 0.01419 0.0168 -0.01227 -0.01326 0.01553
0.01117 0.00397 -0.013016 0.002035 -0.0031 -0.00974 0.014046 0.001209
-0.02199 -0.02414 0.01415 -0.02043 0.0263 -0.02214 -0.001632 -0.02051
0.005363 -0.015205 -0.01524 -0.0003557 -0.02599 0.04343 -0.01045 -0.01967
0.0181 -0.006733 0.000845 -0.01435 0.007965 0.011086 -0.01622 -0.0221
-0.0003688 -0.02502 0.00832 -0.0338 -0.00388 0.01522 -0.01204 0.00918
-0.00914 -0.00524 0.004154 -0.007668 0.004383 -0.003757 0.006363 0.000699
0.005344 0.0242 -0.01756 0.00822 -0.001127 -0.010155 -0.008224 0.01639

lora_unet_up_blocks_1_upsamplers_0_conv.lora_down.weight f2 [16, 640, 3, 3]
00000000: 3122 6228 cba7 20b0 51b0 e8a2 16ab 99af
00000010: 6a2c c2aa 8829 2e94 002c fca9 2c9d 71a1
00000020: a523 3fad 2d2a ab30 2caa b9ad 3daa a81b
00000030: 8f29 80ac 5cac 5fab c91f 4919 5814 9fa8
00000040: 002b a926 3dae 952b 51a1 af2d 65a5 e2ac
00000050: 89ae f9a6 4321 5b30 89a9 5424 9ba1 ab2d
00000060: 202f 862b 9fac 85a6 b925 c128 5fa6 bcaa
00000070: 76a4 6e2e 54ab 641b 1593 c91e aea8 7028
00000080: 3a2c 0f2d e1a1 7c27 b82a b3ac b6a8 6b9a
00000090: 4129 fea6 d92a 50a5 7b25 fd2d a72d 8928
000000a0: 5f30 cc2d 522c 1624 db21 47ab 882c aea2
000000b0: c42a 6e26 4fa2 4f27 c814 3629 0c28 ac9c
000000c0: c0a0 552b 9d2e ceac 75a2 eca5 dc15 e8af
000000d0: ab1e cba8 d6a7 1d28 14a8 aaa0 5b20 2e27
000000e0: 8e2b 8f26 17a8 1c29 a329 f928 56a6 5ba2
000000f0: a4a5 92ab 3e27 c6a5 7fa4 97ac 93a3 6629
00000100: 92a9 8e2a fb2e 6329 8027 0caa f425 712b
00000110: 7926 5629 f429 5c1d 231e cc29 972e 182c
00000120: e02c 18a0 24ab 7f2c 6b20 ad28 daa4 3eae
00000130: 7831 2fa5 ad22 1428 9fab 122d 3328 8fa6
00000140: 59a0 c92b 2523 36ac 33ad d5a9 76ac dca8
00000150: f9a7 f1ac 3e25 7a1f 03ad 3a2d 5127 29ad
00000160: 45a7 1e9c b4ac dcae d8a2 baa8 062a cca9
00000170: b0a6 b39a 9a20 cd2a a6a9 03a7 b3a5 e1ad
00000180: 49a7 5d19 a3ad 0828 1e26 b4ad 20a9 5d21
00000190: 812a 69a1 a5a4 281a 449f b1a8 dda9 a62c
000001a0: 569c 3fa9 7e22 34aa 1c2b 66a1 4cae 38a4
000001b0: 95aa 0124 1f25 d52c 51ac 18ad f728 20ad
000001c0: d128 05a8 3ba5 a5a5 afa4 b823 dbab a027
000001d0: ffad 25aa d5a7 272d 1428 00b0 31af a0af
000001e0: 2aa9 3724 f929 00ae a725 25a9 7528 cdae
000001f0: 5598 4528 b5aa c7aa 17b0 6896 4da8 9d28
0.01209 0.03424 -0.03044 -0.1289 -0.1349 -0.01349 -0.05536 -0.1187
0.069 -0.0528 0.0432 -0.00102 0.0625 -0.04675 -0.00505 -0.01063
0.01493 -0.082 0.04825 0.1459 -0.04822 -0.0894 -0.04874 0.003738
0.04343 -0.0703 -0.0681 -0.0576 0.007603 0.00258 0.0010605 -0.0361
0.0547 0.02602 -0.0975 0.05923 -0.01038 0.0888 -0.02107 -0.0763
-0.1021 -0.02724 0.01028 0.1361 -0.04324 0.0169 -0.01095 0.08856
0.1113 0.05878 -0.0722 -0.02547 0.02235 0.03714 -0.02489 -0.0526
-0.01743 0.10046 -0.05725 0.003609 -0.0008645 0.006626 -0.03656 0.03467
0.06604 0.07904 -0.01148 0.02924 0.0525 -0.0734 -0.0368 -0.003134
0.04105 -0.02731 0.0535 -0.02075 0.02141 0.09357 0.0883 0.03543
0.1366 0.0906 0.0675 0.01596 0.01144 -0.05685 0.0708 -0.01305
0.05286 0.02512 -0.01232 0.02855 0.001167 0.0407 0.03162 -0.004562
-0.00928 0.05728 0.10333 -0.0751 -0.01261 -0.02313 0.0014305 -0.12354
0.00651 -0.03745 -0.03061 0.03214 -0.03186 -0.00911 0.00851 0.02805
0.05902 0.02562 -0.03195 0.03992 0.04404 0.03885 -0.02475 -0.01241
-0.02203 -0.05914 0.02829 -0.02255 -0.01756 -0.0717 -0.01479 0.04218
-0.04352 0.0512 0.1091 0.04208 0.0293 -0.04724 0.02325 0.05814
0.02528 0.0417 0.0465 0.005234 0.005993 0.0453 0.10297 0.06396
0.0762 -0.007996 -0.0558 0.07025 0.00863 0.03653 -0.01895 -0.09753
0.1709 -0.02025 0.01304 0.03186 -0.05954 0.0792 0.0328 -0.02562
-0.00849 0.06082 0.013954 -0.0658 -0.08124 -0.04556 -0.0697 -0.03796
-0.03114 -0.0772 0.02048 0.0073 -0.0783 0.08167 0.02858 -0.0806
-0.0284 -0.00402 -0.0735 -0.1072 -0.01337 -0.03693 0.04706 -0.0453
-0.02612 -0.003271 0.00899 0.05313 -0.04413 -0.02739 -0.02226 -0.09186
-0.02846 0.002619 -0.0881 0.0315 0.0239 -0.0891 -0.04004 0.010475
0.0508 -0.01057 -0.01814 0.003006 -0.007095 -0.03665 -0.0458 0.07263
-0.004234 -0.041 0.01268 -0.04846 0.05554 -0.010544 -0.0984 -0.01648
-0.05142 0.01564 0.02 0.0755 -0.06744 -0.0796 0.0388 -0.0801
0.03763 -0.0314 -0.02043 -0.02205 -0.0183 0.015076 -0.06137 0.02979
-0.0937 -0.048 -0.0306 0.0805 0.03186 -0.125 -0.11237 -0.11914
-0.04034 0.01646 0.04666 -0.09375 0.02208 -0.0402 0.03482 -0.10626
-0.002115 0.03336 -0.0524 -0.05295 -0.1278 -0.001564 -0.0336 0.03604

lora_unet_up_blocks_1_upsamplers_0_conv.lora_up.weight f2 [640, 16, 1, 1]
00000000: d9a6 7d1f 9ba1 2499 1f9c c810 09a4 c020
00000010: 45a2 4a98 3221 f0a2 baa0 bc21 3b9f 9d1b
00000020: 6e23 641e ce20 bc99 7f14 8b9f 0723 5622
00000030: 9b9f 1422 7ca3 e1a3 27a4 7da2 cfa1 a51a
00000040: a220 df1d eda7 c221 a11d 0421 3aa6 f91f
00000050: d118 1fa2 c325 3797 f4a2 6d18 4422 e7a2
00000060: c29c 91a1 041a 5da6 97a2 5c9c 32a6 7824
00000070: a285 5291 ab21 0fa0 9aa2 7521 9d0f 3c20
00000080: f69e eb24 0323 7d29 2b16 a220 9021 41a3
00000090: 4216 ffa7 3f20 3ba0 0d24 31a7 031a a49d
000000a0: d425 c304 6d1f 9f24 479c 52a0 1923 31a4
000000b0: 39a4 5e9c 1c20 db1a 5025 dc13 8ca7 839f
000000c0: bd24 05a0 e7a1 da14 4398 e620 3720 1aa6
000000d0: b09f 539d 3f12 dc97 ca92 5217 7d9d 251d
000000e0: 5526 2ca3 0922 f121 aaa3 baa4 2896 20a5
000000f0: be1d 7d20 f19b cc25 8618 14a2 84a1 869c
00000100: 62a1 6e93 77a1 75a1 7121 a998 38a4 4325
00000110: 40a0 de22 1a20 411d 539d 9411 07a7 e818
00000120: 960c 01a4 8fa4 d7a4 30a5 9120 4fa9 7626
00000130: 8ca8 2928 6923 42a4 0ea5 4e26 dc9c dc20
00000140: 5d0d e720 da9e 1121 491e e522 76a6 5c0d
00000150: eaa0 2b24 c91c ab20 81a1 b998 21a0 bca5
00000160: a9a5 3309 2827 e21d 1b96 f5a3 4901 ba9e
00000170: 2626 6812 61a1 b6a4 6f21 65a1 2aa3 ef24
00000180: 4fa3 92a3 aca0 231d 55a5 4e19 b1a3 1425
00000190: ff1d 0522 9013 bf16 9926 739c 1c20 3fa3
000001a0: db1d 011b ab1d 69a4 8f23 7aa3 f71c c71c
000001b0: 6c93 a020 a625 baa4 5e25 ce24 b5a7 391a
000001c0: 9125 b91d 7da1 8323 261d ce27 98a0 09a1
000001d0: 549d bba6 e620 5121 ee97 c324 7d26 ab22
000001e0: fc20 ac1b 77a5 ca1b bf1a 349c c723 b898
000001f0: 291f 5e1c 8924 ee1c 2c1e d324 8720 519f
-0.02675 0.007313 -0.01095 -0.00251 -0.004025 0.0005836 -0.01576 0.00928
-0.012245 -0.002094 0.01015 -0.01355 -0.00923 0.0112 -0.00706 0.003717
0.01451 0.00624 0.009384 -0.0028 0.001098 -0.007366 0.013725 0.012375
-0.007427 0.01187 -0.01462 -0.01539 -0.01622 -0.01267 -0.011345 0.003244
0.00905 0.005733 -0.03096 0.011246 0.005497 0.009796 -0.02432 0.007786
0.002352 -0.011955 0.0225 -0.001761 -0.01358 0.002161 0.01224 -0.01348
-0.004646 -0.01087 0.002937 -0.02486 -0.01287 -0.004257 -0.0242 0.01746
-8.595e-05 -0.0006495 0.01107 -0.00793 -0.01289 0.01066 0.0004647 0.00827
-0.006798 0.01921 0.013695 0.04288 0.001506 0.00905 0.010864 -0.01417
0.001528 -0.03123 0.00829 -0.00826 0.01582 -0.02809 0.002935 -0.00551
0.02277 7.266e-05 0.00725 0.01805 -0.004177 -0.00844 0.01386 -0.01637
-0.0165 -0.004265 0.008026 0.003347 0.02075 0.0009594 -0.02948 -0.007336
0.01851 -0.00785 -0.01153 0.001184 -0.00208 0.00957 0.00823 -0.02383
-0.007507 -0.0052 0.0007625 -0.001919 -0.0008287 0.001787 -0.00536 0.005024
0.02473 -0.01401 0.01179 0.011604 -0.01497 -0.01846 -0.001503 -0.02002
0.005608 0.008766 -0.003878 0.02264 0.002209 -0.01187 -0.01077 -0.004417
-0.01051 -0.000907 -0.01067 -0.01066 0.01063 -0.002275 -0.01648 0.02055
-0.0083 0.01341 0.00801 0.00513 -0.0052 0.000681 -0.02745 0.002396
0.00028 -0.01564 -0.0178 -0.0189 -0.02026 0.00892 -0.04147 0.02524
-0.03552 0.0325 0.01447 -0.01663 -0.01974 0.02463 -0.004745 0.00949
0.0003273 0.009575 -0.00669 0.009895 0.006138 0.013466 -0.02524 0.000327
-0.0096 0.01628 0.004673 0.00912 -0.01075 -0.002306 -0.008064 -0.0224
-0.02211 0.0001587 0.02795 0.005745 -0.001491 -0.01554 1.96e-05 -0.00657
0.02402 0.000782 -0.010506 -0.0184 0.01061 -0.01054 -0.01399 0.01927
-0.014275 -0.014786 -0.009125 0.005016 -0.02083 0.00259 -0.01502 0.01984
0.005856 0.01176 0.000923 0.001647 0.02577 -0.004345 0.008026 -0.01415
0.00572 0.00342 0.005535 -0.01723 0.01476 -0.0146 0.00485 0.004665
-0.000906 0.00903 0.02206 -0.01846 0.02097 0.01877 -0.0301 0.003038
0.02174 0.00559 -0.01072 0.01467 0.005028 0.03049 -0.00897 -0.009834
-0.005203 -0.02629 0.00957 0.01038 -0.001936 0.0186 0.02534 0.01302
0.009735 0.003746 -0.02135 0.003803 0.003294 -0.004105 0.01519 -0.002304
0.006992 0.004265 0.01772 0.004814 0.006027 0.01884 0.00884 -0.007145
