models/res_adapter/resadapter_v1_sdxl_interpolation/pytorch_lora_weights.safetensors (safetensors, 923064 bytes, 8 tensors)

lora_unet_down_blocks_0_downsamplers_0_conv.lora_down.weight f2 [16, 320, 3, 3]
000000 7d 1d c0 2a 29 28 b6 28 03 a1 77 2c 24 a3 86 a4
       0.00536 0.05273 0.0325 0.0368 -0.00979 0.06976 -0.01395 -0.01767
000010 9b 2d 16 ac 21 2e b1 28 c8 21 1f 2a fc a9 f6 2a
       0.0876 -0.06384 0.09576 0.03665 0.01129 0.04782 -0.04675 0.05438
000020 5a 28 bc 29 d9 31 86 2c 87 2e 1f 2d b4 a8 35 ac
       0.034 0.0448 0.1827 0.0707 0.102 0.08 -0.03674 -0.06573
000030 37 31 a2 29 4a a9 e8 93 6b 24 4c 30 e6 ab ae a8
       0.163 0.044 -0.04132 -0.000965 0.01726 0.1343 -0.0617 -0.03656
000040 e9 ab 53 2d 5e 2d 95 a1 5f a6 1d a8 27 a0 91 a8
       -0.0618 0.0832 0.08386 -0.0109 -0.02489 -0.03214 -0.00811 -0.03568
000050 14 28 ac af b6 26 cc 26 be 2a b6 aa ee 92 f5 ae
       0.03186 -0.1199 0.02621 0.02655 0.05267 -0.05243 -0.000846 -0.1087
000060 68 a4 60 2b 6c a7 be 31 a0 28 71 ad d5 20 54 9d
       -0.01721 0.05762 -0.02899 0.1794 0.03613 -0.085 0.00944 -0.005203
000070 7f 95 16 32 c6 2c 0f 2c 5a a9 b5 aa ee b0 df 24
       -0.001342 0.1902 0.0746 0.0634 -0.0418 -0.0524 -0.154 0.01903
000080 6b ab 7a ab 50 29 3b a3 c2 ab 2e 26 30 ac 69 29
       -0.05795 -0.0584 0.0415 -0.01412 -0.0606 0.02414 -0.0654 0.04227
000090 c8 2a b7 a5 ce a6 ff a7 19 2a 71 ab 36 9e e3 2e
       0.05298 -0.02232 -0.02658 -0.03123 0.04764 -0.05814 -0.006065 0.1076
0000a0 72 1f 57 28 5d 24 df 92 4f 26 f9 aa 14 31 12 ae
       0.00727 0.0339 0.01704 -0.0008388 0.02464 -0.05447 0.1587 -0.09485
0000b0 fc af 50 b0 a3 a8 5c 25 32 29 f0 2d 4b 29 40 23
       -0.12476 -0.1348 -0.03622 0.02094 0.0406 0.0928 0.04135 0.01416
0000c0 8f 20 7f 29 25 29 74 99 c6 a9 13 2e db 9e ff ac
       0.0089 0.04294 0.0402 -0.002663 -0.0451 0.0949 -0.006695 -0.07806
0000d0 ac 28 1b ad bc a7 f7 ae b8 a0 65 2f 75 25 7f 2e
       0.0365 -0.0798 -0.03021 -0.1088 -0.00922 0.11554 0.02132 0.1015
0000e0 aa 31 d0 30 63 2c ab 2e 19 2c 63 2a 03 ae 0e ae
       0.177 0.1504 0.06854 0.1042 0.064 0.0499 -0.09393 -0.0946
0000f0 e0 2e 91 29 95 30 73 9e 4f 86 01 2a b1 9d e6 27
       0.1074 0.0435 0.1432 -0.006298 -9.626e-05 0.0469 -0.005558 0.03085
000100 da 2c 6d 21 a3 a5 66 25 46 ae e7 a7 e5 a7 aa a4
       0.0758 0.0106 -0.02202 0.02109 -0.098 -0.03087 -0.03084 -0.01822
000110 51 27 33 b0 65 ae de ac f0 b1 62 2c 11 b0 13 ae
       0.02858 -0.1312 -0.0999 -0.07605 -0.1855 0.0685 -0.1271 -0.0949
000120 e9 1d 4b a7 81 a5 db 25 2a 28 0e a6 a6 25 69 aa
       0.00577 -0.02849 -0.0215 0.02287 0.03253 -0.02365 0.02206 -0.05008
000130 11 ad a6 ad 6e ae 24 a9 ca af f6 aa 67 af 83 a8
       -0.07916 -0.08826 -0.10046 -0.04016 -0.1217 -0.05438 -0.11566 -0.03525
000140 bb b2 a9 ad 75 2c 52 ab eb 24 9f 9c c4 2f df af
       -0.2103 -0.08844 0.06964 -0.0572 0.01921 -0.004513 0.12134 -0.123
000150 f0 23 ae 2f 01 ab b8 a8 da ab 90 af 5d 28 2d b1
       0.0155 0.12 -0.05472 -0.03687 -0.06134 -0.11816 0.0341 -0.1617
000160 a8 a9 fa ac 2b b0 89 a6 41 9c 1c 24 d7 2f f2 12
       -0.0442 -0.07776 -0.1302 -0.02553 -0.004154 0.01605 0.1225 0.000848
000170 36 a5 af 28 e8 1c dc 28 ac 27 26 aa 5e b0 31 ad
       -0.02036 0.0366 0.00479 0.03796 0.02997 -0.04803 -0.1365 -0.0811
000180 70 b0 63 ad 11 ac 58 aa f7 af 33 2c 30 23 83 22
       -0.1387 -0.08417 -0.06354 -0.04956 -0.12445 0.0656 0.01404 0.01272
000190 3e 2c 61 26 9e 29 35 29 89 25 4f aa f6 2a a1 2d
       0.0663 0.02492 0.04388 0.04068 0.02162 -0.0493 0.05438 0.08795
0001a0 2b 1d c0 27 42 ab c4 a4 5f 25 69 29 de 2b 3f 24
       0.005047 0.03027 -0.0567 -0.01862 0.02098 0.04227 0.06146 0.01659
0001b0 f4 1e e6 ab 1b a9 8f ac 17 31 9c 2e 1d af a3 29
       0.00679 -0.0617 -0.0399 -0.0712 0.159 0.1033 -0.11115 0.04404
0001c0 4b 2d 45 ac f1 29 ed a9 b8 a6 b9 b0 e0 ae c6 28
       0.0827 -0.0667 0.04642 -0.0463 -0.02625 -0.1476 -0.1074 0.0373
0001d0 55 1e 12 28 d4 2b 5c aa 8b 2b 3b a6 e1 a1 df a0
       0.006184 0.0318 0.06116 -0.04968 0.05893 -0.02434 -0.01148 -0.009514
0001e0 cb 24 7e a4 c0 ac 21 2f 46 ac 25 a5 57 a8 f8 2c
       0.01872 -0.01755 -0.0742 0.1114 -0.0668 -0.0201 -0.0339 0.07764
0001f0 ef a9 a1 25 11 2f 0b 2b cf 98 9f 26 22 25 bc 23
       -0.04636 0.02199 0.1104 0.05502 -0.002348 0.02586 0.02005 0.01511

lora_unet_down_blocks_0_downsamplers_0_conv.lora_up.weight f2 [320, 16, 1, 1]
000000 b0 1a 17 23 fd 2b 41 a7 2e a5 49 a0 3c a8 91 27
       0.003265 0.01385 0.0624 -0.02834 -0.02023 -0.00837 -0.03308 0.02956
000010 95 28 af 26 40 1f 68 a5 ec 1f 3b 29 6c 99 1b 9e
       0.0358 0.02611 0.00708 -0.02112 0.007736 0.04086 -0.002647 -0.005962
000020 28 18 b0 20 08 24 09 96 63 a4 d5 a2 16 18 50 26
       0.00203 0.009155 0.01575 -0.001473 -0.01714 -0.01334 0.001995 0.02466
000030 aa a5 ed 9d 23 9e 9f a5 39 a5 2f a4 21 20 92 25
       -0.02213 -0.005787 -0.005993 -0.02196 -0.0204 -0.01634 0.008064 0.02176
000040 df 21 a3 28 c0 28 10 9e 5d 18 e7 a5 55 25 3b 9c
       0.01147 0.03622 0.0371 -0.00592 0.00213 -0.02306 0.02083 -0.00413
000050 5d a8 c5 aa 3c 26 df 22 f6 0b fb a3 bf a1 70 ac
       -0.0341 -0.0529 0.02435 0.01342 0.000243 -0.01559 -0.01122 -0.06934
000060 42 20 e6 a6 f1 a5 ac a1 da 99 31 a0 05 a7 62 28
       0.008316 -0.02695 -0.02321 -0.01108 -0.002857 -0.00819 -0.02742 0.03424
000070 cc 25 0c 27 06 24 7a 29 bf 11 82 27 3a 9b 99 23
       0.02264 0.02753 0.01572 0.0428 0.0007014 0.02933 -0.003529 0.01484
000080 92 12 bc 2c ac a4 a5 9e c5 9c 1b a1 8d 25 88 a7
       0.000802 0.074 -0.01825 -0.00649 -0.004658 -0.00997 0.02168 -0.02942
000090 55 9f e4 a5 43 28 58 20 7f 9d e7 12 aa 11 24 a3
       -0.00716 -0.02301 0.0333 0.008484 -0.005367 0.0008426 0.0006914 -0.01395
0000a0 bb a2 a1 18 8a aa ea 29 d6 28 bb 1f 17 9b e3 a8
       -0.013145 0.00226 -0.0511 0.0462 0.03778 0.00755 -0.003462 -0.03818
0000b0 86 a2 bb 24 f3 2a 23 a5 b6 a6 5a 28 5b a4 69 95
       -0.01274 0.01848 0.0543 -0.02007 -0.02621 0.034 -0.01701 -0.001321
0000c0 03 a6 16 a9 3f ad 41 28 9e 28 e1 2b 7f a8 a8 90
       -0.02348 -0.03973 -0.082 0.03323 0.03607 0.06155 -0.03513 -0.0005684
0000d0 e3 29 6c 2e 0f 28 16 a8 5d a9 3e 2c 65 aa ec 2a
       0.046 0.10034 0.0317 -0.03192 -0.0419 0.0663 -0.04996 0.05408
0000e0 a7 a2 60 a6 8f 1e 98 9f 4a 25 61 20 fb ab 32 9a
       -0.01299 -0.0249 0.006405 -0.007416 0.02066 0.00855 -0.06235 -0.003025
0000f0 ab 98 71 a3 a2 25 18 28 02 0e cf 26 86 99 4b 24
       -0.00228 -0.014534 0.022 0.03198 0.0003667 0.0266 -0.002697 0.01677
000100 3a 28 22 9b b0 1f 78 22 f9 27 bc 29 a5 22 0e 9c
       0.03302 -0.003483 0.007507 0.012634 0.03114 0.0448 0.01298 -0.00396
000110 01 1b 67 18 97 20 30 a1 3d a5 c9 23 82 a5 f9 2b
       0.00342 0.00215 0.008965 -0.01013 -0.02046 0.015205 -0.02151 0.0623
000120 66 24 b0 24 5f 24 66 a4 51 9c 0f a6 de 22 06 a8
       0.01718 0.01831 0.01707 -0.01718 -0.004215 -0.02367 0.01341 -0.03143
000130 dc 9d 7c a9 eb 25 55 9c 2d 1f b2 91 b1 99 ca aa
       -0.005722 -0.04285 0.02312 -0.00423 0.007008 -0.000695 -0.002779 -0.05304
000140 29 ab f8 aa 91 9e 56 27 03 28 a3 2a 71 a8 c8 a3
       -0.05594 -0.05444 -0.006413 0.02866 0.03134 0.05185 -0.0347 -0.0152
000150 f9 28 78 2b 49 2a a5 a8 0c a6 27 26 05 a2 d0 2a
       0.03885 0.05835 0.0491 -0.0363 -0.02362 0.02403 -0.01176 0.05322
000160 63 24 19 a3 2e aa ad 27 4f 18 ba 21 4f 95 60 a5
       0.01714 -0.01386 -0.04828 0.02998 0.002104 0.011185 -0.001296 -0.021
000170 ba 20 0d 24 cb 26 bd 9e a4 9f bb 15 1c 10 0c 22
       0.00923 0.01582 0.02654 -0.00658 -0.00746 0.001399 0.0005016 0.01181
000180 23 a2 78 aa 5b 9e 14 21 28 23 04 28 3e 8b 74 a4
       -0.011986 -0.05054 -0.006207 0.00992 0.01398 0.03137 -0.000221 -0.0174
000190 fa 28 04 27 d5 a6 4d 1c 27 a3 76 15 10 a9 47 2b
       0.03888 0.0274 -0.02669 0.0042 -0.01397 0.001333 -0.03955 0.05685
0001a0 5a 2a ae 28 81 26 29 a2 3e aa e9 a4 6c 24 4b a1
       0.04962 0.03656 0.0254 -0.01203 -0.04877 -0.01918 0.01727 -0.01034
0001b0 35 a7 c6 ac 2c a5 51 28 0f 26 62 ac 61 2c 42 ac
       -0.02815 -0.0746 -0.0202 0.03372 0.02367 -0.0685 0.0684 -0.0665
0001c0 73 29 69 0c b5 12 34 a7 84 a8 4d 92 df 27 a8 1b
       0.04257 0.0002692 0.0008187 -0.02814 -0.03528 -0.000769 0.03075 0.003738
0001d0 6e a1 12 a5 e0 a4 c0 28 c0 19 bd a0 91 24 8e a7
       -0.010605 -0.0198 -0.01904 0.0371 0.002808 -0.009254 0.01784 -0.02951
0001e0 f1 ab 12 a9 be 21 a0 93 2a 2c 33 23 73 ab 86 26
       -0.06204 -0.0396 0.011215 -0.000931 0.06506 0.01406 -0.0582 0.02548
0001f0 b0 2c bd 27 d6 29 4b 25 f0 a2 ba 2a 03 ab c1 25
       0.07324 0.03023 0.0456 0.02068 -0.01355 0.05255 -0.05478 0.02248

lora_unet_down_blocks_1_downsamplers_0_conv.lora_down.weight f2 [16, 640, 3, 3]
000000 77 30 19 2c 44 a6 6c 2c e3 ad 41 a8 10 25 0f b0
       0.1395 0.064 -0.02448 0.0691 -0.092 -0.03323 0.01978 -0.1268
000010 c1 ae 52 30 9e 29 68 a8 ef 2c 10 20 b7 1e bf 2f
       -0.1055 0.135 0.04388 -0.03442 0.0771 0.007935 0.006557 0.12103
000020 e6 2c 1a 9c 66 ad 50 b1 40 a4 b0 2b 22 b1 cb b0
       0.07654 -0.004005 -0.08435 -0.166 -0.0166 0.06006 -0.1604 -0.1498
000030 0e aa 2d a9 04 ac 29 9b fa 20 2f 2b b4 2e 0a aa
       -0.0473 -0.04044 -0.06274 -0.003496 0.00972 0.05612 0.10474 -0.04718
000040 cf ac 3c a1 49 1b a7 9c 37 a0 07 29 12 24 1b 24
       -0.07513 -0.01022 0.003557 -0.004543 -0.00823 0.03928 0.0159 0.01604
000050 05 2f 3e 21 25 2e 77 2c d1 01 a1 a0 2a 2d a7 1f
       0.1097 0.01024 0.096 0.06976 2.77e-05 -0.00904 0.0807 0.007473
000060 8a a4 64 ac b4 a9 3b ae 2e aa 16 1e 01 2e 89 aa
       -0.01773 -0.0686 -0.04456 -0.09735 -0.04828 0.005943 0.0938 -0.05106
000070 29 ac d7 20 c5 ae 3c aa 4d aa a6 a9 29 aa b2 27
       -0.065 0.00945 -0.1058 -0.0487 -0.04922 -0.04413 -0.04813 0.03006
000080 44 ab c7 a4 f3 2d cf a3 37 ad a7 2c 7f ae 47 a1
       -0.05676 -0.01866 0.09296 -0.01525 -0.0815 0.0727 -0.1015 -0.01031
000090 6c a0 1d ad fd 2a 38 aa 2c 2f 9b a5 5f 2d fd 21
       -0.00864 -0.0799 0.0546 -0.04858 0.11206 -0.0219 0.0839 0.011696
0000a0 c2 29 64 ab 38 28 ad 20 29 17 91 9b 6b 28 e8 30
       0.04498 -0.05774 0.03296 0.00913 0.001748 -0.003695 0.03452 0.1533
0000b0 75 ad 41 ab a4 24 22 ab 0c ab e4 29 46 2c 51 2e
       -0.08527 -0.05667 0.01813 -0.05573 -0.05505 0.04602 0.0668 0.0987
0000c0 15 2f 26 20 0a ab 14 a7 92 27 58 a6 f0 2a b9 28
       0.11066 0.0081 -0.055 -0.02765 0.02957 -0.02478 0.0542 0.0369
0000d0 da a4 8e a7 b2 29 c1 28 d0 26 a9 22 7e a8 06 2a
       -0.01895 -0.02951 0.0445 0.03714 0.02661 0.01301 -0.0351 0.04706
0000e0 1d 29 b8 aa ce 26 dc 28 d5 aa e1 2b 23 ab 39 24
       0.03995 -0.0525 0.02658 0.03796 -0.05338 0.06155 -0.05576 0.0165
0000f0 e8 a9 59 aa d9 b1 7e ab 14 2d a5 ad 0d 2d 44 2d
       -0.04614 -0.0496 -0.1827 -0.05853 0.07935 -0.0882 0.0789 0.0823
000100 f1 2d 6e 2d 1d 24 cc ae c0 2c 63 aa 7b 2c ef 20
       0.09283 0.08484 0.01607 -0.1062 0.0742 -0.0499 0.07 0.009636
000110 8a 97 da a1 4b 19 c3 a4 45 ad ca a5 fc ab d5 a8
       -0.001841 -0.01143 0.002584 -0.0186 -0.08234 -0.02261 -0.06238 -0.03775
000120 2b af 59 12 86 9d 24 a6 80 ad e0 2a 71 a9 47 ae
       -0.112 0.000775 -0.005394 -0.02399 -0.08594 0.0537 -0.0425 -0.0981
000130 41 29 70 28 86 a1 68 ae 6c a5 ba a8 61 ac 68 ac
       0.04105 0.03467 -0.01079 -0.1001 -0.02118 -0.03693 -0.0684 -0.06885
000140 c3 aa cc 28 8a 2b a7 2d 59 27 ad 22 2e ad 8d 29
       -0.05283 0.03748 0.0589 0.0883 0.0287 0.01304 -0.08093 0.04337
000150 86 28 1e ac 1d a0 a5 29 ad a8 d2 98 17 29 bc 2a
       0.03534 -0.06433 -0.00803 0.0441 -0.03653 -0.002354 0.03976 0.0526
000160 e2 25 5b ad 44 aa f7 29 a8 88 47 1d 6e a5 c6 a8
       0.02298 -0.0837 -0.04895 0.0466 -0.0001421 0.005154 -0.02121 -0.0373
000170 4c a7 63 a9 30 ae 7b 9e 71 af b1 b0 f6 ac 03 a9
       -0.0285 -0.04208 -0.0967 -0.00633 -0.1163 -0.1466 -0.0775 -0.03915
000180 46 a7 32 b1 0a b2 a1 aa e7 ac 02 ad 54 2d ed 24
       -0.02841 -0.1624 -0.1887 -0.0518 -0.0766 -0.07825 0.08325 0.01924
000190 ea 9f b5 2d 50 b0 e2 25 35 2f ba 24 46 27 2a 30
       -0.00773 0.0892 -0.1348 0.02298 0.1126 0.01846 0.02841 0.1301
0001a0 e2 a3 e7 23 df 2d c6 ab 55 29 6c 2c 44 ad 62 2a
       -0.015396 0.015434 0.09174 -0.06073 0.04166 0.0691 -0.0823 0.04987
0001b0 3f 31 9b 2a b8 ac 0b 29 db ae a9 a8 09 2c 98 aa
       0.164 0.0516 -0.0737 0.0394 -0.1071 -0.0364 0.06305 -0.0515
0001c0 b4 a0 48 28 98 a7 a7 a6 32 a9 9c b0 2c a8 08 ad
       -0.009186 0.03345 -0.02966 -0.02599 -0.0406 -0.144 -0.0326 -0.0786
0001d0 8f a2 29 2b 09 ae cc a8 2c 2e 0f 21 bf a1 c9 98
       -0.01281 0.05594 -0.0943 -0.03748 0.09644 0.00988 -0.01122 -0.002337
0001e0 3c 27 06 2b 8b ac 1d a2 ca a8 b3 a7 23 2d a7 ad
       0.02826 0.05487 -0.071 -0.01194 -0.0374 -0.03008 0.08026 -0.0883
0001f0 1a a9 dc aa 30 a8 a4 ac 3f 2b d5 28 50 26 05 2d
       -0.03986 -0.0536 -0.0327 -0.0725 0.0566 0.03775 0.02466 0.0784

lora_unet_down_blocks_1_downsamplers_0_conv.lora_up.weight f2 [640, 16, 1, 1]
000000 18 90 d4 28 bf 89 e8 28 00 2c a7 29 4a 24 89 26
       -0.0004997 0.03772 -0.0001754 0.03833 0.0625 0.04416 0.01675 0.02553
000010 71 a9 63 a8 0a a9 41 25 c5 26 93 29 b1 87 82 a8
       -0.0425 -0.03427 -0.03937 0.02052 0.02644 0.04355 -0.00011736 -0.03522
000020 8e a0 93 20 93 21 01 1c 2f a5 e9 22 58 21 e6 27
       -0.008896 0.008934 0.01089 0.00391 -0.02025 0.0135 0.01044 0.03085
000030 45 14 bb 93 37 20 bf a8 18 aa aa 23 6b a7 46 9d
       0.001042 -0.0009437 0.00823 -0.03708 -0.0476 0.01497 -0.02898 -0.00515
000040 b0 2a ae ab 69 ad 71 a7 d3 ac ff 29 bd a8 93 aa
       0.05225 -0.06 -0.08453 -0.02907 -0.0754 0.04684 -0.03702 -0.05136
000050 ea 27 b4 28 ed a8 8b 24 40 2a a4 28 dc 2a 00 2c
       0.03091 0.03674 -0.03848 0.01775 0.04883 0.03625 0.0536 0.0625
000060 85 99 60 1b d7 a1 11 14 22 a1 1d 1e 81 a5 3f 1e
       -0.002695 0.003601 -0.011406 0.000993 -0.010025 0.00597 -0.0215 0.0061
000070 fe 1a 1d 9c 22 1a ca 28 57 9e 1e a1 b1 97 ba 22
       0.003414 -0.004017 0.002995 0.0374 -0.00619 -0.009995 -0.001878 0.01314
000080 2d a4 77 29 db 1d c0 23 57 26 81 9f 2d 28 a0 26
       -0.01631 0.0427 0.00572 0.01514 0.02477 -0.007328 0.03262 0.02588
000090 71 a5 0b a8 3d 26 e6 a9 84 a7 77 a6 3b a8 19 a3
       -0.02126 -0.0316 0.02437 -0.04608 -0.02936 -0.02525 -0.03305 -0.01386
0000a0 ee a5 af 28 7a 96 0e 2a 76 29 07 1c c8 23 17 29
       -0.02316 0.0366 -0.001581 0.0473 0.04266 0.003933 0.0152 0.03976
0000b0 57 a2 2a a7 d4 a3 46 a8 dc a4 d4 9e 87 a3 3a a5
       -0.01238 -0.02798 -0.01529 -0.0334 -0.01898 -0.006668 -0.0147 -0.02042
0000c0 3c a6 04 29 c1 1e 54 28 3f 2a 66 26 51 13 7d 2c
       -0.02435 0.03918 0.006596 0.0338 0.0488 0.025 0.000893 0.0701
0000d0 08 27 b7 ad a1 a5 05 a1 e9 ac 85 9f ff a5 ab a2
       0.02747 -0.0893 -0.02199 -0.0098 -0.0767 -0.007343 -0.02342 -0.01302
0000e0 37 a2 ab a1 1f 25 ab a8 8f a8 83 9d 9f a8 15 a7
       -0.01214 -0.01107 0.02 -0.03647 -0.0356 -0.005383 -0.0361 -0.02766
0000f0 c4 96 14 2a 46 24 03 9d 13 1c 41 aa 0b a1 dd 25
       -0.001652 0.0475 0.0167 -0.004894 0.00398 -0.04886 -0.00985 0.0229
000100 ca 24 76 a8 30 ab c0 a3 35 a7 65 98 55 a4 7c ab
       0.0187 -0.03485 -0.05615 -0.01514 -0.02815 -0.002146 -0.01692 -0.05847
000110 ed a1 85 22 f9 a3 aa 27 0a 2e 97 9c d2 29 82 25
       -0.01157 0.01273 -0.01557 0.02994 0.09436 -0.004482 0.04547 0.02151
000120 bd a5 48 28 06 26 9a 28 5f 22 84 a8 f5 29 8c a0
       -0.02242 0.03345 0.02353 0.03595 0.01244 -0.03528 0.04654 -0.00888
000130 be a8 e6 9c ba 23 ec a6 72 a8 4c a4 fb a5 14 a8
       -0.03705 -0.004784 0.01509 -0.02704 -0.03473 -0.01678 -0.02336 -0.03186
000140 df aa 20 2c 8a 2b 1f 2b 0a 2b 0e ad b2 28 ce 29
       -0.05368 0.06445 0.0589 0.05563 0.055 -0.079 0.03668 0.04535
000150 53 ab 03 aa 4b 29 02 a9 23 ab 34 ac 5a ac ce ab
       -0.05722 -0.04697 0.04135 -0.03912 -0.05576 -0.0657 -0.068 -0.06097
000160 8c 1e 40 8f 26 29 fa 9c e1 28 9c 20 74 27 27 28
       0.006393 -0.0004425 0.04022 -0.00486 0.03812 0.009 0.02911 0.03244
000170 5a 20 91 a0 c2 a2 0a a4 fe a4 d0 29 83 9e 0f a3
       0.0085 -0.00892 -0.0132 -0.01578 -0.0195 0.0454 -0.00636 -0.01379
000180 5f a1 50 16 e7 15 8a 93 ac 25 64 26 44 0d 8b 2c
       -0.01049 0.001541 0.001441 -0.0009203 0.02216 0.02496 0.0003214 0.071
000190 d2 23 cc 23 a4 20 06 24 e9 a7 09 25 56 a9 6a a2
       0.015274 0.01523 0.00906 0.01572 -0.0309 0.01967 -0.0417 -0.01253
0001a0 cb 25 0b a8 fa 26 8d a8 5d a8 b2 a4 eb a4 63 aa
       0.02263 -0.0316 0.02725 -0.03555 -0.0341 -0.01834 -0.01921 -0.0499
0001b0 76 a0 22 a4 38 a5 9b a6 b1 28 f3 23 b7 28 c8 26
       -0.00871 -0.01614 -0.02039 -0.0258 0.03665 0.015526 0.03683 0.02649
0001c0 b6 a7 77 26 9c 90 aa 29 08 24 03 20 31 28 d1 1a
       -0.03012 0.02525 -0.0005627 0.04425 0.01575 0.007835 0.03275 0.003328
0001d0 30 a8 05 a8 8d a5 64 29 a1 21 15 2c 3c a5 4f a7
       -0.0327 -0.0314 -0.02168 0.0421 0.010994 0.0638 -0.02045 -0.02855
0001e0 5b a1 a2 a5 76 a0 1f 1f 38 a3 8d a4 0d a3 b3 a6
       -0.01046 -0.022 -0.00871 0.006954 -0.0141 -0.01778 -0.01377 -0.02617
0001f0 d6 9f 8f 9c 88 20 2c 9e 7f 22 7a 15 6c 9c d1 1d
       -0.007652 -0.00445 0.00885 -0.006027 0.01269 0.001337 -0.00432 0.00568

lora_unet_up_blocks_0_upsamplers_0_conv.lora_down.weight f2 [16, 1280, 3, 3]
000000 ff ad c7 a9 de ad 18 9d 3f ad 47 ae 44 b0 39 a1
       -0.0937 -0.04514 -0.0917 -0.004974 -0.082 -0.0981 -0.1333 -0.0102
000010 83 29 6e 2e ae b0 56 27 46 28 58 21 51 ad 2b ab
       0.04306 0.10046 -0.1462 0.02866 0.0334 0.01044 -0.08307 -0.056
000020 35 a9 9d 1c de ae e6 9e 82 ae 90 a9 2e ae e3 ad
       -0.04068 0.004505 -0.1073 -0.006737 -0.1017 -0.04346 -0.09656 -0.092
000030 70 ae 9c a4 3b a7 6d 23 68 2c 46 2e 4c 2a d6 98
       -0.1006 -0.018 -0.02824 0.0145 0.06885 0.098 0.0492 -0.002361
000040 94 99 b6 30 07 26 6a 2a 3e a8 33 a9 84 9e 1d a9
       -0.002724 0.1472 0.02354 0.0501 -0.03314 -0.04062 -0.006363 -0.03995
000050 23 ac 1a ab 30 23 95 a8 61 1d 80 2c 3a 31 c9 2f
       -0.06464 -0.05548 0.01404 -0.0358 0.005253 0.0703 0.1633 0.12164
000060 8d 2b f8 30 57 2c 7b 31 3d 2c 51 2a f5 ad b8 2c
       0.059 0.1553 0.0678 0.1713 0.0662 0.04935 -0.0931 0.0737
000070 8f 2a 7e 26 73 2c 17 a7 53 25 0f 2e 3f 8d 68 aa
       0.05124 0.02536 0.0695 -0.0277 0.0208 0.09467 -0.0003202 -0.05005
000080 93 ac 0d ab 5a ac 39 ad 54 ac 82 ab 0a a9 31 ad
       -0.0715 -0.05508 -0.068 -0.0816 -0.0676 -0.05865 -0.03937 -0.0811
000090 1b 97 13 32 4d 2d 50 27 00 22 e5 a1 cb 24 a0 28
       -0.001735 0.1898 0.0828 0.02856 0.01172 -0.01151 0.01872 0.03613
0000a0 d1 2c cc 2d b8 a4 f2 ac 4f ad 5e 2d 15 a1 4e aa
       0.07526 0.0906 -0.01843 -0.0773 -0.08295 0.08386 -0.009926 -0.04926
0000b0 04 26 97 28 e3 a4 da 28 f0 26 fd 07 95 26 76 25
       0.0235 0.03586 -0.01909 0.0379 0.0271 0.0001219 0.02571 0.02133
0000c0 c5 24 4a a7 2f 2a 02 28 6a 2b c3 2d 32 a5 98 a9
       0.01863 -0.02847 0.0483 0.0313 0.05792 0.09 -0.0203 -0.0437
0000d0 b4 2a 8b a8 02 2d e8 99 4e a7 85 27 4c 99 36 24
       0.05237 -0.0355 0.07825 -0.002884 -0.02853 0.02937 -0.002586 0.01645
0000e0 bb 31 56 28 da 2d b9 20 97 28 b6 ac 64 2b 65 9d
       0.1791 0.03387 0.09143 0.009224 0.03586 -0.0736 0.05774 -0.00527
0000f0 41 2d 9a ae fb 24 8f 29 c6 28 dd 94 df 29 ec 26
       0.0821 -0.10315 0.01945 0.04343 0.0373 -0.001187 0.04587 0.02704
000100 88 2e 1c 25 93 28 12 30 ea 21 05 2e a2 2c ad a5
       0.10205 0.01996 0.03574 0.1272 0.01155 0.09406 0.0724 -0.02217
000110 50 a9 61 b1 97 26 16 26 34 a2 bc 99 e5 a2 4d a9
       -0.0415 -0.1681 0.02574 0.02377 -0.012115 -0.0028 -0.013466 -0.0414
000120 61 8e 23 29 13 24 1b 2c c5 ae 8a a3 1b 22 d4 9c
       -0.0003893 0.04013 0.01591 0.06415 -0.1058 -0.014725 0.011925 -0.004715
000130 f6 ac 3b 30 c7 a8 18 2a 19 2a 95 29 2f 2c 65 a1
       -0.0775 0.1322 -0.03732 0.0476 0.04764 0.0436 0.06537 -0.01054
000140 79 28 0a 26 41 28 a6 2b 6d 29 22 a4 0a 30 77 a9
       0.03494 0.02359 0.03323 0.05975 0.0424 -0.01614 0.1262 -0.0427
000150 eb 2b d0 2b 5d 29 67 29 61 a0 66 23 f5 a4 83 27
       0.06186 0.06104 0.0419 0.0422 -0.00855 0.01445 -0.01936 0.02934
000160 80 a6 c1 b0 f3 28 b1 a8 4e b0 41 1d 04 a8 4c a5
       -0.02539 -0.1486 0.03867 -0.03665 -0.1345 0.00513 -0.03137 -0.02069
000170 17 21 a0 a9 95 2c e0 ae 0c 2d 08 a7 0f ab b7 28
       0.00994 -0.04395 0.0716 -0.1074 0.07886 -0.02747 -0.05515 0.03683
000180 14 aa ac a7 97 a3 cf a3 e9 1d 0b 2e 27 a4 9f 2e
       -0.0475 -0.02997 -0.014824 -0.01525 0.00577 0.0944 -0.01622 0.10345
000190 a8 2d aa 28 fb 2a 1b ab 7f ad db 22 da 99 d4 2c
       0.0884 0.03644 0.05453 -0.0555 -0.0859 0.01339 -0.002857 0.07544
0001a0 c4 ab 1f aa a7 ab b1 a6 28 a8 38 2b ca 1d c4 ac
       -0.06067 -0.04782 -0.05978 -0.02614 -0.03247 0.0564 0.005653 -0.07446
0001b0 17 ab 73 ac 24 9f 4e ad 79 2a cd a1 e6 a8 34 a9
       -0.0554 -0.0695 -0.006973 -0.0829 0.05057 -0.01133 -0.03827 -0.04065
0001c0 d7 2b 14 ac 65 aa fc 17 3e 22 50 30 6d 20 05 a8
       0.06125 -0.0637 -0.04996 0.001949 0.01219 0.1348 0.008644 -0.0314
0001d0 58 a7 1e ac f5 20 bf 25 53 0d 67 a2 1f 2f 12 31
       -0.02869 -0.06433 0.00968 0.02245 0.000325 -0.012505 0.11127 0.1584
0001e0 b1 25 aa 9b d9 2c 46 1c 84 a4 f2 ac ce b1 2b a5
       0.02223 -0.003742 0.07574 0.004173 -0.01764 -0.0773 -0.1814 -0.02019
0001f0 98 b0 28 ac 6b a6 ba 26 45 a8 8c 2c 4b 9f 75 a2
       -0.1436 -0.06494 -0.02507 0.02628 -0.03336 0.07104 -0.007122 -0.01261

lora_unet_up_blocks_0_upsamplers_0_conv.lora_up.weight f2 [1280, 16, 1, 1]
000000 38 21 5e 99 b3 a2 01 1f 12 a1 34 98 90 21 36 1f
       0.01019 -0.00262 -0.013084 0.00684 -0.0099 -0.002052 0.010864 0.007042
000010 c9 99 9a a5 b2 22 b0 a0 97 a0 23 1d 90 a3 9a 27
       -0.002825 -0.02188 0.01308 -0.009155 -0.008965 0.005016 -0.01477 0.0297
000020 43 9b e0 19 6a 9d c2 24 05 25 08 a0 39 21 f7 28
       -0.003546 0.002869 -0.005287 0.01859 0.0196 -0.00787 0.0102 0.0388
000030 9f a7 ff a7 6b 1d 5f a4 dd 95 41 23 91 26 1f 21
       -0.02977 -0.03123 0.00529 -0.01707 -0.001431 0.01417 0.02565 0.01
000040 3b 18 5e 20 f6 19 4e 20 0b 22 e1 a5 85 a2 da a0
       0.002066 0.00853 0.00291 0.00841 0.0118 -0.02296 -0.01273 -0.009476
000050 fe 25 cd 1a 60 29 f5 1f 98 23 e5 a5 78 a2 e2 10
       0.0234 0.00332 0.042 0.00777 0.01483 -0.02303 -0.012634 0.000596
000060 ea 28 a4 a8 4d 1f 1c ab 79 23 24 24 14 2b a7 a1
       0.0384 -0.03625 0.00713 -0.05554 0.014595 0.01617 0.0553 -0.01104
000070 18 a6 a3 2c 60 19 87 98 ce a1 d8 23 8b 24 05 1a
       -0.0238 0.07245 0.002625 -0.00221 -0.01134 0.01532 0.01775 0.00294
000080 ed 1f b9 21 5f 27 bd 28 ef a5 b1 97 79 9c 3b 1c
       0.00774 0.01118 0.0288 0.03702 -0.02318 -0.001878 -0.004368 0.00413
000090 a4 25 87 a3 1d 1a 7c 2a f2 1d 05 99 7c 8f a2 26
       0.02203 -0.0147 0.002985 0.05066 0.005806 -0.00245 -0.0004568 0.02591
0000a0 ee 23 97 26 34 ab df a2 bf a6 03 24 32 a6 50 23
       0.01549 0.02574 -0.05627 -0.01342 -0.02635 0.01567 -0.0242 0.01428
0000b0 94 aa 1a a0 7b 28 4f 1b 4e 2a 85 9e 9a a4 f1 22
       -0.0514 -0.00801 0.035 0.003569 0.04926 -0.006367 -0.01797 0.01356
0000c0 7f a7 fa a4 81 aa 02 22 5e 23 00 28 bc 24 20 21
       -0.02928 -0.01944 -0.0508 0.011734 0.01439 0.03125 0.0185 0.01001
0000d0 9e 28 6b 26 6b 20 49 a8 72 a8 a5 a7 c4 20 25 29
       0.03607 0.02507 0.00863 -0.03348 -0.03473 -0.02986 0.00931 0.0402
0000e0 96 2a 13 24 d9 a5 db a5 73 a8 c2 a8 75 1d 3c a2
       0.05145 0.01591 -0.02284 -0.02287 -0.03476 -0.03717 0.00533 -0.01218
0000f0 fd a8 bf 23 23 9c 88 a8 b4 92 b7 19 2e a3 26 a2
       -0.03897 0.01513 -0.00404 -0.0354 -0.0008183 0.00279 -0.01402 -0.01201
000100 08 a0 86 21 d5 22 ce 0b 9f 24 f6 19 ac a3 9d 9b
       -0.00787 0.01079 0.01334 0.0002382 0.01805 0.00291 -0.014984 -0.003717
000110 38 26 f5 a1 ea a2 a2 a4 11 a3 c4 18 a4 a5 5c a3
       0.02429 -0.011635 -0.013504 -0.0181 -0.0138 0.002327 -0.02203 -0.01437
000120 67 a0 51 a5 f2 1e 9c 25 ae 25 71 a2 df 1f 57 0f
       -0.0086 -0.02077 0.006783 0.02191 0.02219 -0.01258 0.007687 0.000448
000130 35 99 e8 27 70 28 f1 21 7d 98 4b a1 fc a4 7a 19
       -0.002542 0.03088 0.03467 0.011604 -0.002192 -0.01034 -0.01947 0.002674
000140 aa a5 fe 21 c6 a5 b7 a0 f8 21 04 21 fe a5 6e a5
       -0.02213 0.0117 -0.02255 -0.00921 0.01166 0.009796 -0.0234 -0.02121
000150 75 25 76 a2 11 9f 87 2a a6 23 f5 9f 78 a4 3c 1c
       0.02132 -0.01262 -0.0069 0.051 0.01494 -0.00777 -0.01746 0.004135
000160 44 20 2b 98 f0 24 e2 84 d0 25 e1 a4 9b a2 e2 1d
       0.00833 -0.002035 0.01929 -7.45e-05 0.0227 -0.01906 -0.0129 0.005745
000170 7b 20 a7 1c 6c 1a 58 a0 1c a4 7f 0f 08 9e ff a1
       0.00875 0.004543 0.003136 -0.008484 -0.01605 0.0004575 -0.00589 -0.01171
000180 b2 a4 e4 a0 d7 23 26 20 51 a2 a6 24 db 17 32 25
       -0.01834 -0.00955 0.01531 0.0081 -0.01234 0.01816 0.001918 0.0203
000190 84 1c 86 26 2e 22 79 98 96 08 24 24 f2 22 4a a1
       0.00441 0.02548 0.01207 -0.002184 0.00014 0.01617 0.013565 -0.01033
0001a0 aa 1a af 21 33 24 60 20 6d 24 b7 a2 21 98 b1 10
       0.003254 0.0111 0.0164 0.008545 0.01729 -0.013115 -0.002016 0.0005727
0001b0 84 22 42 04 60 a0 d6 a5 ae 99 11 9d 2f 1b d4 a4
       0.012726 6.497e-05 -0.008545 -0.0228 -0.002773 -0.004948 0.003508 -0.01886
0001c0 2d a7 5b a0 ea 90 9a 24 bc 26 d1 9f 63 24 1d 28
       -0.02803 -0.00851 -0.0006 0.01797 0.0263 -0.007633 0.01714 0.03214
0001d0 c0 a0 84 a9 6f 99 d6 a2 ab a3 ba a1 2b 19 e5 a8
       -0.00928 -0.0431 -0.002653 -0.01335 -0.01498 -0.011185 0.002523 -0.03824
0001e0 4f 1e 16 20 19 28 ff 20 dd 22 60 28 b8 9e d8 9f
       0.00616 0.00798 0.032 0.00976 0.013405 0.03418 -0.00656 -0.00766
0001f0 ab a1 5f 29 d8 17 a0 14 0e 20 14 a1 5f 9b 1e 22
       -0.01107 0.04196 0.001915 0.001129 0.00792 -0.00992 -0.0036 0.01195

lora_unet_up_blocks_1_upsamplers_0_conv.lora_down.weight f2 [16, 640, 3, 3]
000000 11 a4 9d a1 6c ad c6 b0 f0 b0 ac ad 83 ab 04 b0
       -0.01588 -0.01096 -0.0847 -0.1492 -0.1543 -0.0886 -0.0587 -0.1255
000010 9c 28 23 1c 1f 2c da 29 1e 2d 24 a4 14 2b 87 1d
       0.036 0.00404 0.0644 0.04572 0.07996 -0.01617 0.0553 0.005398
000020 ec 29 1c 27 99 29 9e 30 2d ac 13 9d 00 23 73 2c
       0.04626 0.02777 0.04373 0.1443 -0.06525 -0.004955 0.01367 0.0695
000030 b9 2d 59 a6 37 a5 c1 a9 82 27 81 22 36 21 ce a3
       0.0894 -0.0248 -0.02037 -0.04495 0.02933 0.0127 0.01018 -0.01524
000040 d4 2d 38 1f 2d ad 97 2e 82 a2 c1 2d c0 a5 a9 aa
       0.09106 0.00705 -0.0809 0.10297 -0.01271 0.0899 -0.02246 -0.05203
000050 16 ab 50 20 8e 28 3e 32 bc 9d 88 28 8c 25 3f 2e
       -0.05536 0.00842 0.03558 0.1951 -0.0056 0.0354 0.02167 0.0976
000060 10 2f 37 2c 9d ac cc 24 7b 28 7d 2c 78 a9 96 a8
       0.11035 0.06586 -0.0721 0.01874 0.035 0.0701 -0.04272 -0.03583
000070 ad a1 35 30 d2 a3 a6 2a 97 21 ef 29 14 2b 33 26
       -0.011086 0.1315 -0.015274 0.05194 0.01092 0.04636 0.0553 0.02422
000080 e5 1a de 27 6f a5 18 a1 a3 24 c6 a9 2a aa 41 a5
       0.003366 0.03073 -0.02122 -0.00995 0.01811 -0.0451 -0.04816 -0.02052
000090 71 af c3 ae 09 ac 6d ac a4 a4 de a4 18 ac c5 ac
       -0.1163 -0.10565 -0.06305 -0.06915 -0.01813 -0.01901 -0.06396 -0.0745
0000a0 43 a2 20 99 18 a8 9e ab d5 ae ab ae 38 a2 24 b0
       -0.01223 -0.002502 -0.03198 -0.0595 -0.10675 -0.1042 -0.012146 -0.1294
0000b0 c4 12 15 a7 28 ad 31 ab cd ac 10 a1 17 a9 23 ac
       0.000826 -0.02766 -0.08057 -0.05618 -0.075 -0.00989 -0.03976 -0.06464
0000c0 55 ac 45 22 ba 2b f1 ac d3 1f fe 28 99 22 51 ac
       -0.0677 0.012245 0.06036 -0.0772 0.00764 0.039 0.012886 -0.06744
0000d0 bd 2b b2 a3 5b a2 75 25 d5 a5 5c a2 f9 9f cf 2c
       0.06046 -0.01503 -0.01241 0.02132 -0.02278 -0.01242 -0.007786 0.07513
0000e0 3a 27 50 9e 8a 1e 29 a8 24 9f ee 2f b8 2a 79 2c
       0.02823 -0.006165 0.006386 -0.0325 -0.006973 0.1239 0.0525 0.0699
0000f0 2a 2a a2 1d aa 2e 63 2c 87 2b 35 2c 71 af 46 a8
       0.04816 0.0055 0.1041 0.06854 0.0588 0.06573 -0.1163 -0.0334
000100 fa ae 72 a8 4f 2d d9 9f 12 a9 64 ad 6d aa 89 11
       -0.109 -0.03473 0.08295 -0.007664 -0.0396 -0.0842 -0.0502 0.0006757
000110 27 24 6d 29 ef a6 4e 27 5b 21 60 1e 84 2f 76 29
       0.01622 0.0424 -0.02708 0.02853 0.01046 0.006226 0.11743 0.04266
000120 68 2a 3a a5 e0 a8 01 2b a0 a6 a7 8e 6a 25 bd ae
       0.05005 -0.02042 -0.0381 0.05472 -0.02588 -0.000406 0.02115 -0.1053
000130 22 31 57 2a 6f 25 be 29 0f 28 0d 2e 56 2e 20 2d
       0.1604 0.04953 0.02122 0.04486 0.0317 0.09454 0.099 0.0801
000140 8a 27 8f 2f a2 0f aa ab 49 a9 9d a2 9a a7 41 a5
       0.02945 0.1181 0.0004659 -0.05988 -0.0413 -0.01292 -0.0297 -0.02052
000150 db 29 f5 20 ef 2b 8a 9b 7b a9 4c 2f 87 21 14 ab
       0.04575 0.00968 0.06198 -0.003681 -0.04282 0.114 0.010796 -0.0553
000160 0a a8 e4 a2 6c a7 b2 ae 4b 27 e4 16 99 28 f6 aa
       -0.03156 -0.01346 -0.02899 -0.1046 0.02849 0.001682 0.03592 -0.05438
000170 2f 22 42 24 51 a8 f0 2b be 1e c4 14 19 a2 58 ac
       0.01208 0.01663 -0.03372 0.062 0.006584 0.0011635 -0.01191 -0.0679
000180 8c aa 28 a4 d8 ae c1 25 35 ab aa af 89 a7 3f 1e
       -0.05115 -0.01624 -0.10693 0.02248 -0.0563 -0.11975 -0.02943 0.0061
000190 1a 2a 13 28 12 2a c4 29 7f 27 2b 1f d7 a9 16 2e
       0.04767 0.03183 0.04742 0.04504 0.02928 0.007 -0.04562 0.0951
0001a0 85 21 69 aa 36 2c 5b a7 2e 29 79 2c fe aa 7b a4
       0.01078 -0.05008 0.0658 -0.02873 0.04047 0.0699 -0.05463 -0.0175
0001b0 14 aa 89 28 99 29 37 2c 67 ac f8 af 2d 24 c1 ad
       -0.0475 0.03543 0.04373 0.06586 -0.0688 -0.1245 0.01631 -0.0899
0001c0 b7 9e d2 24 18 a7 d4 1a 61 29 50 28 11 ac 6e 26
       -0.006557 0.01883 -0.02771 0.003334 0.04202 0.0337 -0.06354 0.02512
0001d0 fb a8 8b a6 75 22 d0 2e 5f a4 ad ad b9 ae 6d b0
       -0.0389 -0.02556 0.01261 0.10645 -0.01707 -0.0887 -0.10504 -0.1383
0001e0 7d a4 7c 28 c2 20 fd ae 46 ad 7b ae 92 29 94 b1
       -0.01753 0.03503 0.00929 -0.1092 -0.0824 -0.10126 0.04352 -0.1743
0001f0 0b ad 01 29 4e ae 23 b0 57 ab 40 2d 3f 28 7f 2c
       -0.0788 0.0391 -0.0985 -0.1293 -0.05734 0.08203 0.03317 0.07025

lora_unet_up_blocks_1_upsamplers_0_conv.lora_up.weight f2 [640, 16, 1, 1]
000000 74 a8 48 9a 6f a8 26 a5 0c a6 32 92 93 9a 90 25
       -0.0348 -0.003067 -0.03464 -0.02011 -0.02362 -0.0007563 -0.00321 0.02173
000010 c4 25 6e 23 55 21 16 a4 35 a3 36 27 c0 a1 fb 16
       0.02252 0.01451 0.010414 -0.01596 -0.01408 0.02817 -0.01123 0.001704
000020 46 a1 4a 21 33 23 46 22 3f 22 6b a8 78 1d 30 18
       -0.0103 0.01033 0.01406 0.01225 0.0122 -0.03452 0.00534 0.002045
000030 d0 24 f2 21 47 23 8d 98 1c a5 c6 9c 39 a5 64 98
       0.0188 0.01161 0.01421 -0.002222 -0.01996 -0.00466 -0.0204 -0.002144
000040 31 a5 89 22 d3 a4 6e 21 8c 18 e5 90 36 9d 95 24
       -0.02028 0.012764 -0.01884 0.010605 0.00222 -0.0005975 -0.00509 0.0179
000050 27 1c 9b 0f b4 9f d5 85 79 21 a3 12 fa 14 17 a0
       0.004055 0.0004642 -0.007523 -8.9e-05 0.01069 0.00081 0.001215 -0.00799
000060 ef 9d de 9d 18 1d dd a5 59 a8 19 21 18 a8 67 23
       -0.005795 -0.00573 0.004974 -0.0229 -0.03397 0.00996 -0.03198 0.01446
000070 e5 19 21 28 f7 a3 ca 9d 7f 1d 12 28 83 1d fb 28
       0.002878 0.03226 -0.01556 -0.005653 0.005367 0.0318 0.005383 0.0389
000080 69 a7 dc 9c d5 a0 5d 28 f8 1b 8c a3 4c 95 a5 a1
       -0.02895 -0.004745 -0.00944 0.0341 0.003891 -0.01474 -0.001293 -0.011024
000090 55 28 da a8 0a a8 cd 9c 93 23 a2 9e a9 1e ee a2
       0.03384 -0.0379 -0.03156 -0.00469 0.01479 -0.006477 0.006504 -0.013535
0000a0 fd a5 11 99 40 25 ed 9d 81 26 e1 a2 47 22 07 24
       -0.02339 -0.002474 0.02051 -0.005787 0.0254 -0.013435 0.01226 0.01573
0000b0 d9 9d 5f 1a c7 28 a3 1e 5d 23 b0 a5 92 a1 64 a2
       -0.00571 0.00311 0.03732 0.00648 0.01438 -0.02222 -0.01088 -0.01248
0000c0 28 27 21 22 9e 1f 81 1c 08 24 23 a6 17 27 2a aa
       0.02795 0.01197 0.00744 0.0044 0.01575 -0.02397 0.0277 -0.04816
0000d0 84 23 4b 9b a4 9f d6 26 16 a6 c0 a1 2e a5 ac 29
       0.01468 -0.003561 -0.00746 0.0267 -0.02377 -0.01123 -0.02023 0.0443
0000e0 ee 20 a3 22 13 9e 62 20 3b a4 80 a7 ba 24 7f 23
       0.00963 0.01296 -0.00593 0.00856 -0.01653 -0.0293 0.01846 0.01464
0000f0 b6 9c 00 a3 10 23 75 9b 4a 9e 7d a4 07 a8 19 23
       -0.0046 -0.01367 0.013794 -0.003641 -0.00614 -0.01753 -0.03146 0.01386
000100 de 9e b0 1c 04 a0 8c a3 ee 98 24 24 39 a6 e9 17
       -0.006706 0.004578 -0.00784 -0.01474 -0.002407 0.01617 -0.0243 0.001931
000110 19 20 8c 24 f8 1b 8a 20 fa 9f 37 20 9d a6 6b 24
       0.008 0.01776 0.003891 0.008865 -0.00779 0.00823 -0.02583 0.01726
000120 6f 23 bc a8 d9 a0 33 26 ac 95 81 1d d1 ac ed a1
       0.01452 -0.037 -0.00947 0.02422 -0.001385 0.005375 -0.07526 -0.01157
000130 47 a2 08 25 c9 1b c7 a3 9f a4 6f 22 4a ab 52 1d
       -0.01226 0.01965 0.003801 -0.01519 -0.01805 0.012566 -0.05695 0.005196
000140 ad 9b 45 25 77 9e ce a1 6c a6 6d 24 98 a4 7b 27
       -0.003748 0.02058 -0.006313 -0.01134 -0.02509 0.01729 -0.01794 0.02922
000150 ab a0 3b 25 0a a2 68 1f e4 a4 d1 28 e5 a6 45 a5
       -0.00912 0.02043 -0.011795 0.007233 -0.0191 0.03763 -0.02693 -0.02058
000160 74 29 db 22 f0 28 c8 26 d5 20 70 aa 2c 28 6e 1d
       0.0426 0.01339 0.03857 0.02649 0.00944 -0.0503 0.0326 0.005302
000170 56 21 11 9f af 29 00 25 28 20 87 ac 7c a4 4b 90
       0.01042 -0.0069 0.0444 0.01953 0.00812 -0.07074 -0.01752 -0.000524
000180 3d 94 5e a5 5d 8e 9b 20 35 a4 48 20 6f a1 b5 19
       -0.001035 -0.02097 -0.0003884 0.008995 -0.01643 0.00836 -0.01061 0.002787
000190 2f 1a 36 a2 e7 a0 e7 a2 b5 1e 1d 13 66 25 11 a2
       0.00302 -0.01213 -0.009575 -0.01348 0.00655 0.0008683 0.02109 -0.01185
0001a0 b1 a3 61 a5 65 9a f5 a4 2d 20 f0 92 58 a5 d9 a1
       -0.01502 -0.02101 -0.003122 -0.01936 0.008156 -0.000847 -0.02087 -0.01142
0001b0 bb 20 eb 21 10 a6 b0 14 66 24 bf 20 40 9b 74 a5
       0.00924 0.01156 -0.02368 0.001144 0.01718 0.00927 -0.00354 -0.0213
0001c0 40 21 3b 9f 0b 9c f7 a2 32 1d 21 9f 81 24 12 a4
       0.010254 -0.00706 -0.00395 -0.0136 0.005074 -0.00696 0.0176 -0.0159
0001d0 1b 23 13 24 d4 22 c5 24 70 a0 37 20 ef a4 b8 25
       0.01388 0.01591 0.013336 0.01863 -0.00867 0.00823 -0.01927 0.02234
0001e0 19 11 d7 24 70 19 a6 28 7c 2b 41 9d e1 1e fc 93
       0.0006223 0.0189 0.002655 0.03632 0.05847 -0.00513 0.006718 -0.0009747
0001f0 82 26 91 a3 5f 92 34 26 51 22 68 a8 72 18 ac a0
       0.02542 -0.01478 -0.0007777 0.02423 0.01234 -0.03442 0.00217 -0.009125
