models/res_adapter/sd1.5-i/resolution_normalization.safetensors (safetensors, 407928 bytes, 88 tensors)

down_blocks.0.resnets.0.norm1.bias f4 [320]
000000 2e b4 de bb f5 ef 89 bd 05 95 82 bd b3 12 a3 bd
       -0.0067963814 -0.06735221 -0.063760795 -0.07962551
000010 16 3d b4 bd 25 ee 23 bd e3 c7 7d bb 8c 94 f0 bd
       -0.08800714 -0.040022034 -0.0038723878 -0.11747083
000020 9f 4f 95 bd 02 1d f1 bd f3 f8 e6 bc 6c 0e 75 bd
       -0.07290577 -0.11773111 -0.02819488 -0.059828207
000030 2c 6f 23 bd 0d bf e7 bd 42 95 dd 39 ad 27 05 bd
       -0.039900944 -0.11315737 0.0004226361 -0.03250854
000040 47 07 dc bb 2a f1 bb bd ad c0 67 bd 47 61 e5 bd
       -0.0067147347 -0.09176858 -0.056580234 -0.11200195
000050 19 53 d0 bc 2b bc ea bd 3f da f4 bd 7a 47 42 be
       -0.025430249 -0.114616714 -0.1195569 -0.18972579
000060 48 cc da bd 18 99 24 be 70 05 bd bd fb c1 fc bc
       -0.10683495 -0.16074026 -0.09229553 -0.030854216
000070 40 de f8 bb 3d 00 0d be 6f 64 d8 bc 1b 01 eb bd
       -0.0075948536 -0.13769622 -0.026415078 -0.1147482
000080 79 15 dc bd e4 38 cc bd 55 64 4b bd 9b 4e 8d bd
       -0.10746283 -0.099717885 -0.04965623 -0.068997584
000090 2a 21 35 3d 6b f9 11 bd d4 ea fa bd cc 7b fb bd
       0.04422108 -0.035638254 -0.12251821 -0.12279472
0000a0 64 1f 67 bd df 63 0d be 40 fe c7 bc be 37 48 bd
       -0.05642642 -0.13807629 -0.024413228 -0.048881285
0000b0 5b 43 da bd 08 d3 aa bd 04 d3 ad bd 5a df 33 be
       -0.10657378 -0.08341032 -0.08487514 -0.1756567
0000c0 1e 4f 16 bb a6 a4 20 3c 06 86 fe bc 46 29 a5 3b
       -0.002293534 0.00980488 -0.031069767 0.0050403206
0000d0 20 a9 d5 bd 3d 19 25 3d b0 87 d5 bd 57 db 6a 3c
       -0.10432649 0.040307272 -0.10426271 0.014334521
0000e0 23 a2 ec bd 1e 45 13 bd 58 80 69 bd 40 9b 2a 3d
       -0.115543626 -0.035954587 -0.057007164 0.041651964
0000f0 d8 6c 6b bd 3f 7b 54 3c 8a 79 e6 bb a6 a0 45 3d
       -0.05747685 0.012968837 -0.0070335316 0.04824891
000100 7f 56 dd bd a9 7e 89 3c bb 8b 5a bd e3 61 61 bd
       -0.108075134 0.01678403 -0.053355914 -0.055024993
000110 b6 9c fb bd 4a a2 2a bd b5 8e 48 bd 9f a5 f2 bd
       -0.122857496 -0.041658677 -0.04896422 -0.11847996
000120 b9 51 84 3c eb 20 b9 bd 36 11 df 3c 70 e7 d6 bc
       0.01615225 -0.09039482 0.027229887 -0.026233405
000130 00 32 1e be 60 7d b9 bd 38 ab 0e be 6d 6f a7 bd
       -0.15448761 -0.090571165 -0.13932502 -0.0817555
000140 72 d4 f9 bd 39 83 54 bd c3 fc a6 bd 33 a3 b0 bd
       -0.12198724 -0.051882956 -0.08153679 -0.08624878
000150 27 57 a8 bd a2 36 d4 bd 39 5d 12 be 04 e4 9f bd
       -0.08219748 -0.10361983 -0.14293374 -0.078071624
000160 ce 66 12 bd 34 0c 12 bd fe 83 e3 bc 25 b7 3b bc
       -0.035742573 -0.03565617 -0.0277729 -0.011457239
000170 67 65 fd bd 2b 16 b4 bd 39 7f ef bd 54 88 c9 bd
       -0.123728566 -0.08793291 -0.11694188 -0.09840456
000180 6e 83 79 bb b1 95 e5 3c df 4c ce bd ad d3 72 3a
       -0.0038072723 0.02802548 -0.10073256 0.00092631095
000190 91 a2 5e 3b 19 02 93 bd 60 4a 8d 3c 0c 10 06 bd
       0.003397141 -0.071781345 0.017247379 -0.032730147
0001a0 61 e3 2c 3d 47 df 9a bd 27 bc a4 bd 7a 37 ea bd
       0.042209033 -0.07562118 -0.080437 -0.114363626
0001b0 07 02 56 3c 80 c7 16 be 5b a4 a2 bb b0 a2 bf bd
       0.013062007 -0.1472454 -0.0049634404 -0.09357202
0001c0 c1 83 99 3b f0 96 14 bd bf 80 06 bd d7 ea 0d bc
       0.0046848957 -0.036276758 -0.032837626 -0.008661947
0001d0 0c a8 0a bd f0 57 26 bd b6 b6 16 be 94 59 85 3c
       -0.03385167 -0.040611207 -0.14718136 0.016278066
0001e0 52 15 96 bd c6 18 5f bd 76 6f f2 bd de 2e ab 3c
       -0.07328285 -0.054466985 -0.11837666 0.020896371
0001f0 ba 9a da bd fc 36 fe bc 4e 46 78 bd 2a fb 8a bd
       -0.10674043 -0.031032078 -0.060613923 -0.06786187
000200 38 f8 37 bd fe e0 f3 3c a1 85 ca bd 2c 8f c2 bd
       -0.044914454 0.02977037 -0.09888769 -0.09499964
000210 e1 e7 eb 3c 81 2b 96 bd 83 b5 56 3b 98 a4 e3 bc
       0.028797092 -0.073325165 0.0032761998 -0.027788445
000220 ab e0 ff bd e2 2b a5 bd 70 d2 a7 bd c4 fb b1 bd
       -0.12494024 -0.080650106 -0.08194435 -0.086905986
000230 bf f1 d9 bd 41 a2 f3 bd 34 69 59 bd 6c 63 84 3b
       -0.106418125 -0.11896182 -0.053078845 0.0040401723
000240 87 7d 09 bd ff 0c f8 bd 7c 15 71 3c ff 0c 4a bd
       -0.033566978 -0.12111854 0.014714595 -0.0493288
000250 56 37 a2 bd 31 78 0b bc e8 92 06 be 2f de 40 bd
       -0.07920711 -0.008512543 -0.13141978 -0.04708689
000260 aa d8 9d bd 4e b0 2b be f8 bb c5 3c 4c 06 cf bd
       -0.07707341 -0.16766474 0.024137482 -0.10108623
000270 82 bd 4f 3c 6a 7f e4 bd 82 51 af bd c9 75 29 3c
       0.0126794595 -0.11157115 -0.08560468 0.010343024
000280 20 a9 f6 bd c4 7f 04 bd 5e 9f ff bd c8 b5 67 bd
       -0.12043977 -0.03234841 -0.12481569 -0.056569844
000290 3c 80 00 be 14 e7 80 bd 0c f8 26 be 0f 3d 93 bd
       -0.12548918 -0.06294075 -0.1630556 -0.071893804
0002a0 17 61 5d bd 28 cf 01 be eb d3 f0 bd 3c b1 62 bd
       -0.05404767 -0.1267668 -0.1175917 -0.055344805
0002b0 0d 26 a0 bb a9 e3 e4 bd 20 a6 b1 bd 26 86 8f 3c
       -0.0048873485 -0.11176235 -0.08674264 0.017520022
0002c0 f3 ba 4d bd 6c a0 ab bc aa 68 e2 bd c4 b3 cc bc
       -0.050227117 -0.020950519 -0.11055119 -0.024988063
0002d0 16 9d f2 bd 93 6f 06 be 5d 29 8c bd 2a f7 38 be
       -0.11846368 -0.131285 -0.06843827 -0.18063036
0002e0 0a 6a 19 be 83 3e 6f bd 9d 25 8c 3c 7b 7f c3 bb
       -0.14981857 -0.058409225 0.01710778 -0.0059661246
0002f0 0d 30 af bd 97 74 1f bd 4d fa 3e bb f2 9c bb bd
       -0.08554087 -0.038929548 -0.002914089 -0.09160794
000300 c3 84 23 bd a7 db 3d bb b1 33 40 3d 19 cd fd bb
       -0.039921533 -0.0028970034 0.046924297 -0.007745397
000310 16 68 e4 bd cd e3 95 bd cb 6b a5 bd 88 b3 b3 bb
       -0.11152665 -0.0731884 -0.080772005 -0.0054840483
000320 6c 55 b2 bd be 91 ef bd 0d 40 16 bd 59 c0 bb bc
       -0.08707699 -0.1169772 -0.036682177 -0.022918867
000330 39 d9 7f bc d6 ba a3 bd 1b 1e f4 3a bc 16 67 bd
       -0.015615755 -0.079946205 0.0018624695 -0.056418166
000340 ea e2 89 bb 7a 5f 39 bd 45 d7 0d be 7b 22 cc 3c
       -0.0042079585 -0.04525707 -0.1385165 0.024918785
000350 92 03 12 be 64 2a 98 3c 46 60 ad bd ba 5d e8 bd
       -0.14259174 0.0185749 -0.08465628 -0.11346002
000360 45 6b c3 bc 87 14 e5 bd b7 e4 fc bd 56 ae bf bb
       -0.023854861 -0.11185556 -0.123483114 -0.00584964
000370 58 e9 d2 bd c0 bf 08 be 89 a7 08 be 6a 08 74 bd
       -0.10298413 -0.13354397 -0.1334516 -0.059578337
000380 2d 1f c8 bd be 5e 3e bc 8d 9c d7 bb 8d c0 ed 3b
       -0.09771571 -0.011619268 -0.0065799416 0.00725562
000390 52 7d bc 3b 76 ab 83 39 76 14 06 be a8 7d 8a bd
       0.005752244 0.00025114015 -0.13093743 -0.06762248
0003a0 59 ee 1c be 12 a7 46 be 35 db 01 bd 4c 57 e3 bd
       -0.15325297 -0.1939967 -0.031703193 -0.11100635
0003b0 74 5b 10 3d 8d 20 ac 3c e6 24 b3 bd 8d f7 18 bd
       0.035243466 0.021011615 -0.08747272 -0.037345458
0003c0 62 f7 14 3c 7c cd b3 bd 29 13 46 bc 13 f0 cd bc
       0.009092184 -0.087794274 -0.012089529 -0.02513889
0003d0 8d d4 57 bc fc c3 03 be 5a bc bd bd b9 4d 87 bc
       -0.013173235 -0.12867731 -0.09264441 -0.016516553
0003e0 4b cc fc bd f2 6c 35 3d 48 7c e1 3a 13 97 17 be
       -0.12343653 0.04429335 0.0017203176 -0.14803724
0003f0 39 1c 8f bd b6 f5 3a bd 84 3c ff bd 7e 8f de bd
       -0.06987805 -0.045644484 -0.12462714 -0.10867213

down_blocks.0.resnets.0.norm1.weight f4 [320]
000000 30 22 e4 3e 14 f3 f4 3e ee ae a5 3e 71 65 ef 3e
       0.44557333 0.47841704 0.32360023 0.4675708
000010 d9 cd c8 3e 76 b3 f4 3e cb fc fc 3e 36 be bb 3e
       0.3921955 0.47793168 0.49411616 0.36668557
000020 89 ad ce 3e 1b a2 dd 3e d1 b1 dd 3e a4 07 cf 3e
       0.40366772 0.4328774 0.43299726 0.40435517
000030 7b da 9f 3e 5d 5c ad 3e 55 a9 ca 3e b7 71 00 3f
       0.31221375 0.3385953 0.39582315 0.50173515
000040 f2 13 11 3f ad 2d d6 3e 53 dc c9 3e c3 e3 a0 3e
       0.5667106 0.41831723 0.39425907 0.31423768
000050 9d 88 33 3f 9e 9b c2 3e 4b 0f 2b 3f 2a b3 b3 3e
       0.7013033 0.38009351 0.6682021 0.3509763
000060 86 4b c4 3e 79 38 e4 3e f1 76 d9 3e ca b5 22 3f
       0.3833887 0.44574335 0.42473558 0.6355864
000070 a9 0b 05 3f ce 65 d6 3e a4 dc df 3e 23 6d d3 3e
       0.51970917 0.41874546 0.43723023 0.41294202
000080 0e 4e d2 3e bc 17 01 3f a5 0e ec 3e 1e 7a c6 3e
       0.41075176 0.5042684 0.46104923 0.38765043
000090 82 65 06 3f 92 69 cf 3e b7 2d e6 3e a7 cd d0 3e
       0.5249864 0.4051023 0.44956753 0.407819
0000a0 6c 51 f3 3e 0f db b5 3e e7 29 e5 3e f8 36 ff 3e
       0.47523057 0.3551869 0.4475853 0.49846625
0000b0 08 e5 a5 3e b6 5b ff 3e 4b ef 02 3f 78 96 82 3e
       0.324013 0.49874657 0.5114638 0.25505424
0000c0 37 ce f2 3e 5b 72 fd 3e 80 2e 08 3f d0 ab c6 3e
       0.47422954 0.4950131 0.53195953 0.38802958
0000d0 6d 41 4e 3e 80 d8 96 3e 42 9e a1 3e bf f8 e2 3e
       0.20142145 0.2946205 0.31566054 0.44330403
0000e0 56 f0 a4 3e 83 ab bc 3e 5e ed 06 3f e7 70 f5 3e
       0.32214612 0.36849603 0.52705944 0.479377
0000f0 56 ca b4 3e 5e 58 10 3f 18 8f 0c 3f 75 74 0e 3f
       0.3531062 0.5638484 0.54905844 0.5564645
000100 68 fd d6 3e 81 4e 00 3f ec 15 aa 3e 73 9b ec 3e
       0.4199021 0.5011979 0.3321985 0.46212348
000110 91 78 04 3f 8d dd a2 3e de a5 b9 3e 9c bd bc 3e
       0.5174647 0.31809655 0.3625936 0.3686341
000120 a0 b0 d0 3e a9 2a a7 3e 2a ec ec 3e 2c ce 9b 3e
       0.40759754 0.32649735 0.4627393 0.30430734
000130 7d 8d a9 3e 70 7f ab 3e 76 c1 d9 3e 6b b1 97 3e
       0.3311576 0.33495665 0.4253041 0.29627547
000140 8f 01 d5 3e 8c 3f c6 3e 60 58 c5 3e 3b b3 b0 3e
       0.41602752 0.38720357 0.38543987 0.34511742
000150 5d b4 13 3f f7 01 b7 3e a6 ac b5 3e 85 2d 9c 3e
       0.5769709 0.35743687 0.35483283 0.3050348
000160 4d fd f0 3e 38 cc f6 3e 34 ea b8 3e 64 16 d0 3e
       0.47068253 0.48202682 0.36116183 0.40642083
000170 db 3a ae 3e 56 63 cc 3e 7d 3b 25 3f 16 31 6f 3e
       0.34029278 0.39919537 0.64543897 0.23358569
000180 86 fb e2 3e f7 e7 b6 3e 42 00 9a 3e 54 b4 e0 3e
       0.44332522 0.3572385 0.30078322 0.4388758
000190 ec be ba 3e 3d 25 b9 3e a1 ed d4 3e f7 ce af 3e
       0.36473787 0.36161223 0.41587546 0.3433759
0001a0 82 f8 01 3f 7b e1 9a 3e ea 59 c8 3e f1 e0 ae 3e
       0.5076982 0.30250153 0.391311 0.34155992
0001b0 73 18 f2 3e 70 c1 bf 3e 07 a5 da 3e 3b 9e cb 3e
       0.47284278 0.3745227 0.4270403 0.39769158
0001c0 aa 20 e1 3e 08 7f c9 3e c8 97 e4 3e c6 ef fb 3e
       0.43970233 0.3935473 0.4464705 0.4920637
0001d0 a9 2e a7 3e 53 7d a7 3e cb da e5 3e 93 a1 06 3f
       0.32652786 0.32712802 0.44893488 0.5259029
0001e0 a7 2c c4 3e f4 06 08 3f d8 c5 d1 3e 88 9f 0c 3f
       0.38315317 0.5313561 0.40971255 0.54930925
0001f0 5f bc c5 3e bd 72 fc 3e 78 1b a4 3e 07 bb d5 3e
       0.38620278 0.49306288 0.32052207 0.41744253
000200 2b cb d7 3e 75 75 fc 3e 46 9b af 3e 52 69 c3 3e
       0.42147192 0.49308363 0.34298152 0.3816629
000210 ec d2 07 3f 80 c1 dd 3e 8c 1f 26 3f 8b c1 09 3f
       0.53056216 0.4331169 0.64891887 0.5381095
000220 32 f2 b4 3e 6a ca d1 3e db 0a f4 3e 43 26 04 3f
       0.3534103 0.40974742 0.47664532 0.5162088
000230 f0 e4 ba 3e dd f1 ab 3e 5b 8e 9f 3e 26 ca ba 3e
       0.3650279 0.33582965 0.31163296 0.36482352
000240 a4 b5 e7 3e 11 e7 e6 3e 1f ca e3 3e 95 c8 8b 3e
       0.45255768 0.45098165 0.44490144 0.2730147
000250 aa 2a ac 3e fc 94 b9 3e ef 9f b4 3e a3 14 d7 3e
       0.336263 0.3624648 0.3527827 0.42007932
000260 09 90 9e 3e 5e 9e a9 3e 49 cf f8 3e 43 b3 fa 3e
       0.30969265 0.33128637 0.48595646 0.4896489
000270 50 25 01 3f 9c 74 db 3e 11 77 07 3f a4 09 d9 3e
       0.5044756 0.42862403 0.52916056 0.42390168
000280 2c e0 e8 3e 12 8f f9 3e ff 8c dc 3e 2a 5c f5 3e
       0.4548353 0.48741966 0.4307632 0.47921878
000290 f0 6f 02 3f ea 17 dc 3e 7e ca 35 3f 7e a9 f1 3e
       0.50952053 0.42986995 0.71012104 0.47199625
0002a0 7b e6 e8 3e 95 49 0a 3f 4d 5a bd 3e 02 5a cb 3e
       0.45488343 0.5401853 0.36982957 0.39717108
0002b0 bf 18 e7 3e b2 b7 c1 3e a0 49 d1 3e f8 b5 0b 3f
       0.45136067 0.3783546 0.40876484 0.5457454
0002c0 4b 87 de 3e 9f 5b 08 3f 9f 85 ec 3e 17 35 ee 3e
       0.43462595 0.532648 0.46195695 0.4652488
0002d0 71 74 a1 3e b2 c2 e0 3e 81 a5 b9 3e a4 41 ac 3e
       0.3153415 0.4389854 0.36259082 0.3364383
0002e0 cb 2c a6 3e da 6a d4 3e 3c 4d ed 3e 0e 7e 22 3f
       0.3245605 0.4148777 0.46347988 0.63473594
0002f0 01 b8 e6 3e 72 ab f0 3e 3f 7a db 3e 94 88 c4 3e
       0.4506226 0.47005802 0.42866704 0.3838545
000300 3e 6b 92 3e 0c 1b da 3e 65 2c be 3e 83 8e a8 3e
       0.28597444 0.4259876 0.37143245 0.32921228
000310 88 95 c9 3e 73 96 a6 3e 38 be 8e 3e c2 18 c5 3e
       0.39371896 0.3253666 0.278795 0.3849545
000320 62 5d b0 3e ae 86 ce 3e ca af 21 3f ba 0d e8 3e
       0.34446245 0.40337127 0.6315886 0.45322973
000330 3f b6 b9 3e bd ef 04 3f 68 0d f5 3e 43 88 d0 3e
       0.36271855 0.5192831 0.4786179 0.4072896
000340 c1 2f 00 3f 5a 14 02 3f 88 b5 cc 3e 7e e2 04 3f
       0.50072867 0.50812304 0.39982247 0.519081
000350 88 2e ce 3e d8 64 cb 3e 4c 2e a5 3e 9d e7 c6 3e
       0.40269876 0.39725375 0.32261884 0.38848582
000360 72 92 e2 3e c4 ac b9 3e 86 88 a9 3e 44 52 30 3f
       0.44252354 0.36264622 0.33111972 0.6887553
000370 27 04 7d 3e 8a d7 d9 3e e0 bd a5 3e bf c6 e4 3e
       0.24708615 0.42547256 0.32371426 0.4468288
000380 56 d2 b1 3e 48 41 f4 3e 5f 39 02 3f 58 58 f9 3e
       0.34730786 0.47706056 0.5086879 0.48700213
000390 18 a4 d6 3e 54 e6 00 3f d4 2d 98 3e 52 b3 8e 3e
       0.4192207 0.5035145 0.29722464 0.27871186
0003a0 52 3f b0 3e cd 0f 93 3e df 0b 1e 3f a7 17 b4 3e
       0.3442331 0.28722993 0.61736864 0.35174295
0003b0 d4 85 28 3f 7e 3c 28 3f 9c 25 da 3e ae e9 d4 3e
       0.65829206 0.65717304 0.4260682 0.41584533
0003c0 31 7f 12 3f 0c ba cf 3e 44 1d f9 3e 0d 13 e9 3e
       0.5722533 0.4057163 0.4865514 0.45522347
0003d0 c8 ae e0 3e 27 46 90 3e a2 b8 b4 3e de d5 cf 3e
       0.43883348 0.28178522 0.35297114 0.40592855
0003e0 53 fd ab 3e f9 4f 09 3f 2f 4d 0f 3f 66 80 c9 3e
       0.3359171 0.53637654 0.5597715 0.39355773
0003f0 ca 70 a2 3e 28 9b 1c 3f f5 67 e9 3e 42 e7 9d 3e
       0.31726676 0.6117425 0.45587125 0.30840498

down_blocks.0.resnets.0.norm2.bias f4 [320]
000000 14 19 7d bd 65 5e 1b be 49 08 fd bd a8 2a 09 bd
       -0.061791494 -0.15172727 -0.12355096 -0.033487946
000010 7f 8e 43 be 63 be 4b be 4c a8 cc 3c f5 40 4b bd
       -0.19097327 -0.19896846 0.024982594 -0.049622495
000020 79 5e 2e be 00 7a c9 bd ff 88 28 be f4 50 40 bd
       -0.17028226 -0.09837723 -0.1645851 -0.046952203
000030 b0 c7 f4 bd cd b3 b2 bd 67 20 5b bd 7f e6 b2 bc
       -0.1195215 -0.087257005 -0.0534977 -0.021838425
000040 3e e7 df bc b6 00 ac bc 8f 8f 9c bb c2 27 b0 bd
       -0.027331945 -0.020996433 -0.0047778557 -0.08601333
000050 c4 8a 8f bd e3 df e9 bc 30 1e e0 bd 20 f2 0a bd
       -0.07008889 -0.02854914 -0.10943258 -0.033922315
000060 4c 1a ca bd 06 03 85 bd fd c1 ee bd 9c 30 b8 bd
       -0.09868297 -0.06494717 -0.11658094 -0.089936465
000070 1d d5 18 bd a4 93 47 be fa 13 21 be b3 74 1c be
       -0.037312616 -0.19489914 -0.15730277 -0.15278892
000080 d2 64 99 bd ba 8e 2d be 6c 00 36 be 76 36 88 be
       -0.07489933 -0.16948977 -0.17773598 -0.2660405
000090 da fb c2 bd 35 e3 96 bd 6d d0 ff bd 32 b9 23 be
       -0.09520693 -0.07367555 -0.12490926 -0.15988615
0000a0 39 9e 03 be 2b e2 d3 bc f4 0f 62 bd 3a fc dd bc
       -0.12853326 -0.025864681 -0.055190995 -0.02709781
0000b0 50 a0 95 bd 3d 44 3b 3c 15 71 47 bd 66 62 62 bd
       -0.07305968 0.0114298435 -0.048691828 -0.05526962
0000c0 8b cf c0 bd 54 da 06 bd 17 4a ee bd d8 fa c3 bd
       -0.09414586 -0.032923058 -0.11635225 -0.09569329
0000d0 4f 23 21 be 06 6f a2 bd 92 a9 e1 bd eb ca 2a be
       -0.15736125 -0.07931332 -0.11018671 -0.1667897
0000e0 b3 31 11 be 6c 99 64 be 9f ed 30 be 1a 9c 11 be
       -0.14179115 -0.22324151 -0.17278145 -0.14219704
0000f0 28 08 0c be 95 df 1a be 06 e5 d4 bd 0d b6 01 be
       -0.13674986 -0.15124352 -0.10395245 -0.12667103
000100 28 9e 28 be fe 55 e8 bc 85 31 a4 bd 6d f4 ff bd
       -0.16466582 -0.028361317 -0.080172576 -0.124977924
000110 9e 8f 70 bd cf 1a 05 be 6c 2f 12 bd d3 6e 2b bd
       -0.058730714 -0.12998508 -0.035689756 -0.041853737
000120 de b0 25 be 3e a1 94 bd 98 4d a9 3d be 04 24 be
       -0.1618075 -0.07257317 0.08266753 -0.16017434
000130 7c 14 dd 39 75 48 e3 3c 17 db 33 bd 31 fd 1d be
       0.00042167667 0.027744511 -0.043910112 -0.15428616
000140 75 9a 91 bd 85 50 b4 bd c2 b0 5d be b8 f8 22 be
       -0.071095385 -0.088044204 -0.21649459 -0.15915191
000150 51 3c 22 be bb bd 9d bc 26 8e 20 be e8 06 f1 bd
       -0.15843321 -0.01925551 -0.15679225 -0.117688954
000160 98 62 0f be 11 ac f5 bd 9e 98 72 bd 80 67 20 3d
       -0.14002454 -0.1199571 -0.05922758 0.039161205
000170 bf 1e c9 bd 7e b0 8b bd dc d5 08 be d5 e6 09 be
       -0.098203175 -0.068207726 -0.13362831 -0.13466962
000180 87 6c 2a bd 09 5a 7e bd 91 35 76 bd 86 fc 42 bd
       -0.041607406 -0.062097583 -0.06010968 -0.047604106
000190 8a 4b d2 bd 7b ae 62 be 21 e8 06 be 1b b3 e0 bd
       -0.10268314 -0.22136872 -0.13174488 -0.10971662
0001a0 6f 5c ac bd c0 5f 61 bc 67 21 9c bd 57 3b 63 bd
       -0.08416068 -0.013755739 -0.076235585 -0.055476513
0001b0 fb fe 9d bd c5 a8 01 be 97 6d 24 bd 5f ed 5f bd
       -0.07714649 -0.12662037 -0.040143576 -0.054669734
0001c0 a6 c8 48 be e7 02 53 bd d4 48 29 3d ed b7 62 bd
       -0.19607791 -0.05151644 0.04132922 -0.055351187
0001d0 61 53 a5 bd a8 27 65 bd 66 75 a9 bd f4 ec 8a bd
       -0.08072544 -0.055946022 -0.08274345 -0.067834765
0001e0 d3 2a bf bd 2f 10 a4 bd d0 ee 19 be 98 1f 95 bd
       -0.0933434 -0.08010899 -0.15032506 -0.07281417
0001f0 af df c6 bd ae f2 c5 bd fd 1e e7 bd bc 08 db bd
       -0.09710633 -0.09665428 -0.112852074 -0.10695025
000200 5a 0e 10 be fb 78 d0 bd db bf 09 3d 47 44 df bd
       -0.14067975 -0.10179325 0.033630233 -0.10901695
000210 f8 85 29 be 34 45 8e bc fc d6 61 bd 4b 9b e9 bd
       -0.16555011 -0.017366983 -0.055136666 -0.11406573
000220 14 13 e5 ba bc 1f d3 bd 19 b0 b9 bd 64 01 06 be
       -0.0017476999 -0.10308787 -0.09066791 -0.13086468
000230 9c 3b 41 bd 78 51 55 bd 25 86 ca bd 1a 77 b4 bd
       -0.04717599 -0.052079648 -0.09888867 -0.08811779
000240 70 40 c8 bd 65 15 ce bd 1f f6 c0 bd 2f 07 c6 bd
       -0.097779155 -0.100626744 -0.09421944 -0.09669339
000250 22 04 94 bd c3 c8 99 bd 24 4e 60 bd 9f dc 49 bd
       -0.07227351 -0.075089954 -0.05476202 -0.049282666
000260 21 1e a4 bd a6 e2 8a bd 5f 0d e4 3c 59 03 a3 bd
       -0.08013559 -0.06781511 0.027838407 -0.07959623
000270 77 d2 86 bd bd 71 11 3c 82 f7 b0 bd d7 35 1c bd
       -0.06583112 0.008877215 -0.08640958 -0.038137283
000280 82 a5 49 bd 45 1d 84 bd b9 03 be bd 45 36 ef bc
       -0.049230106 -0.06450895 -0.09278054 -0.029200682
000290 07 11 55 bd 53 17 f9 bd e7 19 b9 bd 41 68 21 be
       -0.05201819 -0.12162652 -0.090381436 -0.15762426
0002a0 2d 6d 86 3d d0 ed c3 bc aa d4 27 be 04 b9 99 bd
       0.065637924 -0.023917109 -0.16389719 -0.07505992
0002b0 08 e2 98 bb 6f 14 c5 bd 35 a2 c8 bd 9a b0 ee bc
       -0.004665617 -0.09623038 -0.097965635 -0.029136945
0002c0 59 8b e7 bd a3 2c 85 bd 0e cf a4 bd 6e 73 0e be
       -0.11305875 -0.065026544 -0.08047305 -0.1391122
0002d0 b4 9d ff bd 67 7b 3a bd e6 0a 45 be dc 69 26 be
       -0.12481251 -0.045527842 -0.19242439 -0.1625132
0002e0 22 90 74 be 84 b5 d1 bd 07 33 ff bd bd d8 7c be
       -0.23883107 -0.102396995 -0.124609046 -0.24692054
0002f0 2e d9 87 bd b6 e1 fd bd 45 fd 49 bc c8 36 8d bc
       -0.066332206 -0.123965666 -0.012328451 -0.017238036
000300 04 2b ea bd f8 bb 1f be 62 74 14 be 08 54 d8 bd
       -0.11433986 -0.15599048 -0.14497522 -0.10562903
000310 21 78 15 be 5c fe d6 bd 54 69 b4 bb 60 02 b7 bd
       -0.14596607 -0.10497734 -0.00550572 -0.08936
000320 20 4e 5b bd 89 36 8a 3b c8 59 2e bd 89 cd de bd
       -0.053541303 0.004217927 -0.04256609 -0.108790465
000330 58 dd 3e 3c 8d d4 fe bd 6b 4a 48 be 5e a6 f3 bd
       0.011649452 -0.124428846 -0.19559638 -0.118969664
000340 c1 25 85 bd 15 f7 aa bc ba 06 03 be 53 fd 27 be
       -0.065013416 -0.020869771 -0.12795535 -0.1640523
000350 ed 1e f5 bd 5c 0d bc bd 8c 99 cf bd b8 6b d5 bd
       -0.11968789 -0.091822356 -0.101367086 -0.10420936
000360 30 89 94 3d f9 ee 34 be 94 21 d1 bd e2 c2 ab bd
       0.07252729 -0.17669286 -0.10211483 -0.0838678
000370 3a 38 07 3e 44 43 29 be 70 c8 b8 bd b5 0e ed bd
       0.13205042 -0.16529566 -0.090226054 -0.11575071
000380 bb db c8 bd e2 d1 1b be 79 f3 e4 bd 6a c7 23 be
       -0.09807535 -0.15216783 -0.11179251 -0.15994039
000390 90 56 e4 bd a9 0b 26 be 81 82 9b bc 06 94 8e bd
       -0.11149323 -0.16215385 -0.018983128 -0.06961827
0003a0 26 a0 e0 bd f1 da 4c be 77 ef 10 be fd 34 53 bd
       -0.10968046 -0.20005395 -0.14153849 -0.051564205
0003b0 eb b6 8a 3b 3c a9 5d bd c1 8a b9 bd 60 53 b3 bd
       0.0042332313 -0.054116473 -0.09059668 -0.08756137
0003c0 91 56 3f bd af d0 cc bd 64 86 88 bd e4 74 a0 bd
       -0.046713416 -0.10000741 -0.06666258 -0.07834795
0003d0 e8 d7 87 bd 58 8d a0 bd 8c 73 ad bd 1b 9d f4 ba
       -0.06632978 -0.07839459 -0.084693044 -0.0018662544
0003e0 ed dd 4e bd 18 d2 d1 3c ae 36 a5 bd 4e 50 72 bd
       -0.050504614 0.025612876 -0.0806707 -0.059158616
0003f0 cc a5 b2 bd d6 3b a7 bd 39 6b cb bd 73 75 f3 bd
       -0.087230295 -0.0816571 -0.099325605 -0.11887636

down_blocks.0.resnets.0.norm2.weight f4 [320]
000000 25 9d 87 3e e8 7e 1c 3f be 3b bb 3e d7 b5 cd 3e
       0.2648708 0.61131144 0.36569017 0.40177795
000010 a8 7d 24 3e e0 29 2e 3e 64 c9 00 3f c5 97 b4 3e
       0.16063559 0.17008162 0.503073 0.3527204
000020 7a 96 7d 3f 21 5e 11 3f d2 e4 05 3e d0 22 a3 3e
       0.99057734 0.56784254 0.1307557 0.31862497
000030 4b fd 64 3e 39 d0 58 3f 59 dc ef 3e 6d e8 ba 3e
       0.22362249 0.8469272 0.468478 0.36505452
000040 51 c6 13 3f 96 da 92 3e 45 9d b6 3e 4d d7 87 3e
       0.5772448 0.28682393 0.35666862 0.2653145
000050 b9 fe 06 3f 35 94 b9 3e 8f 39 97 3e 40 3f 14 3f
       0.52732426 0.36245885 0.295361 0.5790901
000060 2a 28 16 3f 91 a8 a5 3e 06 79 3b 3e 71 01 82 3e
       0.58655035 0.32355168 0.18307886 0.25391725
000070 4a 2f 7b 3e 8d e3 56 3e d5 d6 95 3e d1 e7 0e 3e
       0.24529758 0.20985241 0.29265466 0.13955618
000080 72 ab b1 3e c3 51 37 3e ef ab 3e 3f 5a e0 6a 3f
       0.34701115 0.17902283 0.744811 0.91748583
000090 1b cb a9 3e ff 0d 9f 3e ee ff 43 3f 9b 7d 28 3f
       0.3316277 0.31065366 0.7656239 0.6581666
0000a0 68 36 0e 3e 25 2f 71 3e cf 3d 53 3e af 03 4e 3e
       0.13887942 0.2355314 0.20629047 0.20118593
0000b0 77 c2 56 3e db fc 0d 3f 18 05 d0 3e 2e 8e 49 3e
       0.2097262 0.5546395 0.40628886 0.19683143
0000c0 2e e9 92 3e 71 69 ab 3e 35 a1 84 3e cf 1a 6f 3f
       0.28693527 0.33478883 0.2590424 0.9340028
0000d0 77 d2 48 3e 9b c4 ca 3e 5a 8a fc 3e 98 a7 2d 3f
       0.19611536 0.39603123 0.49324304 0.6783385
0000e0 fe 21 45 3e 98 c9 67 3f 98 7c 55 3e fa 12 c4 3f
       0.19251248 0.9054198 0.2084831 1.5318291
0000f0 50 4c fa 3e 9d ac a2 3e e1 e0 bc 3e 9a 18 f0 3e
       0.48886347 0.31772318 0.3689032 0.4689377
000100 16 af 92 3e 26 61 90 3e b5 f1 9b 3e ca 76 59 3e
       0.28649205 0.28199118 0.30457845 0.2123672
000110 cf 56 b8 3e bf 3e 28 3f 27 b9 7d 3e e5 f3 b7 3e
       0.3600373 0.6572074 0.24777661 0.35928264
000120 0c 6f 62 3e bb e1 89 3e fa b7 96 3e 04 a6 f7 3d
       0.22112674 0.2693003 0.29437238 0.12092212
000130 a6 22 a2 3e 9b 79 2c 3f 5d 4d 20 3f ed b3 31 3f
       0.3166706 0.67373055 0.62618047 0.6941517
000140 33 b3 92 3e bd 16 56 3f de b6 1d 3f 19 be 9f 3f
       0.28652343 0.83628446 0.6160716 1.2479888
000150 41 50 0f 3f 82 a0 72 3e 7d 90 30 3e 6d a4 61 3e
       0.5598183 0.23694041 0.17242618 0.2203538
000160 5c 5c 8a 3e 6e 2e 4a 3e 9d 0b d2 3e f5 97 6a 3e
       0.2702359 0.19744274 0.41024485 0.2290953
000170 73 ff 5b 3e ac 97 85 3e df 55 c7 3e b2 39 ac 3e
       0.21484165 0.2609228 0.38932702 0.33637768
000180 94 bb b2 3e a9 c4 99 3e b8 f2 87 3e 01 f8 82 3e
       0.34908736 0.30032852 0.26552367 0.25579837
000190 4a 88 63 3e ca dd 31 3f 31 ff 9b 3e a2 3b 8e 3e
       0.22219959 0.6947905 0.30468133 0.2777987
0001a0 11 ea a2 3e b2 86 97 3e 24 44 83 3e 53 4d 46 3f
       0.31819203 0.29594952 0.25637925 0.7746174
0001b0 54 5c 93 3e 30 ff 8e 3e c8 1e 65 3e 1a ae 72 3e
       0.28781378 0.27929068 0.22375023 0.23699227
0001c0 10 ae 3c 3f 13 83 4e 3e 6b ca ca 3e f5 2c 8d 3e
       0.737031 0.20167188 0.39607558 0.27573362
0001d0 98 bb 47 3e 25 1c 9e 3e 0c 06 4d 3e 68 47 3a 3e
       0.19505155 0.30880848 0.20021838 0.18191302
0001e0 51 1b 80 3e 40 64 0a 3f 87 ba 1c 3f f7 5c 94 3e
       0.2502084 0.5405922 0.6122212 0.28977177
0001f0 9c c7 93 3e 9d d0 25 3f c6 09 62 3e 61 41 65 3e
       0.28863227 0.64771444 0.22074041 0.22388221
000200 01 08 74 3e 75 e4 e3 3e 02 70 95 3e 47 9c 66 3e
       0.23831178 0.44510236 0.29187018 0.22520553
000210 33 bd 08 3e 8b 9c 2e 3f e3 dd 0b 3f 72 b2 7e 3e
       0.13353424 0.68207616 0.5463545 0.24872759
000220 4d 6b 63 3f a8 47 29 3f de 19 8a 3e b2 5b 1f 3f
       0.88835603 0.66124964 0.2697286 0.6224929
000230 5d cd 87 3e 85 da e6 3e 7c bf 4b 3e 97 60 6f 3e
       0.26523867 0.45088592 0.19897264 0.2337669
000240 1e 52 bd 3e 69 80 6d 3e 9e 8c 69 3e 67 ac b1 3e
       0.36976713 0.23193516 0.22807547 0.34701845
000250 58 46 74 3e 45 5c 80 3e 44 fb 43 3e e8 ea 5e 3e
       0.23854959 0.25070396 0.19138819 0.21769297
000260 49 4e 6f 3e 3b 39 87 3e 99 14 e0 3e c8 9f 45 3e
       0.23369707 0.2641085 0.43765715 0.19299233
000270 60 0e 37 3e 5f 7c df 3e d6 05 4f 3e 10 74 bf 3e
       0.17876577 0.43649575 0.2021707 0.37393236
000280 d3 02 c2 3e 1b e0 53 3e 13 99 80 3e 02 61 89 3e
       0.3789278 0.20690958 0.25116786 0.26831824
000290 20 d6 56 3e fd ce 71 3e ee 84 a7 3e 0c e2 3d 3e
       0.2098012 0.23614116 0.32718605 0.18543261
0002a0 ee 47 cc 3e 4b d7 c7 3e c5 12 1f 3e 07 1a 9f 3e
       0.39898628 0.39031443 0.15534504 0.31074545
0002b0 f5 9c ee 3e 85 fc ab 3f d1 9d 2b 3e b2 65 2b 3f
       0.46604124 1.3436438 0.16759421 0.6695205
0002c0 bd 74 2a 3e 1f 4e a8 3e 5a 27 95 3f c2 6b 3d 3e
       0.16646095 0.32872102 1.1652634 0.18498138
0002d0 6c 42 39 3e a6 d4 c5 3e 7f e1 66 3f f1 07 a9 3e
       0.18091744 0.386388 0.9018783 0.3301387
0002e0 0f d3 fc 3e f5 ed 8b 3f d1 c1 1e 3f 42 f5 53 3e
       0.49379775 1.0931994 0.6201449 0.20699027
0002f0 ab d2 db 3e d7 4c 2e 3f 72 74 ac 3e a9 a1 34 3f
       0.42934164 0.68086 0.3368259 0.70559174
000300 3c d1 54 3e 2e 84 0c 3f 04 03 d6 3e 95 ca 20 3e
       0.20782942 0.5488919 0.41799176 0.15702279
000310 f8 c3 af 3e 47 c7 4a 3f 36 10 67 3e 64 bc 2d 3e
       0.343292 0.79210323 0.22564778 0.16966397
000320 b4 3d 45 3f 85 78 4d 3e 7c 68 87 3e 48 17 a3 3e
       0.77047276 0.20065506 0.26446903 0.318537
000330 a7 38 d4 3e 3c be 27 3e a3 e5 16 3f 60 a2 4a 3e
       0.41449472 0.16381162 0.5894415 0.19788504
000340 53 89 49 3e 9b 8b cd 3e 8d c6 4d 3f 4e cb 21 3f
       0.19681291 0.40145573 0.8038109 0.63200843
000350 4a 3a 88 3e b8 72 36 3e 6b 1f ce 3e b1 3e 50 3f
       0.2660697 0.17817199 0.40258345 0.8134566
000360 d8 bd a6 3e 24 18 0c 3e 38 31 5d 3e 4d 8a 7e 3e
       0.32566714 0.13681084 0.21600807 0.24857445
000370 ed 17 8a 3e ee db 59 3e c3 4d 85 3f e0 0a 9a 3e
       0.2697138 0.21275303 1.0414356 0.30086422
000380 74 1a b7 3f a4 de 51 3e 79 38 7a 3e ad 4e 8c 3f
       1.4304948 0.20495087 0.24435605 1.096151
000390 34 71 90 3e ab 32 3f 3f 82 53 75 3e 49 81 53 3e
       0.28211367 0.7468669 0.23957637 0.20654787
0003a0 52 47 1d 3f 7e 5f 78 3f 27 36 5a 3e 6a ee 6e 3e
       0.6143695 0.9702071 0.2130972 0.23333135
0003b0 c2 13 76 3e c9 46 6b 3e 89 9b 41 3e 4e b8 76 3e
       0.24030975 0.22976221 0.18906988 0.24093744
0003c0 ee 38 68 3e ee dc 50 3e 84 0d 5f 3e e9 73 51 3e
       0.22677967 0.20396778 0.217825 0.20454372
0003d0 02 ce 61 3e b2 26 c7 3e c8 53 39 3e 66 19 68 3e
       0.22051242 0.3889671 0.18098366 0.22665939
0003e0 8e a2 5e 3e 7c 3a 0b 3f 34 1c 82 3e 89 de 17 3f
       0.21741697 0.54386115 0.25412142 0.59323937
0003f0 01 da 5e 3e 6d 22 95 3e 5c b3 68 3e 80 73 44 3e
       0.2176285 0.29127827 0.2272467 0.19184685

down_blocks.0.resnets.1.norm1.bias f4 [320]
000000 5a 6b b5 bd f1 64 6f 3e 78 07 1d be 0e e3 01 bd
       -0.08858366 0.2337835 -0.1533488 -0.031710677
000010 d8 ca 9f bd 1d 6d 0e be ca 80 47 bd 29 0a 08 bd
       -0.07802361 -0.13908811 -0.048706807 -0.033212814
000020 e9 1f 93 bd d4 19 5d bd 9e 94 93 bd 47 ea 98 bc
       -0.07183821 -0.05397971 -0.07206081 -0.0186664
000030 4f 53 a0 bd 95 cb 4c bd 3b 84 a7 bd fe 79 37 bb
       -0.0782839 -0.04999884 -0.08179518 -0.0027996297
000040 e4 57 47 bd 02 0d 6e bd 32 c2 c1 bd 67 47 e5 bd
       -0.048667803 -0.058117874 -0.09460868 -0.111952595
000050 b8 2d 7d bd d5 97 d2 bd 2e dc f1 bd c5 d6 b8 bc
       -0.06181118 -0.10282866 -0.11809574 -0.022563348
000060 6c 89 51 bc 5b f5 9c 3d 73 38 ad bd 43 e1 5f bd
       -0.012789112 0.07663985 -0.084580325 -0.054658186
000070 6a 6f 77 bd 21 8e 9a bc af 4f d4 bd 48 8d d9 bd
       -0.060408987 -0.0188666 -0.10366761 -0.106226504
000080 b0 86 ab bd 8e cd 2a be dc ff c1 bd 24 f9 5f bd
       -0.08375299 -0.16679975 -0.094726294 -0.05468096
000090 6b ad b0 3d c3 55 bf bd 45 e5 ae bd cf d2 0a be
       0.08626827 -0.093425296 -0.085398234 -0.1355698
0000a0 1b 36 08 bd 60 bb 1b bd 47 16 d1 bc 71 e3 93 bb
       -0.033254724 -0.03802049 -0.025523318 -0.004513197
0000b0 80 d8 99 bd db 40 4b bd f6 5f 28 3d 38 8e 03 3b
       -0.07511997 -0.049622398 0.04110714 0.0020073783
0000c0 97 4b 68 bd ad 18 bd ba 4b ce 22 bd cf 0c 19 3e
       -0.056712713 -0.001442691 -0.039747518 0.14946292
0000d0 a3 da a6 bc 49 d5 cc bc 61 c1 2e bd be af 81 bd
       -0.020367926 -0.025004046 -0.04266489 -0.06332348
0000e0 e5 9e f0 bd 38 e5 c3 bd 3b a8 7f bd 13 11 27 bd
       -0.11749057 -0.095652044 -0.062416296 -0.040787768
0000f0 8f 50 38 bd e0 a6 d1 bd da d3 37 bd cf 0b b2 3c
       -0.0449987 -0.10236907 -0.04487977 0.021734146
000100 9c 63 3c bd d7 8d 53 bb 6c 5b 31 bd fd b6 ce 3b
       -0.045993432 -0.0032280588 -0.043300077 0.006308435
000110 b1 7c 99 bd 20 ae 36 bd b8 37 d2 bc 92 33 73 bd
       -0.07494486 -0.044599652 -0.025661334 -0.059375353
000120 f8 51 90 3c 74 47 e9 3a 2a 54 67 bd bd 33 97 bd
       0.01761721 0.0017797784 -0.05647675 -0.07382915
000130 0d e0 7c bd 24 d2 8b bc 56 52 9f bb d2 c5 06 be
       -0.06173711 -0.017067976 -0.00486211 -0.131614
000140 61 6e 93 bd db 5e 0f bd a0 81 81 bd f1 82 0e be
       -0.071987875 -0.03500257 -0.06323552 -0.13917138
000150 e5 47 1a be 31 e5 6d bd e4 57 19 bd e1 50 81 bc
       -0.15066488 -0.058079902 -0.037437335 -0.015785636
000160 27 a6 12 bd 62 9f c1 bd a4 3b 8d bd 0c d4 32 bd
       -0.035802986 -0.09454228 -0.06896141 -0.043659255
000170 c3 6c 4b bd 7e e0 87 bd ea b2 40 3e 27 d9 a8 bd
       -0.04966427 -0.06634615 0.1881825 -0.082445435
000180 41 29 7d bd 49 1e df bd 40 1d 9d bd ec a1 cb bd
       -0.06180692 -0.10894448 -0.076715946 -0.099429935
000190 0a 1c ae bb 26 2f 43 bc 4f 20 02 bb ba 77 e6 3b
       -0.005313401 -0.0119130965 -0.0019855683 0.0070333155
0001a0 18 dd 95 3c 93 f9 f7 bd ff 29 36 3d bf dc 3d bd
       0.018293902 -0.121081494 0.044473644 -0.046353098
0001b0 53 c3 2c 3c 77 55 25 bd 23 3e f5 bd c4 be 58 bd
       0.010544616 -0.04036471 -0.11974742 -0.052916303
0001c0 dc 3d a6 bb 0e de d9 bd ec 37 80 bd 91 bd 7c bd
       -0.005073292 -0.10638057 -0.06260666 -0.061704222
0001d0 a2 d0 8d bd 4a c8 c4 bd 5a a9 82 bd 30 fe 2d be
       -0.06924559 -0.096085146 -0.063799575 -0.16991496
0001e0 11 7b 8c bd d7 08 50 bd 4f 8a a7 bd c5 b9 41 bd
       -0.068594106 -0.05078968 -0.08180677 -0.047296304
0001f0 ea 18 a9 3e 4d a2 ca bd a4 99 57 bd cc 49 c2 bd
       0.3302682 -0.09894238 -0.052636757 -0.09486732
000200 90 5f 7e bd 97 b8 8b bd d5 ae a8 bd a9 43 ed bc
       -0.062102854 -0.06822317 -0.082364716 -0.028962927
000210 c1 f7 49 bd ea 76 12 bd 3b e8 31 be e1 54 c0 bc
       -0.049308542 -0.035757937 -0.17373745 -0.023477973
000220 db d7 7d bd e0 95 30 3c 15 72 fe 3a 63 be 3f bd
       -0.061973434 0.0107779205 0.0019412661 -0.046812426
000230 af 88 a0 bd c2 bb 5e bd e0 6b 30 bd 1b 2b 1e bd
       -0.0783857 -0.05437828 -0.043071628 -0.038615327
000240 ff 25 35 bd c3 69 33 be 51 25 db 3d ae e2 23 bd
       -0.04422569 -0.17520814 0.10700477 -0.0400111
000250 d8 3a 8b bd 37 02 cf bd 0b 68 5b bd 16 71 08 be
       -0.06798333 -0.10107844 -0.05356602 -0.13324389
000260 a3 b0 ce bd 16 07 11 3c 9d 0d 2e bd d3 93 0b bd
       -0.100922845 0.008851787 -0.04249345 -0.034076523
000270 0e 98 ee bc ba e8 14 bb fa bc 94 bd 65 00 c2 bd
       -0.02912524 -0.0022721724 -0.07262607 -0.094727315
000280 12 f1 2e be f5 d7 c8 3c 34 a0 b7 bc bc 80 5e bd
       -0.17084149 0.024517039 -0.022415258 -0.05432199
000290 de 94 8f bd fe 11 7e bd d3 e6 ba bb e0 a7 ed 3c
       -0.07010816 -0.062028877 -0.005703786 0.029010713
0002a0 72 5a 19 bd a8 5a 35 bd b4 66 c4 bd e4 b0 d6 bd
       -0.03743977 -0.04427591 -0.095899016 -0.10482958
0002b0 a3 28 35 be 33 8a af bd ee 04 5a bd b8 e1 59 3e
       -0.17691283 -0.08571281 -0.053227358 0.21277511
0002c0 e5 41 4d bd 32 05 69 bd 8c 9c 9b bd ab a1 9d bd
       -0.05011167 -0.05688972 -0.07598218 -0.07696851
0002d0 8d ca c7 bd 85 71 d2 bd 21 20 8a 3b a3 48 00 bd
       -0.0975543 -0.102755584 0.004215256 -0.03131927
0002e0 53 0f 18 bc c7 03 b4 3d 60 9e 93 bd 45 2e 37 bd
       -0.009280997 0.08789783 -0.07207942 -0.04472186
0002f0 a3 dd 6b be cd 03 75 bd ed 16 45 bd 2f fe 19 bd
       -0.23033766 -0.059818078 -0.048117567 -0.037595924
000300 e4 f7 2d bd 03 fa a0 bd 73 ee 94 3d f4 21 e5 bc
       -0.042472735 -0.07860186 0.07272043 -0.027970292
000310 ba db 5e bd 20 58 96 bd 3d cb ad bd 8c bc a7 bb
       -0.054408766 -0.07341027 -0.0848603 -0.005118912
000320 8f 36 05 be 5c 49 a0 bd ec 87 af bd fa 08 e0 bd
       -0.13009094 -0.07826492 -0.08570847 -0.10939212
000330 d1 95 6c bd f7 e9 fb bd 44 26 8e bd 7d d0 10 be
       -0.057760064 -0.12300485 -0.06940892 -0.14142032
000340 e8 21 5e 3e d5 16 c5 bd 33 97 3b bc 6d 92 59 3c
       0.21692622 -0.096234955 -0.011449623 0.0132795395
000350 b7 77 11 bd a2 5d 0e bc b1 58 6c bd fd 73 a9 bc
       -0.03551456 -0.008689316 -0.05770177 -0.02068519
000360 a9 cd a5 bc 21 a3 1d bd 02 aa e3 bc 96 e5 d9 3b
       -0.020239668 -0.03848565 -0.027791027 0.006649683
000370 4a 6c 86 bd c5 03 96 bd 64 79 c3 bc 0a c4 94 bd
       -0.06563623 -0.07324938 -0.023861594 -0.07263954
000380 a6 e7 3a bd 13 6f 83 bd 35 88 a7 bd 34 68 36 3c
       -0.045631073 -0.0641767 -0.08180276 0.011133242
000390 0b a7 b2 bd 3f 4a f4 3d c1 af 0f bd ed bb d4 3d
       -0.08723267 0.11928224 -0.03507972 0.103874065
0003a0 1a 1b de bc 82 05 f0 3c 40 14 13 bd 02 d5 08 3d
       -0.027112532 0.029299501 -0.035907984 0.033406265
0003b0 74 f6 1e bd a7 9c c6 bb bd 4f 19 bd 8e 40 24 be
       -0.038809255 -0.006061155 -0.03742956 -0.1604025
0003c0 40 cc cc bc 07 d4 8c bc 28 d0 34 bd 35 1f f0 bb
       -0.024999738 -0.017190946 -0.044143826 -0.007327939
0003d0 b9 35 1e 3d 40 8e d4 bd 37 0a 47 bc 5f e1 12 bd
       0.038625453 -0.103786945 -0.0121484315 -0.035859462
0003e0 4a cf 67 3d 51 d8 0c 3d 7b de 00 bd 1b 4a 5e bd
       0.05659417 0.034385983 -0.031462174 -0.05426989
0003f0 b7 08 98 bd ff 49 43 3e f0 0d 1b be 05 c7 a1 bd
       -0.07423537 0.19071196 -0.15142035 -0.07899288

down_blocks.0.resnets.1.norm1.weight f4 [320]
000000 43 b9 b0 3e 97 cb 46 3e 18 38 72 3e 3a 57 9f 3e
       0.34516343 0.19413601 0.2365421 0.31121236
000010 0b f3 d1 3e c4 80 e2 3e 82 bb 9a 3e b2 a2 f3 3e
       0.4100574 0.44238865 0.30221182 0.47585064
000020 ab bc f5 3e df a4 9c 3e 72 73 b8 3e d2 6f 09 3f
       0.47995505 0.30594537 0.36025578 0.5368625
000030 77 48 98 3e 67 56 bc 3e 3c 76 7d 3e 4e b0 06 3f
       0.29742786 0.3678467 0.24752134 0.5261277
000040 1d 19 ba 3e 45 e5 ae 3e 43 9c ba 3e 4f 8d 6e 3e
       0.36347285 0.34159294 0.36447343 0.23296092
000050 62 d8 e7 3e 45 1b 67 3e 27 41 90 3e 2f c3 5d 3e
       0.45282274 0.22568996 0.28174707 0.21656488
000060 b4 ff 5c 3e 0c 63 8d 3e a7 c6 ab 3e 73 2b 0f 3f
       0.21581918 0.2761463 0.33549997 0.55925673
000070 9d cd 44 3e 23 5f 8b 3e 77 de 1d 3f 32 ce d3 3e
       0.1921906 0.2722102 0.6166758 0.41368252
000080 80 b4 88 3e a2 38 15 3f 47 ad a6 3e 82 86 ae 3e
       0.2670021 0.5828954 0.32554075 0.34086996
000090 b4 fb 13 3f 24 f7 95 3e 20 91 92 3e f0 02 cf 3e
       0.57805943 0.29290116 0.28626347 0.4043193
0000a0 b2 ba 11 3e 2d e6 47 3e 1b 4d 97 3e 00 27 85 3e
       0.14231375 0.19521399 0.29551014 0.26006317
0000b0 fe 0f 3f 3e 51 1f 53 3e 09 68 9a 3e 90 6c 4c 3e
       0.18658444 0.20617415 0.30157498 0.19963288
0000c0 a8 f7 db 3e c4 ff 1d 3e 70 48 c7 3e f5 5d 8d 3e
       0.42962384 0.15429598 0.38922453 0.27610746
0000d0 a6 f3 8d 3e a3 ef 7d 3e 32 e9 6d 3e 56 0a b0 3e
       0.27724952 0.24798445 0.23233488 0.34382886
0000e0 84 ee 59 3e d0 88 ac 3e a1 e2 dc 3e 17 e5 92 3e
       0.21282393 0.3369813 0.43141654 0.28690407
0000f0 af ef 37 3e 5c 46 a9 3e 47 74 b0 3e f1 d5 57 3e
       0.17962526 0.33061492 0.34463713 0.21077706
000100 62 a7 29 3e 62 31 79 3e b7 67 5c 3e f1 4f 78 3e
       0.16567758 0.24335244 0.21523939 0.24249245
000110 63 8e a3 3e 61 23 1f 3e e2 4c 88 3e d0 fd b9 3e
       0.3194457 0.1554084 0.26621157 0.36326456
000120 16 1e b5 3e 01 9b 13 3e 14 10 c9 3e ec 77 c0 3e
       0.35374516 0.14414598 0.3927008 0.37591493
000130 33 59 99 3e d3 9d ac 3e dd bd 77 3e 30 33 78 3e
       0.29950866 0.3371416 0.24193521 0.24238276
000140 da d3 81 3e 29 9e 82 3e 39 ee 6c 3e 42 df 0a 3f
       0.25356942 0.25511292 0.2313775 0.54246914
000150 6e 7e 09 3f ef e9 38 3e ad 42 6e 3e 99 0c 51 3e
       0.5370854 0.18057989 0.23267622 0.20414962
000160 97 bd 75 3e fc aa 97 3e 07 8d a8 3e 5a 13 ce 3e
       0.23998104 0.29622638 0.32920095 0.4024914
000170 34 14 df 3e 68 42 a7 3e c1 01 70 3e ab da 8d 3e
       0.435701 0.3266785 0.23438169 0.27705893
000180 4e 7d db 3e 31 f9 77 3e a5 67 ba 3e 68 60 8f 3e
       0.42869037 0.24216153 0.364072 0.2800324
000190 6b e5 de 3d c0 aa a1 3e bc f4 8e 3e 84 f3 84 3e
       0.10883602 0.31575584 0.27921093 0.25967038
0001a0 7d 53 98 3e c8 4b 41 3e db 9e 95 3e 7e 57 64 3e
       0.29751197 0.18876565 0.2922276 0.22299
0001b0 98 e4 b1 3e 61 52 87 3e a9 82 e0 3e 59 d1 65 3e
       0.34744716 0.26430038 0.43849686 0.22443141
0001c0 9e 4b b9 3e a7 ed 82 3e dd 77 4f 3e b0 c5 bc 3e
       0.36190504 0.2557194 0.20260568 0.36869574
0001d0 87 73 a4 3e 91 b3 93 3e 26 3f c8 3e 6d 55 4d 3f
       0.3211939 0.28847936 0.39110678 0.80208474
0001e0 65 2e a6 3e e6 97 9b 3e 76 2c f3 3e 32 7f ad 3e
       0.3245727 0.30389327 0.47494859 0.33886105
0001f0 72 c3 75 3e 5d 7f c8 3e 6e 3d 96 3e 33 a4 92 3e
       0.24000338 0.3915967 0.29343742 0.286409
000200 3a e7 bc 3e a6 21 b0 3e 06 aa 4b 3e 72 24 2a 3e
       0.36895162 0.34400672 0.19889078 0.16615465
000210 54 9a 3f 3e 22 ad e8 3e 80 30 1b 3f b7 dd 1e 3e
       0.18711215 0.4544459 0.6062088 0.15514265
000220 9f df 39 3e c1 19 2e 3e 98 72 54 3e 1f 40 6d 3e
       0.18151711 0.17002012 0.20746839 0.23168992
000230 9e 98 d5 3e 68 07 91 3e 2c 9a c2 3e 8f 48 8f 3e
       0.41718 0.28325963 0.3800825 0.27985045
000240 f1 89 c6 3e b6 b4 de 3e 23 38 95 3e da b3 b4 3e
       0.38777116 0.43497247 0.2914439 0.35293466
000250 36 5f db 3e fa 06 90 3e 8e 86 74 3e ff 31 72 3e
       0.42846078 0.28130323 0.23879454 0.23651884
000260 49 52 bd 3e 79 6a 67 3e 66 df d3 3e 0d e8 3e 3e
       0.3697684 0.2259921 0.41381377 0.18643208
000270 1a af 75 3e c7 61 29 3e 86 8b df 3e 3b 84 f8 3e
       0.23992577 0.16541205 0.43661135 0.48538384
000280 99 55 37 3e 73 a2 9b 3e 98 cf 4a 3e e0 fa a0 3e
       0.17903747 0.30397376 0.19805753 0.31441402
000290 60 9e be 3d 0a 92 aa 3e f9 45 23 3e 31 51 e2 3e
       0.093075514 0.33314544 0.15944661 0.4420257
0002a0 30 00 a5 3e 33 11 82 3e f0 34 8c 3e 76 99 c1 3e
       0.32226706 0.25403747 0.27384138 0.37812394
0002b0 85 8b db 3e 49 1d 96 3e 44 6c 70 3e 66 85 28 3f
       0.42879882 0.29319218 0.234788 0.6582855
0002c0 74 3d 8c 3e 2b 3f a5 3e 18 9e 90 3e 17 6e 9d 3e
       0.27390635 0.32274756 0.28245616 0.30748054
0002d0 55 15 7e 3e 9e 45 57 3e 9d 2d 1b 3e 8f ce ba 3e
       0.24812825 0.2102265 0.15154119 0.36485717
0002e0 43 34 51 3e 61 b5 76 3e 1d 7b ad 3e 91 3e ac 3e
       0.20430093 0.24092628 0.3388299 0.33641484
0002f0 b0 de 30 3f fa ea b3 3e 0c c9 ae 3e 18 5b b4 3e
       0.69089794 0.3514021 0.34137762 0.3522575
000300 bc dd 94 3e 7b b6 c4 3e 7c 19 5e 3e 61 08 92 3e
       0.2907542 0.38420472 0.21689409 0.28522018
000310 f7 cf df 3e 12 76 a0 3e cc 1a 99 3e 71 f4 c0 3e
       0.43713352 0.3134008 0.29903257 0.37686494
000320 52 e5 c4 3e 17 dd a7 3e 37 67 fb 3e 34 94 dd 3e
       0.38456208 0.32785866 0.49102184 0.43277133
000330 b1 27 b2 3e 61 34 a6 3e 90 2c 2b 3f 09 1c 85 3e
       0.34795907 0.32461837 0.6686487 0.25997952
000340 9e 9d 8d 3e b4 a9 02 3f 97 0e 56 3e 42 36 43 3e
       0.27659315 0.51040196 0.20904003 0.19063666
000350 f4 55 9b 3e 02 1c c1 3e 98 54 1c 3e 83 c2 9c 3e
       0.30339015 0.3771668 0.15266645 0.3061715
000360 7b bd 52 3e 2d ff 04 3e 51 3c 32 3e 4f 35 97 3e
       0.20580094 0.12987967 0.17405821 0.2953286
000370 21 2d 55 3e 0b 9d 87 3e 7c 1e 42 3e 08 37 98 3e
       0.20817997 0.26487002 0.18956941 0.29729486
000380 27 59 81 3e bd 2d 03 3f 2c 07 95 3e bd 6f 67 3e
       0.2526333 0.51241666 0.29107034 0.22601219
000390 1d e0 65 3e 2c 86 93 3e cb 54 c1 3e e6 6b 6a 3e
       0.22448774 0.28813303 0.37760004 0.22892722
0003a0 81 f5 a4 3e df 9a 9e 3e f9 8e c7 3e 80 02 6d 3e
       0.32218555 0.30977532 0.38976267 0.23145485
0003b0 cf 9f 07 3f 3c 3f f3 3e bb 2f b1 3e dc 09 33 3e
       0.52978224 0.47509181 0.34606728 0.1748423
0003c0 98 04 a0 3e f8 ed 88 3e f2 76 9c 3e f4 fc 97 3e
       0.31253505 0.26744056 0.30559498 0.29685175
0003d0 a0 e3 6f 3e a9 3c 1d 3e e5 25 5b 3e bd 34 66 3e
       0.23426676 0.15355171 0.21401174 0.22481056
0003e0 37 99 d1 3e 6e 49 74 3e 6e 80 d4 3e 53 a6 97 3e
       0.40937206 0.23856136 0.41504234 0.29619083
0003f0 ab e0 a7 3e fc b2 9e 3e 2a 2e a0 3e 39 79 af 3e
       0.32788596 0.3099593 0.3128522 0.34272173

down_blocks.0.resnets.1.norm2.bias f4 [320]
000000 3d 61 4c be 3c 83 23 be 49 28 9b bd 50 98 4a be
       -0.19958968 -0.1596803 -0.07576043 -0.19784665
000010 19 f1 3d be c4 fb c0 bd 97 d4 fc bd bb bb d5 bd
       -0.18549003 -0.094230205 -0.12345236 -0.10436197
000020 2d 54 78 be 08 21 25 be 1d 16 b2 bd e6 ef 7f be
       -0.2425086 -0.16125882 -0.08695624 -0.24993858
000030 47 75 7b be d5 76 28 be 19 b9 7e be 9b 2b 67 be
       -0.24556457 -0.16451581 -0.24875297 -0.22575228
000040 09 35 bb bd 14 09 42 be 4f b9 bf bd 0b 8a 7a be
       -0.09140975 -0.18948776 -0.09361517 -0.24466722
000050 ea b2 15 be bc fc c9 bd 08 c8 8c be 6b 10 bc bd
       -0.14619032 -0.098626584 -0.27496362 -0.09182819
000060 df 80 4f be 2c d9 21 be 26 4a 4e bd a2 e3 b5 bd
       -0.20264004 -0.15805501 -0.050363682 -0.08881308
000070 92 bd 8c be 8a f8 5e be 40 95 a4 be 78 45 44 be
       -0.2748838 -0.21774498 -0.3214512 -0.19167125
000080 0b 83 4a be f0 28 81 be 39 30 68 be f8 67 ea bd
       -0.19776551 -0.25226545 -0.22674645 -0.11445612
000090 fb 03 f8 bd 94 24 4e bd fe b9 30 be 85 11 36 be
       -0.12110134 -0.050327852 -0.1725845 -0.1778012
0000a0 24 e3 fd bd 0c 40 5d be 2a bc b2 be 9d 3b a8 be
       -0.12396839 -0.21606463 -0.34909183 -0.3285798
0000b0 83 97 f2 bd 4b 17 5c be a3 99 83 be bf 39 40 be
       -0.11845305 -0.2149326 -0.25703153 -0.18772028
0000c0 c1 70 92 be 36 a5 13 be 1f c6 5c be 6d ac e6 bd
       -0.2860165 -0.14418492 -0.21559952 -0.11263356
0000d0 a8 0e ee bd 4d 10 5a be 57 67 95 be 09 a7 fd bd
       -0.11623889 -0.21295281 -0.29180405 -0.12385375
0000e0 33 3d 5c be 67 8a 09 be 73 62 fa bd fb 3b 0e be
       -0.2150772 -0.13431703 -0.12225809 -0.13890068
0000f0 60 61 4a bd 39 ec 24 bd cf 95 5a be 3c b5 fc bd
       -0.04940927 -0.040264342 -0.2134621 -0.12339255
000100 89 7f ac bd 0b b7 47 be 2f df 84 be 87 04 6a be
       -0.08422763 -0.19503419 -0.25951526 -0.2285329
000110 e4 2c 3a be b2 fa 42 be 1e e3 35 be 77 42 10 be
       -0.18181187 -0.19040945 -0.1776242 -0.14087854
000120 4d e5 18 be ec 4b 2a be 76 86 72 be 97 bd 74 be
       -0.14931221 -0.16630524 -0.23684105 -0.23900448
000130 71 ac e1 bd 36 88 29 be 9b 6f 22 be 3c a3 93 bd
       -0.11019219 -0.16555867 -0.15862887 -0.07208869
000140 d8 55 4d be 43 12 f5 bd 7e f4 45 be 7c ee 1c be
       -0.20052278 -0.11966374 -0.19331548 -0.1532535
000150 1f 50 99 be e2 44 bd be e2 7e 11 be b8 36 a6 be
       -0.2994394 -0.36966616 -0.14208558 -0.32463622
000160 f0 7a 57 be ff 95 4a be 65 e3 53 be 75 6e 55 be
       -0.2104299 -0.19783781 -0.20692213 -0.20842917
000170 82 33 6f bd 47 8f fc bd 35 5f 18 bd 5d 30 75 be
       -0.05839873 -0.123320155 -0.03720017 -0.2394423
000180 a2 17 12 be ce ec 93 bd 6b 42 1d be 39 0b cb bd
       -0.14266828 -0.07222901 -0.15357368 -0.0991425
000190 fc 03 5e bd c3 a6 48 bf cc 3b 42 be cc bb 8d be
       -0.05420302 -0.7837946 -0.18968123 -0.2768234
0001a0 76 01 41 be b3 70 5d be 49 fd 64 be 3d 95 2f be
       -0.18848214 -0.21625023 -0.22362246 -0.17146774
0001b0 9e 2b 68 be 91 c0 6b be fa 98 83 be e2 7f 9b bd
       -0.22672889 -0.23022677 -0.2570265 -0.07592751
0001c0 ac d3 1f be c3 f7 5a be 98 de 6f be 86 52 97 be
       -0.1560809 -0.21383576 -0.23424757 -0.29555148
0001d0 c2 5b 63 be b6 d4 57 be 9f 38 57 be 8e 3c 76 be
       -0.22202972 -0.21077237 -0.21017693 -0.24046537
0001e0 9b 6d 1f be 1f 7b 14 be 45 20 11 be 0d ad d2 bd
       -0.15569155 -0.14500092 -0.14172466 -0.10286913
0001f0 4d 70 fa bc 24 30 2c be 46 92 62 be 76 19 42 be
       -0.030571127 -0.16815239 -0.22126111 -0.18955025
000200 05 6d a2 be 2f c6 bc be 15 05 54 be b2 4a 8a be
       -0.317238 -0.36869952 -0.20705064 -0.27010113
000210 95 8e 70 be f2 a8 6d be c2 e7 87 be ad 8f fa bd
       -0.2349189 -0.23208979 -0.26544005 -0.12234435
000220 2f c2 ac be 9e 2b 3e be d9 b0 26 be e6 25 b6 bd
       -0.337419 -0.18571326 -0.162784 -0.08893947
000230 7f 6a 11 be 66 5e 45 be ae 98 b1 be 42 07 ad be
       -0.14200781 -0.19274291 -0.34686798 -0.337946
000240 6e 63 eb bd 6b e1 60 be 93 1f 8f be 43 0b 41 be
       -0.11493574 -0.2196099 -0.27953777 -0.18851952
000250 94 cf b6 bd 61 a6 16 be 74 dc cb bd 77 54 aa be
       -0.08926311 -0.14711906 -0.099541575 -0.33267567
000260 f5 b9 82 be 6e 1f 26 be 45 0c 9d be f6 3d 23 be
       -0.255325 -0.16222927 -0.30673423 -0.15941605
000270 58 1b 4c be 52 66 d2 bd fe 7a ee bd fc 1a 0a be
       -0.19932306 -0.10273422 -0.11644553 -0.13486856
000280 74 96 63 be 48 c7 c4 bd 02 af 84 be 3a 07 78 be
       -0.22225362 -0.096083224 -0.2591477 -0.24221507
000290 0b 9e 95 be 65 c0 5d be 84 33 20 be 46 18 d8 be
       -0.2922214 -0.21655424 -0.15644652 -0.4220602
0002a0 c4 7f 96 be f1 b3 8a be aa a6 93 be a6 2d 90 be
       -0.29394352 -0.2709041 -0.28838092 -0.28159827
0002b0 e6 6d 3a bd 5c 3e 6e be eb 86 78 be 6e cc bc be
       -0.045514964 -0.23265976 -0.24270217 -0.36874717
0002c0 09 d6 80 be c8 f7 11 bd 75 94 c2 bd c8 c5 22 bd
       -0.25163296 -0.035636693 -0.09500972 -0.0397394
0002d0 c5 3a d6 bd db 41 45 be 12 72 a9 bd af 71 18 be
       -0.10460428 -0.19263403 -0.0827371 -0.14887117
0002e0 33 44 24 be ad a5 2a be 98 86 58 be 40 13 58 be
       -0.16041641 -0.16664763 -0.21145093 -0.21101093
0002f0 05 48 90 be ab 44 60 be 4c 72 80 be 1b c8 38 be
       -0.28179947 -0.21901195 -0.25087202 -0.18045084
000300 46 e4 c9 bd d9 f9 c1 be 36 05 05 be a4 08 8b be
       -0.09857993 -0.3788593 -0.12990269 -0.2715503
000310 09 9f 83 be d3 93 8e be 9a 34 4c be fe a5 33 be
       -0.25707272 -0.27847156 -0.19941941 -0.1754379
000320 66 28 2f be c2 44 4f be 1d 09 23 bd 23 15 99 be
       -0.17105255 -0.20241073 -0.039803613 -0.2989894
000330 4a a8 67 be 53 78 61 be 3f fe 22 be f5 bb 5c be
       -0.22622791 -0.22018556 -0.159173 -0.21556075
000340 54 1c 19 be f7 5c df bd d6 9f 79 be a2 45 9b be
       -0.14952213 -0.109064035 -0.24377379 -0.30326563
000350 31 8a 7e be 7d aa 90 be 0e 15 41 be 2b 14 12 be
       -0.24857403 -0.28255072 -0.18855688 -0.14265506
000360 d3 f8 32 be ab 90 a6 be b0 f6 58 be e3 f1 48 be
       -0.17477731 -0.32532248 -0.21187854 -0.19623522
000370 ef 40 48 be 2f 4b 13 be f3 3a 01 be 43 62 94 be
       -0.1955602 -0.14384149 -0.12620144 -0.28981218
000380 6e 5c 0c be 14 9a 6a be 1a a8 0b be 13 d1 bf bd
       -0.13707134 -0.22910339 -0.13638344 -0.093660496
000390 b8 67 32 be 07 78 85 be c2 d1 62 be 7d d2 7a be
       -0.17422378 -0.26068136 -0.22150329 -0.24494357
0003a0 f4 24 14 be f5 33 bc bd e5 b2 9c bd 48 5c 14 be
       -0.14467221 -0.091895975 -0.07651309 -0.14488328
0003b0 6f b8 c7 bd 94 e8 29 be df 5b 78 be a7 c6 d4 bd
       -0.09751975 -0.16592628 -0.24253796 -0.103894524
0003c0 17 fb 9a be a3 b8 14 be eb 9b b4 be 4c 02 94 be
       -0.3026969 -0.14523558 -0.35275206 -0.28908002
0003d0 a3 6f 46 be 43 d7 a4 bd 7e 19 a9 be 86 b0 9e be
       -0.19378524 -0.080488704 -0.33027261 -0.30994052
0003e0 2b 67 cf be 20 8f 70 be be 5e a0 be 7c 53 88 be
       -0.40508398 -0.23492098 -0.31322283 -0.26626194
0003f0 c6 64 c5 bd 84 ab 3e be 08 c7 8c be 27 a8 8b bd
       -0.09638362 -0.18620116 -0.274956 -0.06819182
