models/res_adapter/sdxl-i/resolution_lora.safetensors (safetensors, 923064 bytes, 8 tensors)

lora_unet_down_blocks_0_downsamplers_0_conv.lora_down.weight f2 [16, 320, 3, 3]
0.00667 0.0715 0.08844 -0.005848 0.01446 0.06647 -0.0502 -0.02013
0.0878 -0.08 0.07733 -0.013756 0.00543 0.07245 -0.0973 0.02777
0.03452 -0.01614 0.1078 0.01968 0.04813 0.01715 -0.001589 -0.0722
0.1816 0.08295 -0.02621 -0.01154 0.01817 0.1641 -0.11707 0.006653
-0.04117 0.0838 0.1005 -0.011986 -0.011375 -0.04868 -0.03937 -0.02509
0.0288 -0.05725 0.02516 0.0158 0.02306 -0.0423 0.001521 -0.0462
-0.0329 0.02856 0.0293 0.1674 0.05606 -0.0336 -0.04376 -0.04407
-0.01888 0.0946 0.03415 0.0421 -0.0856 -0.05737 -0.1599 0.00496
-0.03287 -0.05347 0.02278 -0.01153 -0.03406 -0.00444 -0.0642 0.01446
0.0697 0.01025 -0.05255 -0.03107 0.0731 -0.0828 -0.0034 0.14
-0.00538 -0.02754 0.02492 -0.001043 -0.00423 -0.08624 0.1219 -0.067
-0.04263 -0.06775 0.02048 0.07355 0.0986 0.1523 0.03168 -0.005795
0.03168 0.04788 0.05478 -0.05792 -0.0455 0.0712 -0.03436 -0.0746
0.00201 -0.0759 0.00473 -0.07605 -0.0005193 0.04794 0.001455 0.07007
0.138 0.12396 0.04425 0.03424 -0.004772 0.0679 -0.0609 -0.0488
0.1224 0.0812 0.1469 0.026 0.02612 0.09076 -0.01528 -0.02446
0.04153 0.00299 -0.04218 0.04694 -0.0995 0.00735 0.001601 -0.0236
0.0387 -0.1194 -0.0741 -0.02711 -0.1072 0.0986 -0.0776 -0.01069
0.03516 0.00438 0.02444 0.02704 0.01706 -0.02435 0.045 -0.02893
-0.0723 -0.0707 -0.0829 -0.00276 -0.0953 -0.003437 -0.04788 0.02077
-0.1322 -0.015045 0.09125 -0.07355 0.01017 -0.02539 0.1313 -0.1261
0.04422 0.1046 -0.07733 0.06775 0.03665 -0.0739 0.09393 -0.1282
-0.03363 -0.006428 -0.084 0.002123 -0.0854 -0.00865 0.08813 -0.07587
-0.01011 0.02068 -0.051 0.04434 -0.01349 -0.00889 -0.09534 -0.08307
-0.1262 -0.04657 -0.05994 -0.03075 -0.09924 0.06464 0.03793 0.03415
0.0726 0.01002 0.0633 0.011665 0.006516 -0.03616 0.04364 0.1086
0.03928 0.06287 -0.0319 -0.02402 0.05078 0.06433 0.0834 0.04434
0.05075 -0.02026 -0.01363 -0.04712 0.2012 0.1202 -0.11615 0.03308
0.0859 -0.0768 0.03622 -0.036 0.01066 -0.08264 -0.0609 0.06744
-0.004944 0.0243 0.02745 -0.02547 0.04498 -0.06866 -0.03275 -0.0286
-0.009224 0.02191 -0.0667 0.1454 -0.0515 0.00722 -0.02821 0.10284
-0.043 0.01239 0.08 0.04483 -0.0418 -0.000578 0.0336 -0.02382
00000000: d51e 932c a92d fd9d 6723 412c 6daa 27a5
00000010: 9f2d 1fad f32c 0ba3 8f1d a32c 3aae 1c27
00000020: 6b28 22a4 e62e 0a25 292a 6424 8296 9fac
00000030: d031 4f2d b6a6 e9a1 a724 4031 7eaf d01e
00000040: 45a9 5d2d 6f2e 23a2 d3a1 3baa 0aa9 6ca6
00000050: 5f27 54ab 7126 0b24 e725 6aa9 3b16 eaa9
00000060: 36a8 5027 8027 5b31 2d2b 4da8 9aa9 a4a9
00000070: d5a4 0e2e 5f28 6429 7aad 58ab 1eb1 141d
00000080: 35a8 d8aa d525 e7a1 5ca8 8c9c 1cac 6723
00000090: 762c 3f21 baaa f4a7 ae2c 4dad f79a 7b30
000000a0: 829d 0da7 6126 4694 559c 85ad cd2f 4aac
000000b0: 75a9 56ac 3e25 b52c 4f2e e030 0e28 ef9d
000000c0: 0e28 212a 032b 6aab d3a9 8f2c 66a8 c6ac
000000d0: 1e18 dcac d81c deac 4190 232a f615 7c2c
000000e0: 6a30 ef2f aa29 6228 e39c 582c ccab 3faa
000000f0: d52f 322d b330 a826 b026 cf2d d3a3 43a6
00000100: 5129 201a 66a9 022a 5eae 871f 8f16 0ba6
00000110: f428 a4af beac f1a6 dcae 4f2e f7ac 79a1
00000120: 8028 7c1c 4226 ec26 5e24 3ca6 c329 68a7
00000130: a1ac 86ac 4ead a799 19ae 0a9b 21aa 5125
00000140: 3bb0 b4a3 d72d b5ac 3521 80a6 3430 09b0
00000150: a929 b22e f3ac 562c b128 bbac 032e 1ab0
00000160: 4ea8 959e 60ad 5918 77ad 6ea0 a42d dbac
00000170: 2da1 4b25 87aa ad29 e8a2 8da0 1aae 51ad
00000180: 0ab0 f6a9 acab dfa7 5aae 232c db28 5f28
00000190: a52c 2121 0d2c f921 ac1e a1a8 9629 f32e
000001a0: 0729 062c 15a8 26a6 802a 1e2c 562d ad29
000001b0: 7f2a 30a5 fba2 08aa 7032 b12f 6faf 3c28
000001c0: 7f2d eaac a328 9ca8 7521 4aad ccab 512c
000001d0: 109d 3926 0727 85a6 c229 65ac 31a8 52a7
000001e0: b9a0 9c25 45ac a730 98aa 651f 39a7 952e
000001f0: 81a9 5822 1f2d bd29 5aa9 bc90 4d28 19a6

lora_unet_down_blocks_0_downsamplers_0_conv.lora_up.weight f2 [320, 16, 1, 1]
-0.02837 -0.01262 0.01473 -0.001162 -0.00298 0.02019 -0.03305 -0.003338
0.04608 0.02768 0.02092 -0.01161 -0.02036 0.01917 0.00523 0.02737
0.01585 0.00954 0.02612 0.00741 -0.006546 0.00929 -0.01846 0.006683
-0.006035 -0.0062 -0.00615 0.01071 -0.003933 0.00461 -0.01222 0.002018
-0.000556 0.02055 0.02275 -0.02371 -0.00543 -0.01877 0.007515 0.001477
-0.02922 -0.01764 -0.02092 0.03372 -0.00207 -0.03534 -0.01355 -0.02956
-0.00336 -0.01021 0.0187 -0.005608 0.005222 -0.004467 -0.011345 0.03714
0.02469 0.01825 0.01391 0.0122 0.01062 0.03482 -0.03091 0.01266
-0.006153 0.01096 -0.006092 -0.006355 0.000817 -0.0163 0.0207 -0.00585
-0.02103 -0.01048 -0.007504 -0.001686 -0.008484 0.01425 0.002611 0.0021
-0.006195 -0.0187 -0.02164 0.01107 0.01076 0.01785 -0.0143 -0.01219
0.01463 0.01768 0.02156 -0.02646 -0.004654 0.02434 0.0196 0.02286
0.000589 -0.01616 -0.01305 0.02492 0.004185 0.01513 0.002785 -0.003817
0.01551 0.00898 0.02403 -0.003975 -0.014946 0.01456 0.02386 0.012566
-0.01097 -0.01993 -0.003464 0.00689 0.01947 0.00675 -0.0318 0.001987
0.02461 0.01926 0.02472 0.00421 0.001798 0.019 -0.006557 0.01511
0.006588 0.01397 0.00934 0.006382 0.006996 0.01176 0.00778 -0.00845
-0.00524 -0.001912 -0.003132 -0.001448 -0.01509 -0.01675 0.006523 0.01308
0.01024 0.00997 -0.02605 -0.010506 0.00852 -0.0048 0.002628 0.001668
-0.0268 -0.00827 0.01038 0.0219 0.003645 0.00452 -0.004383 0.009575
-0.03372 -0.02835 0.000506 0.006886 0.01636 0.0353 -0.02367 -0.01141
0.04367 0.0361 0.04422 -0.02625 -0.0246 0.04642 0.01042 0.02939
0.01273 -0.000537 0.007675 -0.007095 0.00515 0.004597 0.001329 0.01846
-0.01259 -0.006123 -0.02095 0.00644 0.01971 0.0194 -0.002714 0.00645
0.014206 -0.03973 -0.002947 0.01165 0.0004666 0.02934 0.001822 0.01653
0.02208 0.0214 0.000134 -0.01007 0.001533 0.02193 0.002977 0.02597
0.0191 0.02274 0.00945 -0.00244 -0.00889 -0.03482 0.00931 -0.00559
-0.00812 -0.021 -0.02298 0.03717 0.010254 -0.0324 -0.0075 -0.002851
0.02145 -0.004112 -0.00742 0.002642 -0.01214 0.01332 0.004696 0.002567
-0.00182 0.003658 0.003698 0.002377 -0.003674 -0.002201 0.000834 0.0007486
-0.005764 0.00625 -0.002008 -0.00477 0.02856 -0.001472 -0.01607 -0.0022
0.02599 0.006325 0.02147 0.015396 -0.001863 0.01464 -0.01826 0.004185
00000000: 43a7 76a2 8b23 c294 1a9a 2b25 3ba8 d69a
00000010: e629 1627 5b25 f2a1 36a5 e824 5b1d 0227
00000020: 0f24 e220 b026 961f b49e c220 baa4 d81e
00000030: 2e9e 599e 4c9e 7c21 079c b81c 42a2 2218
00000040: 8e90 4325 d325 12a6 8f9d cea4 b21f 0d16
00000050: 7ba7 84a4 5ba5 5128 3d98 86a8 f0a2 91a7
00000060: e29a 3aa1 ca24 be9d 591d 939c cfa1 c128
00000070: 5226 ac24 1f23 3f22 7021 7528 eaa7 7b22
00000080: 4d9e 9d21 3d9e 829e b112 2ca4 4d25 fe9d
00000090: 62a5 5ea1 af9f e896 58a0 4c23 5919 4d18
000000a0: 589e caa4 8aa5 ab21 8221 9224 52a3 3ea2
000000b0: 7e23 8724 8525 c6a6 c49c 3b26 0525 da25
000000c0: d310 23a4 aea2 6126 491c bf23 b419 d19b
000000d0: f123 9920 2726 129c a7a3 7423 1c26 6f22
000000e0: 9ea1 1aa5 189b 0e1f fc24 e91e 12a8 1218
000000f0: 4d26 ee24 5426 501c 5d17 dd24 b79e bc23
00000100: bf1e 2723 c820 891e 2a1f 0522 f71f 54a0
00000110: 5e9d d597 6a9a ee95 baa3 4aa4 ae1e b222
00000120: 3e21 1b21 aba6 61a1 5d20 ea9c 6219 d516
00000130: dca6 3ca0 5121 9b25 771b a11c 7d9c e720
00000140: 51a8 42a7 2510 0d1f 3024 8528 0fa6 d8a1
00000150: 9729 9f28 a929 b8a6 4ca6 f129 5621 8627
00000160: 8522 6690 dc1f 449f 461d b51c 7215 ba24
00000170: 72a2 459e 5da5 981e 0c25 f724 8f99 9b1e
00000180: 4623 16a9 099a f721 a50f 8327 7717 3b24
00000190: a725 7a25 6408 28a1 4716 9d25 191a a626
000001a0: e424 d225 d720 ff98 8da0 75a8 c420 b99d
000001b0: 28a0 60a5 e2a5 c228 4021 26a8 ae9f d799
000001c0: 7e25 369c 999f 6919 37a2 d222 cf1c 4219
000001d0: 7497 7e1b 931b de18 869b 8298 d512 2212
000001e0: e79d 661e 1d98 e29c 5027 0896 1da4 8198
000001f0: a726 7a1e 7f25 e223 a197 7f23 ada4 491c

lora_unet_down_blocks_1_downsamplers_0_conv.lora_down.weight f2 [16, 640, 3, 3]
0.1393 0.0773 0.00526 0.05438 -0.11316 -0.10254 0.0755 -0.11127
-0.1 0.2037 0.0853 0.03387 0.1482 0.08716 0.05353 0.1799
0.112 0.0563 -0.0631 -0.1193 0.003878 0.0883 -0.1613 -0.1203
-0.01756 -0.01297 -0.0689 -0.02802 -0.04764 0.03918 0.03296 -0.113
-0.0674 -0.02037 -0.0673 0.0298 -0.07605 -0.0145 -0.00585 -0.05573
0.1148 -0.0344 0.0662 0.037 -0.02345 -0.03928 0.0533 0.01442
0.01459 -0.0868 -0.0746 -0.09607 -0.00962 0.003557 0.01839 -0.1026
-0.06647 -0.02177 -0.0934 -0.02907 -0.0873 -0.0459 -0.0301 0.02599
-0.0837 -0.0588 0.08234 0.003963 -0.1143 0.02032 -0.1129 -0.01014
0.00812 -0.05554 0.06616 -0.04843 0.1094 -0.0569 0.05435 0.02374
-0.008705 -0.1628 -0.05334 -0.04416 -0.10815 -0.0668 -0.03738 0.03168
-0.1161 -0.1693 0.0727 0.0665 0.01161 0.1199 0.1544 0.1609
0.1659 0.1002 -0.03342 -0.03625 0.02336 -0.01707 0.07306 0.03125
-0.002415 -0.0337 0.06256 0.03693 0.06964 0.04004 -0.00794 0.0764
0.04556 -0.0001533 0.08746 0.0802 0.0256 0.0782 -0.01854 0.0486
-0.001595 -0.002075 -0.1035 -0.02222 0.1372 -0.007065 0.1665 0.1725
0.1255 0.165 0.12006 -0.0686 0.129 -0.03265 0.0977 -0.02998
-0.03693 -0.02113 -0.02083 -0.01403 -0.04916 -0.02052 -0.0264 -0.02654
-0.01438 -0.00417 0.00661 0.05594 -0.05847 0.08307 0.03073 -0.04376
0.09314 0.0647 0.04492 -0.01906 0.04144 0.0643 -0.01084 -0.0309
-0.01599 0.10034 0.0317 0.00802 -0.05658 -0.02939 -0.0987 0.003275
-0.037 -0.1492 -0.057 -0.01515 -0.01718 0.02724 -0.00801 0.07214
0.077 -0.11743 -0.05814 0.0434 -0.02357 0.04047 -0.051 -0.02026
-0.02477 0.00451 -0.0766 0.01907 -0.0581 -0.10846 -0.0489 -0.03476
0.0649 -0.07117 -0.1624 0.02675 -0.005928 -0.0159 0.0827 -0.0248
-0.05225 0.04233 -0.1558 0.0322 0.0612 -0.02621 0.01513 0.1996
0.0627 0.0946 0.1259 0.04755 0.1279 0.2045 0.02692 0.1483
0.0997 0.00624 -0.0814 -0.01999 -0.1147 -0.0884 0.03494 -0.0351
-0.04813 0.01674 -0.02763 -0.07764 -0.0551 -0.1044 -0.004387 -0.08997
0.013565 0.05698 -0.1154 -0.03094 0.0829 -0.04056 0.01037 -0.003437
0.0193 0.07 -0.02873 -0.01566 -0.01386 -0.04715 0.1252 -0.012955
0.01084 -0.04202 0.04138 -0.03308 -0.03625 -0.00444 -0.0156 0.0809
00000000: 7530 f22c 631d f62a 3eaf 90ae d52c 1faf
00000010: 66ae 8532 762d 5628 be30 942d da2a c231
00000020: 2b2f 352b 0aac a3af f11b a72d 29b1 b3af
00000030: 7fa4 a4a2 69ac 2ca7 19aa 0429 3828 3baf
00000040: 50ac 37a5 4fac a127 deac 6da3 fe9d 22ab
00000050: 592f 67a8 3d2c bc28 01a6 07a9 d32a 6223
00000060: 7823 8ead c6ac 26ae eda0 491b b524 91ae
00000070: 41ac 93a5 faad 71a7 96ad e0a9 b5a7 a726
00000080: 5bad 87ab 452d 0f1c 51af 3425 3aaf 31a1
00000090: 2820 1cab 3c2c 33aa 002f 48ab f52a 1426
000000a0: 75a0 36b1 d4aa a7a9 ecae 46ac c9a8 0e28
000000b0: 6eaf 6bb1 a72c 422c f221 ac2f f130 2631
000000c0: 4f31 6a2e 47a8 a4a8 fb25 5fa4 ad2c 0028
000000d0: f298 50a8 012c ba28 752c 2029 11a0 e42c
000000e0: d529 0689 992d 222d 8e26 012d bfa4 392a
000000f0: 8896 4098 a0ae b0a5 6430 3c9f 5431 8531
00000100: 0430 4831 af2f 64ac 2130 2ea8 412e ada7
00000110: baa8 69a5 55a5 2fa3 4baa 41a5 c2a6 cba6
00000120: 5da3 459c c51e 292b 7cab 512d de27 9aa9
00000130: f62d 242c c029 e1a4 4e29 1d2c 8da1 e9a7
00000140: 18a4 6c2e 0f28 1b20 3eab 86a7 51ae b51a
00000150: bca8 c6b0 4cab c2a3 66a4 f926 1aa0 9e2c
00000160: ee2c 84af 71ab 8e29 09a6 2e29 87aa 30a5
00000170: 57a6 9e1c e7ac e224 70ab f1ae 42aa 73a8
00000180: 272c 8eac 32b1 d926 129e 12a4 4b2d 59a6
00000190: b0aa 6b29 fcb0 1f28 d52b b6a6 bf23 6332
000001a0: 032c 0e2e 0730 162a 1830 8b32 e426 bf30
000001b0: 612e 641e 36ad 1ea5 57af a8ad 7928 7ea8
000001c0: 29aa 4924 13a7 f8ac 0eab aeae 7e9c c2ad
000001d0: f222 4b2b 63af eca7 4e2d 31a9 4f21 0a9b
000001e0: f124 7b2c 5ba7 02a4 19a3 09aa 0230 a2a2
000001f0: 8d21 61a9 4c29 3ca8 a4a8 8c9c fda3 2d2d

lora_unet_down_blocks_1_downsamplers_0_conv.lora_up.weight f2 [640, 16, 1, 1]
-0.001991 0.01258 0.00509 -0.00572 0.01765 0.0007486 0.00869 -0.01805
-0.01184 -0.0323 0.000981 -0.0009685 0.00967 0.00924 -0.001886 -0.005905
-0.009995 0.007347 0.01203 -0.00858 0.004875 -0.00734 0.00884 0.004913
-0.003021 -0.0153 0.01222 -0.007603 -0.0151 -0.01444 -0.014275 -0.0002534
0.0529 -0.05606 -0.0676 0.0633 -0.0581 0.05667 -0.0537 0.05225
0.05008 0.04803 -0.0621 0.0533 0.0584 0.05344 0.04492 0.0633
-0.00973 0.00871 0.007362 0.00753 -0.00068 0.00447 -0.001114 -0.0004916
-0.01467 -0.010124 -0.001259 0.001305 -0.000599 -0.001318 -0.0013895 0.00509
-0.01335 0.01749 0.0106 -0.01668 0.006306 -0.01539 0.01913 -0.0329
-0.02374 -0.01726 0.012276 -0.02078 -0.01424 -0.01689 -0.02016 -0.006817
-0.01492 0.02673 0.01427 -0.01979 0.02812 -0.012054 0.02075 -0.007793
-0.01755 -0.02133 0.02127 -0.02916 -0.01964 -0.02197 -0.02586 -0.02309
-0.0233 0.02646 0.03067 -0.03714 0.03735 -0.02995 0.03137 -0.02284
-0.01762 -0.03207 0.0434 -0.0349 -0.03964 -0.0347 -0.03683 -0.0391
-0.007904 -0.01727 0.003466 -0.00809 -0.02577 0.002312 -0.001212 0.011734
0.00413 -0.002232 0.0122 0.005356 -0.001722 0.00701 0.0014515 0.015465
0.02756 -0.03543 -0.02927 0.0271 -0.02618 0.02222 -0.02905 0.004395
0.02505 0.02089 -0.03146 0.0304 0.03088 0.02956 0.03284 0.034
-0.0225 0.02844 0.01831 -0.014015 0.02257 -0.02715 0.02065 -0.01923
-0.01953 -0.02016 0.012985 -0.02145 -0.02847 -0.02803 -0.015305 -0.01941
-0.04382 0.03775 0.04053 -0.04794 0.03973 -0.0409 0.04443 -0.00917
-0.0325 -0.04346 0.0526 -0.04877 -0.05692 -0.05133 -0.0495 -0.0427
0.01614 -0.00825 0.01189 0.001396 0.005917 -0.005108 0.0003443 0.002745
0.00857 -0.00724 -0.01075 0.00612 -0.000767 0.002758 0.00988 -0.001171
0.00625 0.002089 0.00377 -0.002085 0.00507 -0.01276 -0.001046 -0.003859
-0.000981 -0.0005484 0.00695 0.002419 -0.003975 -0.007236 -0.002016 -0.005215
-0.003387 -0.02028 0.006344 0.011475 -0.013756 -0.0002245 -0.004055 -0.005085
-0.00339 0.01834 0.00475 0.01994 0.0062 0.00512 0.0153 0.007675
-0.002167 0.00563 0.004097 -0.003006 0.0004392 -0.006416 -0.0001808 -0.01851
0.003332 -0.02003 0.00915 -0.01179 -0.0102 -0.01047 -0.01375 -0.001047
-0.003674 0.00924 0.009605 0.002577 0.00474 -0.004223 0.002398 -0.0225
0.00367 0.005062 -0.0007753 0.003218 0.00588 0.0006175 -0.003601 0.001697
00000000: 1498 7122 361d db9d 8524 2212 7320 9fa4
00000010: 10a2 22a8 0514 ef93 f320 bb20 ba97 0c9e
00000020: 1ea1 861f 2922 65a0 fe1c 849f 8720 081d
00000030: 309a d5a3 4222 c99f bba3 65a3 4fa3 278c
00000040: c52a 2dab 54ac 0d2c 70ab 412b e0aa b02a
00000050: 692a 262a f3ab d32a 7a2b d72a c029 0d2c
00000060: fba0 7620 8a1f b61f 9291 941c 9094 0790
00000070: 83a3 2fa1 2895 5815 e890 6695 b195 361d
00000080: d6a2 7a24 6d21 45a4 751e e1a3 e624 36a8
00000090: 14a6 6ba4 4922 52a5 4aa3 53a4 29a5 fb9e
000000a0: a4a3 d826 4e23 11a5 3327 2ca2 5025 fb9f
000000b0: 7ea4 76a5 7225 77a7 07a5 a0a5 9fa6 e9a5
000000c0: f7a5 c626 da27 c1a8 c828 aba7 0428 d9a5
000000d0: 83a4 1ba8 8e29 78a8 13a9 71a8 b7a8 01a9
000000e0: 0ca0 6ca4 191b 24a0 99a6 bc18 f794 0222
000000f0: 3b1c 9298 3f22 7c1d 0e97 2e1f f215 eb23
00000100: 0e27 89a8 7ea7 f026 b4a6 b025 70a7 801c
00000110: 6a26 5925 07a8 c827 e827 9127 3428 5a28
00000120: c3a5 4827 b024 2da3 c725 f3a6 4925 eca4
00000130: 00a5 29a5 a622 7ea5 4aa7 2da7 d6a3 f8a4
00000140: 9ca9 d528 3029 23aa 1629 3ca9 b029 b2a0
00000150: 29a8 90a9 bc2a 3eaa 49ab 92aa 56aa 77a9
00000160: 2224 39a0 1622 b815 0f1e 3b9d a40d 9f19
00000170: 6320 6a9f 81a1 441e 4992 a619 0f21 cc94
00000180: 661e 4718 b91b 4598 311d 88a2 4994 e79b
00000190: 0594 7e90 1e1f f418 129c 699f 2198 579d
000001a0: f09a 31a5 7f1e e021 0ba3 5b8b 279c 359d
000001b0: f19a b224 dd1c 1b25 591e 3e1d d523 dc1f
000001c0: 7098 c41d 321c 289a 320f 929e ed89 bda4
000001d0: d31a 21a5 af20 09a2 39a1 5ca1 0aa3 4a94
000001e0: 869b bb20 eb20 4719 db1c 539c e918 c3a5
000001f0: 841b 2f1d 5a92 971a 051e 0f11 609b f316

lora_unet_up_blocks_0_upsamplers_0_conv.lora_down.weight f2 [16, 1280, 3, 3]
-0.02138 0.04004 0.02347 0.0936 -0.002693 -0.001281 -0.0921 0.04266
0.1421 0.1306 -0.1608 0.01886 0.02058 -0.0172 -0.0873 -0.0637
-0.0394 0.04846 -0.1068 0.05133 -0.05188 0.004536 -0.013336 -0.005997
-0.09106 0.02898 0.01488 0.02855 0.09393 0.0732 0.0672 0.00447
-0.05917 0.1434 0.004333 -0.02458 -0.05618 -0.03046 0.01741 -0.02199
0.01015 -0.013855 0.03317 0.02881 0.006065 -0.01659 0.1262 0.11383
-0.0418 0.05795 0.004536 0.09924 -0.01548 -0.0002415 -0.2268 -0.03143
-0.05545 -0.05676 -0.013596 -0.10864 -0.0396 0.03366 -0.0551 0.01051
-0.046 -0.06934 -0.028 -0.04797 -0.08575 -0.01506 0.02795 -0.05145
0.010376 0.1636 0.0779 0.01804 -0.02588 -0.03065 -0.02705 0.0165
0.07404 0.11194 -0.01008 -0.08044 -0.0266 0.11444 -0.0249 0.06247
0.09283 0.05344 -0.0869 -0.00331 -0.006256 -0.0583 0.00761 0.02127
-0.0325 -0.05908 0.03577 0.02676 0.05792 0.05853 -0.05634 -0.05627
0.0256 -0.03647 0.1088 -0.00582 -0.0245 -0.00812 -0.03494 -0.0349
0.1378 -0.03004 0.071 -0.00798 -0.003168 -0.1057 0.004242 -0.05847
0.01553 -0.1852 -0.02747 -0.02335 -0.01901 -0.006706 0.01256 0.01094
0.0856 -0.03555 -0.02115 0.0564 -0.01535 0.06616 0.003267 -0.02289
-0.03952 -0.2524 0.01188 0.003347 -0.104 -0.005978 -0.03452 -0.09247
0.03113 0.10034 0.0895 0.03564 -0.13 0.00109 -0.06213 -0.05832
-0.1068 0.09375 -0.09674 -0.0401 0.04214 0.0692 0.02472 -0.05615
0.04965 -0.02501 0.03845 0.04443 0.05386 -0.03668 0.07874 -0.1143
0.01912 -0.014984 -0.0427 0.04153 -0.002335 0.00658 -0.0455 0.01999
-0.05634 -0.1808 0.03033 -0.0604 -0.12415 0.0552 -0.0231 0.0135
0.06366 -0.01332 0.0554 -0.1514 0.0436 -0.05914 -0.0764 0.0472
-0.1315 -0.0823 -0.04132 -0.1002 -0.02156 0.0626 -0.02832 0.125
0.1592 0.02757 0.03564 -0.03973 -0.0002565 0.08453 0.1273 0.06696
-0.0354 0.02786 -0.072 -0.03766 0.0016775 0.0786 0.03964 0.0003061
-0.08026 -0.07416 -0.0658 -0.074 0.0685 -0.0506 -0.1086 -0.0962
-0.02089 -0.03827 -0.0405 0.0343 0.01872 0.1271 -0.001869 -0.01435
-0.02084 -0.07043 0.0281 -0.0711 -0.1076 -0.0182 0.014565 0.03925
0.03577 -0.03708 0.02798 0.00243 0.002045 -0.0831 -0.1952 0.03079
-0.1272 -0.03427 0.0429 0.0331 -0.02054 0.07623 -0.001151 -0.0533
00000000: 79a5 2029 0226 fe2d 8499 3f95 e5ad 7629
00000010: 8c30 2e30 25b1 d424 4525 67a4 96ad 14ac
00000020: 0ba9 342a d6ae 922a a4aa a51c d4a2 249e
00000030: d4ad 6b27 9e23 4f27 032e af2c 4d2c 941c
00000040: 93ab 9730 701c 4ba6 31ab cca7 7524 a1a5
00000050: 3221 18a3 3f28 6027 361e 3fa4 0a30 492f
00000060: 5aa9 6b2b a51c 5a2e eda3 ea8b 42b3 06a8
00000070: 19ab 44ab f6a2 f4ae 12a9 4f28 0eab 6221
00000080: e3a9 70ac 2ba7 24aa 7dad b6a3 2827 96aa
00000090: 5021 3c31 fc2c 9e24 a0a6 d9a7 eda6 3924
000000a0: bd2c 2a2f 29a1 26ad cfa6 532f 60a6 ff2b
000000b0: f12d d72a 90ad c79a 689e 76ab cb1f 7225
000000c0: 29a8 90ab 9428 da26 6a2b 7e2b 36ab 34ab
000000d0: 8e26 aba8 f72e f69d 46a6 28a0 79a8 78a8
000000e0: 6930 b1a7 8b2c 16a0 7d9a c4ae 581c 7cab
000000f0: f423 edb1 08a7 faa5 dea4 de9e 6e22 9a21
00000100: 7a2d 8da8 6aa5 382b dca3 3c2c b11a dca5
00000110: 0fa9 0ab4 1522 db1a a8ae 1f9e 6ba8 ebad
00000120: f827 6c2e ba2d 9028 29b0 7714 f4ab 77ab
00000130: d6ae 002e 31ae 22a9 6529 6e2c 5426 30ab
00000140: 5b2a 67a6 ec28 b029 e52a b2a8 0a2d 51af
00000150: e524 aca3 77a9 5129 c898 bd1e d3a9 1e25
00000160: 36ab c9b1 c427 bbab f2af 112b eaa5 e922
00000170: 132c d2a2 172b d8b0 9529 92ab e4ac 0b2a
00000180: 35b0 44ad 4aa9 6aae 85a5 022c 40a7 0030
00000190: 1831 0f27 9028 16a9 348c 692d 1330 492c
000001a0: 88a8 2227 9cac d2a8 df16 082d 1329 040d
000001b0: 23ad bfac 36ac bcac 622c 7aaa f3ae 28ae
000001c0: 59a5 e6a8 2fa9 6428 cb24 1130 a897 59a3
000001d0: 56a5 82ac 3227 8dac e3ae a9a4 7523 0629
000001e0: 9428 bfa8 2a27 fa18 3018 52ad 3fb2 e227
000001f0: 12b0 63a8 7e29 3d28 42a5 e12c b794 d3aa

lora_unet_up_blocks_0_upsamplers_0_conv.lora_up.weight f2 [1280, 16, 1, 1]
-0.01154 -0.01132 0.00936 0.01285 -0.001093 -0.01848 0.006 0.00952
0.01452 -0.012566 -0.00958 -0.00899 -0.0001559 0.006847 -0.0089 -0.001106
0.002466 0.010506 -0.015366 0.01332 0.007324 0.00654 0.002478 -0.001002
-0.00731 -0.003042 -0.010445 -0.0004504 -0.006992 -0.004585 -0.008125 -0.005844
0.013405 0.01578 -0.00979 -0.003918 -0.01065 0.01346 -0.01013 -0.02765
-0.01288 -0.01322 0.02435 0.003506 -0.001599 0.00851 -0.005825 0.005573
-9.274e-05 -0.01974 0.02556 0.02094 0.01895 -0.007477 0.01666 0.0343
0.01921 0.01659 0.02536 -0.02899 0.01822 -0.02385 0.016 -0.0212
0.001047 0.00411 -0.00229 0.01607 0.00416 -0.002094 -0.0008893 -0.00116
0.006214 -0.002432 -0.00451 0.00445 -0.012566 -0.00779 -0.01067 -0.003344
0.005413 0.012505 -0.005444 0.00445 -0.001589 0.00767 0.00331 -0.01154
-0.01451 1.21e-05 0.011955 0.00788 -0.00978 0.00362 -0.005566 -0.0115
0.007626 0.0002027 0.00859 0.01008 -0.0006895 0.00467 -0.01346 -0.00907
-0.01386 -0.001316 0.003387 0.01034 -0.00599 -0.001352 -0.00546 -0.0195
-0.011505 -0.003748 0.00791 0.00549 -0.002174 -0.007656 1.8e-06 -0.00993
-0.00913 0.01765 0.01823 0.002266 -0.00249 -0.00704 -0.0087 0.003998
-0.01643 0.001715 0.01076 0.02455 0.01376 0.004715 -0.01395 0.003195
-0.00925 0.006985 0.001238 0.000899 0.0116 -0.00862 -0.00465 0.002394
0.00221 -0.006805 0.01551 0.03053 0.008354 0.001042 -0.005165 0.00602
-0.002165 0.0087 0.012794 -0.0092 -0.00526 -0.011765 0.001855 8.196e-05
-0.003805 0.01695 -0.01807 -0.00949 -0.001155 -0.00867 -0.00569 -0.01391
-0.001272 0.003428 -0.003403 -0.00866 -0.01265 0.004536 -0.01089 -0.00252
0.01115 0.0001122 0.003754 -0.01793 0.00977 0.006435 -0.008965 -0.01212
-0.00225 -0.005596 -0.003723 -0.004154 0.011925 -0.00094 0.00434 0.00885
0.005013 -0.01193 0.0006523 -0.003727 0.005672 -0.0062 -0.0005727 0.0169
0.002335 0.02197 0.01398 0.001423 0.00302 -0.012314 0.003105 -0.002405
-0.01627 -0.001313 0.01315 0.004684 0.01059 -0.002403 0.00643 -0.0006843
0.00513 0.0142 0.02757 -0.00955 0.00628 0.007053 -0.002167 -0.0225
0.005116 -0.00192 0.012115 -0.01624 0.00786 -0.0026 0.01026 -0.01746
0.001661 -0.004486 0.007084 -0.004997 -0.011345 -0.0094 0.001842 -0.006126
-0.006996 0.002604 0.001448 -0.001546 0.00342 0.00719 -0.00221 -0.005398
-0.00942 0.001776 0.00493 0.00332 0.012764 -0.0002317 -0.004845 0.01081
00000000: e9a1 cca1 cb20 9422 7a94 bba4 251e e020
00000010: 6f23 6fa2 e8a0 9aa0 1c89 031f 8fa0 8894
00000020: 0d19 6121 dea3 d222 801f b21e 1319 1b94
00000030: 7c9f 3b9a 59a1 618f 299f b29c 29a0 fc9d
00000040: dd22 0a24 03a1 039c 74a1 e422 30a1 14a7
00000050: 98a2 c5a2 3c26 2e1b 8d96 5b20 f79d b51d
00000060: 1486 0ea5 8b26 5c25 da24 a89f 4424 6428
00000070: eb24 3f24 7e26 6ca7 aa24 1ba6 1924 6da5
00000080: 4a14 351c b198 1d24 431c 4a98 4993 c094
00000090: 5d1e fb98 9e9c 8f1c 6fa2 fa9f 77a1 d99a
000000a0: 8b1d 6722 939d 8f1c 8296 db1f c71a e9a1
000000b0: 6ea3 cb00 1f22 0920 02a1 6a1b b39d e3a1
000000c0: cf1f a40a 6620 2921 a691 c81c e4a2 a5a0
000000d0: 19a3 6495 f01a 4b21 229e 8a95 979d fea4
000000e0: e4a1 ad9b 0d20 9f1d 7498 d79f 1e00 16a1
000000f0: ada0 8524 ab24 a418 1999 359f 74a0 181c
00000100: 35a4 0617 8221 4926 0c23 d41c 24a3 8b1a
00000110: bca0 271f 1215 5d13 f021 6aa0 c39c e718
00000120: 8718 f89e f123 d127 4720 4514 4a9d 2a1e
00000130: 6f98 7420 8d22 b6a0 639d 06a2 9917 5f05
00000140: cb9b 5724 a0a4 dca0 bb94 70a0 d49d 1fa3
00000150: 3695 051b f89a 6fa0 7aa2 a51c 93a1 2999
00000160: b521 5a07 b01b 97a4 0121 971e 97a0 35a2
00000170: 9c98 bb9d a09b 419c 1b22 b393 721c 8820
00000180: 221d 1ca2 5811 a29b cf1d 599e b190 5424
00000190: c818 a025 2823 d415 2f1a 4ea2 5c1a ed98
000001a0: 2aa4 6195 bc22 cc1c 6c21 ec98 961e 9b91
000001b0: 411d 4523 0f27 e4a0 6e1e 391f 7098 c3a5
000001c0: 3d1d dd97 3422 28a4 0620 5399 4121 78a4
000001d0: ce16 989c 411f 1e9d cfa1 d0a0 8b17 469e
000001e0: 2a9f 5519 ee15 5596 011b 5d1f 8798 879d
000001f0: d3a0 4617 0c1d cd1a 8922 988b f69c 8921

lora_unet_up_blocks_1_upsamplers_0_conv.lora_down.weight f2 [16, 640, 3, 3]
0.05328 0.0449 -0.02446 -0.0927 -0.146 -0.03278 -0.02388 -0.11633
0.09314 -0.07367 0.03047 -0.0493 0.01921 -0.0603 -0.007378 -0.02534
0.0127 -0.06195 0.0529 0.1677 -0.05576 -0.0938 -0.02904 0.04437
0.07697 -0.0733 -0.06854 -0.1365 -0.03757 -0.005066 -0.03017 -0.0712
0.06177 -0.02264 -0.1525 0.05475 -0.04092 0.0495 -0.0001172 -0.10266
-0.1451 -0.014984 0.06168 0.1628 -0.0705 0.0324 -0.01662 0.1087
0.11816 0.04718 -0.0796 -0.01309 0.02287 0.02795 -0.02774 -0.0634
-0.03738 0.1475 -0.0391 0.02962 0.00915 0.01634 0.01588 0.006123
-0.00744 0.002403 -0.03708 -0.01701 -0.01773 -0.03302 -0.02931 -0.0439
-0.02405 -0.0721 -0.01924 -0.09644 -0.03415 0.02594 0.01749 -0.03668
0.0663 0.1185 0.0657 0.003157 0.015526 -0.06964 0.06027 4.09e-05
0.0635 0.03107 -0.01069 0.0427 0.00891 0.0327 0.03467 -0.00453
-0.03995 0.0432 0.0933 -0.092 0.01375 0.03595 -0.02318 -0.128
0.04175 -0.03915 -0.0331 0.01375 -0.0424 -0.011894 -0.04288 0.01143
0.02841 -0.02301 -0.04102 -0.0149 0.00983 0.0723 0.00871 0.02473
-0.03577 -0.0799 0.0445 -0.00204 -0.03998 -0.06216 -0.05557 -0.04562
-0.12103 0.01508 0.03079 -0.04306 0.006546 -0.1339 -0.04504 0.05557
0.0511 0.04037 0.0649 0.04718 0.03418 0.0825 0.1697 0.1282
0.03137 -0.0347 -0.0712 0.04724 -0.06015 -0.03793 -0.03632 -0.1555
0.1271 -0.02405 0.02464 0.0921 -0.05887 0.0866 0.0709 -0.01854
-0.005478 0.1054 0.02087 -0.0767 -0.0496 -0.00935 -0.0389 0.003185
0.01193 -0.002003 0.103 0.01509 -0.0666 0.11694 0.0266 -0.02853
0.02881 -0.003868 -0.0134 -0.0691 0.00117 -0.0423 0.02219 -0.0706
-0.01292 0.003773 -0.0137 0.05606 -0.01035 0.0325 0.0653 0.004326
0.06476 0.1206 -0.001577 0.0953 0.0694 -0.03102 0.005505 0.0002835
0.10065 0.038 -0.004925 0.04016 0.04324 0.00074 -0.005074 0.0638
-0.02716 -0.05585 0.04712 -0.06033 0.0415 0.0244 -0.0951 -0.01193
-0.03607 0.0347 0.0381 0.1112 -0.06046 -0.0763 0.0359 -0.09296
0.00958 -0.1067 -0.06995 -0.06354 -0.0456 0.04965 -0.0644 0.01424
-0.0654 -0.09174 -0.01243 0.1268 0.0398 -0.12164 -0.07745 -0.1237
0.003534 0.05817 0.03357 -0.09106 0.0352 -0.0798 0.00443 -0.1555
-0.04276 0.00629 -0.09143 -0.0696 -0.1201 0.007545 0.01898 0.04422
00000000: d22a bf29 43a6 efad acb0 32a8 1da6 72af
00000010: f62d b7ac cd27 4faa eb24 b8ab 8e9f 7da6
00000020: 8122 eeab c52a 5e31 23ab 01ae 6fa7 ae29
00000030: ed2c b1ac 63ac 5eb0 cfa8 309d b9a7 8fac
00000040: e82b cca5 e1b0 022b 3da9 562a ae87 92ae
00000050: a5b0 aca3 e52b 3631 83ac 2628 41a4 f52e
00000060: 902f 0a2a 18ad b4a2 db25 2827 1aa7 0fac
00000070: c9a8 b830 01a9 9527 af20 2f24 1124 451e
00000080: 9e9f ec18 bfa8 5ba4 8aa4 3aa8 81a7 9fa9
00000090: 28a6 9dac eda4 2cae 5fa8 a426 7a24 b2a8
000000a0: 3e2c 962f 342c 771a f323 75ac b72b ae02
000000b0: 102c f427 79a1 7729 9020 3028 7028 a49c
000000c0: 1da9 8829 f92d e3ad 0a23 9a28 efa5 19b0
000000d0: 5829 03a9 3da8 0a23 6da9 17a2 7da9 da21
000000e0: 4627 e4a5 40a9 a1a3 0821 a12c 7620 5526
000000f0: 94a8 1dad b229 2e98 1ea9 f5ab 1dab d7a9
00000100: bfaf b923 e227 83a9 b41e 49b0 c4a9 1d2b
00000110: 8a2a 2b29 272c 0a2a 6028 482d 6e31 1a30
00000120: 0428 71a8 8fac 0c2a b3ab dba8 a6a8 fab0
00000130: 1130 28a6 4f26 e52d 89ab 8b2d 8a2c bfa4
00000140: 9c9d bf2e 5825 e9ac 59aa caa0 fba8 861a
00000150: 1c22 1a98 982e ba23 43ac 7c2f cf26 4ea7
00000160: 6027 ec9b dca2 6cac cb14 6aa9 ae25 85ac
00000170: 9da2 ba1b 04a3 2d2b 4da1 2928 2e2c 6e1c
00000180: 252c b82f 7696 192e 712c f1a7 a31d a50c
00000190: 712e dd28 0b9d 2429 8929 1012 329d 152c
000001a0: f4a6 26ab 082a b9ab 5029 3f26 16ae 1ca2
000001b0: 9ea8 7128 e028 1e2f bdab e2ac 9828 f3ad
000001c0: e820 d4ae 7aac 11ac d6a9 5b2a 1fac 4a23
000001d0: 30ac dfad 5da2 0f30 1829 c9af f5ac ebaf
000001e0: 3d1b 722b 4c28 d4ad 8128 1bad 891c fab0
000001f0: 79a9 711e daad 74ac b0af ba1f dc24 a929

lora_unet_up_blocks_1_upsamplers_0_conv.lora_up.weight f2 [640, 16, 1, 1]
-0.02228 -0.01503 0.003199 0.002275 0.00798 0.00578 0.0017805 -0.01917
-0.0147 0.002876 0.01458 0.00703 -0.01067 0.004814 -0.02138 -0.003283
0.01588 0.01796 0.003258 -0.0002229 0.003956 -0.01909 0.000777 -0.005806
0.00685 0.0008507 -0.02315 0.01032 -0.01482 -0.01479 -0.01493 -0.01343
-0.001557 0.01211 -0.0086 0.011826 2.52e-05 -0.004044 -0.03693 0.01528
0.0003805 -0.001902 -0.00972 -4.38e-05 -0.001535 -0.007156 -0.013504 -0.005142
-0.00977 -0.01188 0.00673 -0.00609 0.002869 0.00574 -0.01588 0.02272
-0.01103 -0.004475 -0.0002728 0.000864 0.004333 -0.00296 0.00996 0.01106
0.001661 0.00218 0.005344 0.02296 -0.01712 0.02081 -0.002272 0.01082
0.01362 -0.02608 0.004913 0.001982 -0.00521 -0.009415 -0.00759 0.00269
0.004436 0.01662 0.01235 0.0098 0.012596 0.003344 0.025 -0.01062
0.006805 0.01259 -0.02045 0.02104 0.00881 0.01845 -0.01535 -0.02359
0.0004494 -2.36e-05 0.001821 -0.0003557 0.0004852 -0.0248 0.0236 -0.01555
0.02223 0.0178 0.02992 0.00587 -0.01356 -0.010086 -0.01697 -0.00372
0.001133 -0.011154 0.02055 0.0218 0.01765 -0.001987 0.00763 -0.02309
-0.01549 0.01546 0.004364 0.002625 0.012115 -0.02087 -0.01799 0.000956
-0.00654 -0.01493 0.00777 0.0001652 0.002823 -0.01334 -0.004005 -0.0089
0.007336 0.02147 0.003399 -0.002731 -0.00928 0.01591 -0.007515 0.007
-0.03107 -0.00225 0.01729 0.003841 -0.007282 -0.01643 -0.01567 0.01359
-0.0399 0.0194 0.03226 0.005646 0.013374 0.00358 -0.03635 -0.01542
-0.00792 -0.00338 -0.01611 0.001722 -0.01595 0.0019 -0.0008307 -0.00868
-0.00565 -0.002546 0.01016 0.00956 -0.002832 -0.00612 -0.01683 -0.002745
0.003149 0.00201 0.02887 -0.000331 0.007595 -0.006145 -0.01309 0.012474
-0.005184 0.01706 -0.01598 -0.0066 0.01787 -0.01797 0.01084 0.01023
-0.012825 0.00842 -0.01607 0.01279 -0.01123 -0.006607 -0.01302 0.00514
-0.00969 -0.00494 -0.00875 0.004684 0.01207 -0.01 -0.0084 0.00872
0.01924 0.002422 -0.002666 -0.02435 0.01622 -0.02084 0.009125 -0.012115
-0.001342 0.000514 0.03073 0.02097 0.01575 0.01558 -0.015465 -0.002083
0.01619 0.006496 -0.01027 -0.002016 -0.01941 0.01794 0.010124 -0.0214
0.00467 -0.01491 0.000799 -0.001963 0.00397 0.01656 0.03632 0.02196
0.0186 0.02046 -0.02663 -0.007534 -0.01146 -0.005684 0.014854 -0.02287
0.00696 -0.009796 -0.00473 -0.0002041 0.01207 0.0003934 0.007103 -0.001672
00000000: b4a5 b2a3 8d1a a918 1620 eb1d 4b17 e8a4
00000010: 87a3 e419 7723 331f 77a1 ee1c 79a5 b99a
00000020: 1124 9924 ac1a 4e8b 0d1c e3a4 5d12 f29d
00000030: 041f f812 eda5 4921 96a3 93a3 a5a3 e0a2
00000040: 6196 3322 67a0 0e22 a701 249c baa8 d323
00000050: 3c0e ca97 faa0 df82 4a96 549f eaa2 449d
00000060: 01a1 15a2 e41e 3c9e e019 e11d 11a4 d125
00000070: a6a1 959c 788c 1413 701c 109a 1921 aa21
00000080: ce16 7718 791d e125 62a4 5425 a798 8a21
00000090: f922 ada6 081d 0f18 569d d2a0 c69f 8219
000000a0: 8b1c 4124 5322 0521 7322 d91a 6626 70a1
000000b0: f81e 7222 3ca5 6325 8320 b924 dca3 0aa6
000000c0: 5d0f 8c81 7517 d48d f30f 59a6 0b26 f6a3
000000d0: b125 8f24 a927 031e f1a2 2aa1 58a4 9e9b
000000e0: a414 b6a1 4325 9525 8524 1298 d01f e9a5
000000f0: eea3 ea23 781c 6019 3422 58a5 9ba4 d513
00000100: b29e a5a3 f51f 6a09 c819 d5a2 1a9c 8fa0
00000110: 831f 7f25 f61a 9899 c0a0 1324 b29f 2b1f
00000120: f4a7 9c98 6d24 de1b 759f 35a4 03a4 f522
00000130: 1ba9 f724 2128 c81d d922 551b a7a8 e5a3
00000140: 0ea0 ec9a 20a4 0e17 15a4 c817 ce92 72a0
00000150: c99d 3799 3421 e520 cd99 449e 4fa4 9f99
00000160: 731a 1e18 6427 6c8d c71f 4b9e b4a2 6322
00000170: 4f9d 5e24 17a4 c29e 9324 9aa4 8d21 3d21
00000180: 91a2 5020 1da4 8c22 c0a1 c49e aba2 431d
00000190: f6a0 0f9d 7ba0 cc1c 2e22 1fa1 4da0 7720
000001a0: ed24 f618 7699 3ca6 2724 56a5 ac20 34a2
000001b0: 7f95 3610 de27 5e25 0824 fa23 eba3 4498
000001c0: 2524 a71e 42a1 2198 f8a4 9824 2f21 7aa5
000001d0: c81c a2a3 8c12 0598 111c 3d24 a628 9f25
000001e0: c324 3d25 d1a6 b79f dea1 d29d 9b23 dba5
000001f0: 211f 04a1 d89c b08a 2e22 720e 461f d996
