models/res_adapter/sdxl/resolution_normalization.safetensors (safetensors, 272832 bytes, 68 tensors)

down_blocks.0.resnets.0.norm1.bias f4 [320]
00000000: ae6f f2bc b984 17be 3b7d 3dbd 76a7 b33c
00000010: 6ba6 003d 5f23 dbbd 6a56 80bd 4ac8 313d
00000020: 7d00 0f3d a858 96bd 32db 123d 080a 2cbd
00000030: 287a 0e3d 2cfa b03d 7d73 9abd 24e9 34bc
00000040: c5b2 913c 4ef5 41bd 1f5d 353c 8040 fa3c
00000050: 5895 a6bd 023e 0fbd 65d7 89bc ce69 5d3d
00000060: 82e2 5abc b2eb c3bd 7df1 67bd 1e5c 853c
00000070: 033b cabc c246 3b3d d6f7 38bd 1092 a43c
00000080: 329d 16be f959 123b 016d fabc bacc e4bb
00000090: 4721 2a3d 9783 cabd b14d fdbd ee64 2bbd
000000a0: 146d 76bd 1148 7fbd 2fa5 3bbd 3310 b6bc
000000b0: 16e6 d4bd 6b5d dcbb fe5e 11bd a520 f53b
000000c0: 0d02 253c 4493 263c e66f 0f3d fa6e cbbd
000000d0: 82e0 eabd 5eca 4c3d f37a 0abe d55c 90bd
000000e0: c84c 4bbd b55f 7a3c 2209 27bc 9125 b0bd
000000f0: 5fba 29bd e568 2d3d 9638 02be 1cf8 0fbd
00000100: 612c 3c3c 1db9 10bd 5e60 1a3d 4a4d 52bd
00000110: c015 d7bd 5aed 243d c4fc 80bd c54f 823d
00000120: 7148 cbbc cccc aebd ba68 b8bc 4cc2 183d
00000130: cb58 223d 1e55 99bd 267a 323d 09e8 d1bc
00000140: 29df 68bc b15a 0fbe ad68 dcbd 7b40 0e3b
00000150: 608b 34bd 9e72 a7bd a2b9 19be bee5 6cbd
00000160: 913e 63bd ea22 19be 0a86 c7bd 51b5 71bd
00000170: ab96 ae3c 74ec 1a3c ec94 6f3c 4f37 88bd
00000180: 7648 97bd 9a5e 86bd 2461 c0bd 03d4 a8bd
00000190: 6fe1 82bd 4df9 0fbe 53b3 583d 6625 863c
000001a0: 174b 22bc 8248 29be be86 b4bb 20a2 9c3c
000001b0: e668 32bd 727f 413d d91f 933c bf2f 3e3d
000001c0: 1b09 19bc 5aec 443d aefd c8bc 9c08 2c3d
000001d0: c1f3 6a3c bd3d 16bd 5b2a 3bbd a98e 8bbb
000001e0: b0c0 19bc 9291 993c 6a1d 0c3d c11b 51bd
000001f0: 97cf 83bd 8215 c1bd ac4b 08bd e149 44be
00000200: 8f28 b0bd 94dc 8ebd f7f6 afbb b716 2abe
00000210: f6a7 323d 88cb 11bd 149d d3bc 3f18 1abd
00000220: 8d87 503d 6311 f9bd 0e3d 34bd b8c7 0b3d
00000230: 9553 29bd bb96 41bd fc75 c23c 3c52 95bb
00000240: e46b 53bd 64aa a2bd ee81 37bd 5552 493a
00000250: 7ccf 7b3d 713a 403d 35ac 1abe 0e94 cebd
00000260: 4292 e13c 3deb 1d3d d8ac 023d 9c2b 01bd
00000270: 01dc 803b a0a2 c8bd 0388 34bc 8b83 0dbd
00000280: b638 98bd 12fd 923c 8e85 143c 0d8b b4bd
00000290: bde3 d1bd 1c3f 12bd 99f5 943c 4538 68bd
000002a0: 5a76 78bd 5f52 57bd 7a22 0f3d 40fc e73b
000002b0: 8434 3dbd 0efd 22be c45f e23c b3d5 fbbb
000002c0: 1e20 5e3c 16f2 bbbd dbb6 88bd 4c4a acbd
000002d0: 2225 92bc 38e1 bcbd 92ae 06be 3ae1 0bbd
000002e0: 8005 cebc 419d 283d b124 a7bd 6caa d8bd
000002f0: 5a2d 44bd 3226 10be 5672 463b b2b9 80bd
00000300: 5870 92bd 34b9 14be 0f5a fbbc d3c5 f1bc
00000310: 2f2f 70bd 8d84 de3c 9bd9 0e3d 8685 4fbc
00000320: 9682 c5be a828 4c3c a20e 0bbe a39d 33bc
00000330: 46a6 323d 97c1 9bbc f7d0 963c 9072 52be
00000340: 1329 3abe 91da 01bd bf56 90bd 6461 48be
00000350: 6879 febc 66e5 95be 921f a1bd 6c3e 0bbd
00000360: 4ce7 fbbb 9193 b2bd 3925 20be 03a4 3abb
00000370: 665a f4bd 9910 7f3d a094 78bd 9fc2 debb
00000380: 5c39 d6bd 3971 ff3c 2a15 9bbd b615 9dbd
00000390: 6913 883c e778 82bd 5aca 98bd 7c29 8dbd
000003a0: c2f6 f8bc 0b7c f9bc 804c 08be 357e 54be
000003b0: 86a7 7a3d bf74 00bd 315a 1cbe 28f5 33bd
000003c0: c799 bb3c 9650 debc e8d8 51bd 3b2c 593d
000003d0: 0955 9dbd c169 64bd 83d6 05be 0a1c fbbc
000003e0: ca08 6abe 0748 14bd 674c f8bd 939a bebd
000003f0: e58c 4fbd 77ae aabd 4b69 c3ba b60a f33c
-0.029594269 -0.14796723 -0.046262007 0.021930438 0.03140871 -0.10700106 -0.06266482 0.0434039
0.034912575 -0.073411286 0.035853572 -0.042001754 0.034784466 0.086414665 -0.07541559 -0.011041913
0.01778544 -0.04735308 0.011069565 0.030548334 -0.08133954 -0.034971245 -0.01682634 0.05405598
-0.013359668 -0.0956644 -0.056626786 0.016279276 -0.024686342 0.045721777 -0.04515823 0.02008918
-0.14708403 0.002233146 -0.030569555 -0.006982413 0.041535642 -0.0988838 -0.12368334 -0.0418443
-0.06016262 -0.062324587 -0.04581183 -0.022224521 -0.10395448 -0.0067250035 -0.035490982 0.007480698
0.01007129 0.010166947 0.035018824 -0.099332765 -0.11468603 0.04999768 -0.13523464 -0.07048956
-0.04963377 0.015281607 -0.0101950485 -0.08600915 -0.041437503 0.042336363 -0.12716898 -0.035148725
0.01148519 -0.035332788 0.03768956 -0.05134324 -0.10502195 0.04026542 -0.06298211 0.06362871
-0.024814816 -0.08535156 -0.022510875 0.03729467 0.03963546 -0.07486938 0.04357352 -0.025623338
-0.014213362 -0.1399944 -0.10762153 0.0021705914 -0.04407823 -0.08176158 -0.1501222 -0.057836287
-0.05547959 -0.14954725 -0.09742363 -0.059010807 0.021312078 0.009455789 0.014622908 -0.06651174
-0.07386868 -0.065610126 -0.09393528 -0.08243563 -0.06390654 -0.14059944 0.052905392 0.016375255
-0.009905598 -0.16531566 -0.0055092266 0.019120276 -0.04355707 0.047240682 0.017959522 0.046432253
-0.00934055 0.048076965 -0.024535026 0.042000398 0.014340342 -0.036679972 -0.04569469 -0.00425895
-0.009384319 0.018746171 0.03420774 -0.05105186 -0.06436079 -0.094279304 -0.03327529 -0.19168808
-0.08601486 -0.06975666 -0.0053700167 -0.16610228 0.04361721 -0.035594493 -0.025831737 -0.03762078
0.05091052 -0.121615194 -0.04400354 0.034126014 -0.041339476 -0.04726289 0.0237379 -0.0045569222
-0.051616564 -0.07942656 -0.044801645 0.000767981 0.06147717 0.046930734 -0.15104754 -0.10086833
0.027535561 0.03855442 0.031903118 -0.03153573 0.0039324765 -0.09796643 -0.011018756 -0.034549277
-0.07432692 0.017942939 0.009065045 -0.08815584 -0.10248516 -0.035704717 0.018183516 -0.056694288
-0.060659744 -0.05256879 0.03494499 0.007079631 -0.04619266 -0.15916845 0.027633555 -0.007685387
0.013557462 -0.091770336 -0.06675502 -0.084126085 -0.017839972 -0.092226446 -0.13152531 -0.03415034
-0.025149107 0.041165594 -0.08161295 -0.105793804 -0.047894813 -0.1407707 0.0030280552 -0.062854186
-0.07150334 -0.14523774 -0.030682592 -0.029513275 -0.058638748 0.027162815 0.034875493 -0.012666112
-0.38576192 0.012460865 -0.135798 -0.0109628765 0.043615602 -0.01901321 0.01841019 -0.20551515
-0.18179731 -0.03170258 -0.070477955 -0.19568402 -0.03106375 -0.2927658 -0.0786735 -0.033995077
-0.007687485 -0.08719552 -0.156392 -0.0028479106 -0.11931305 0.062271688 -0.060688615 -0.006798103
-0.10460159 0.031181918 -0.07572396 -0.07670157 0.016610818 -0.063707165 -0.074604705 -0.06892678
-0.0303911 -0.030454656 -0.13310432 -0.20751269 0.06119492 -0.031361338 -0.1526878 -0.04393497
0.022900475 -0.027138036 -0.05123225 0.053020697 -0.07682235 -0.055764917 -0.13070111 -0.030653019
-0.22854915 -0.036201503 -0.121239476 -0.093068264 -0.050671477 -0.08334058 -0.0014908699 0.029668193

down_blocks.0.resnets.0.norm1.weight f4 [320]
00000000: 1647 223f e7bc 383f e1dc 2f3f 053d 333f
00000010: f612 3c3f 96e8 183f f268 383f 3adf 2f3f
00000020: ddf4 463f ce0c 2d3f c23b 4f3f 67cd 2e3f
00000030: cf0d 3a3f 0d48 3c3f ec05 213f 5284 2a3f
00000040: 316c 353f 35cd 2d3f 669d 283f 411c 2f3f
00000050: 4c29 273f fe09 293f 1577 493f 2182 413f
00000060: dadc 373f 3ae8 163f 60ff 1b3f b279 3f3f
00000070: f216 3a3f f984 433f ab03 373f 40a5 373f
00000080: 074a 233f ded3 413f f540 303f 0a71 423f
00000090: 7225 443f 0944 233f b0fc 1d3f cb64 273f
000000a0: 1778 323f d37f 263f c00b 2e3f 04ed 343f
000000b0: 425a 213f 3126 273f 01e6 423f d73b 3f3f
000000c0: cdb0 413f 057d 3c3f a0b0 3c3f 9dbb 163f
000000d0: ac55 233f 945e 3e3f f308 1a3f fa6a 2b3f
000000e0: 136f 373f 7078 3c3f 3e13 323f 5d5d 203f
000000f0: a31d 2e3f 1e40 293f b5d8 0d3f ed94 313f
00000100: 54b0 223f 5764 223f 9ab7 303f 92af 293f
00000110: 3b9d 153f adf4 333f 9147 2f3f 6e5e 413f
00000120: 2170 243f 8b4f 353f 8690 353f ab01 443f
00000130: 945f 3a3f 4956 323f 7eaa 3c3f 0c30 223f
00000140: 57ae 293f e9e7 243f b121 233f f9b8 3b3f
00000150: 2bed 373f 2dc5 383f 03e8 083f f464 213f
00000160: a066 303f b20f 293f 7824 0a3f 710b 2f3f
00000170: e5ce 2e3f 86c7 293f 26bf 453f f73e 3d3f
00000180: 237a 173f 8b13 2b3f 9fdc 2c3f 0a3a 2d3f
00000190: 024a 253f 7863 193f 8c9f 283f c7af 3d3f
000001a0: 67c6 293f 00ab 1c3f 9f92 3b3f 5e48 313f
000001b0: 2d7e 363f aac4 4a3f 85f3 313f f009 343f
000001c0: 59e8 3c3f ea69 383f 23a4 473f a594 2b3f
000001d0: a690 313f 8eb6 283f 471a 223f 0c4d 3e3f
000001e0: 70d5 303f 7c32 333f 9665 2c3f ed8e 283f
000001f0: 39fe 393f c3d4 1d3f b00b 323f 1362 fc3e
00000200: 3883 1f3f 6488 263f 67d8 423f f9af 133f
00000210: ec2a 3c3f 32fa 273f 95ff 263f 05a0 433f
00000220: 4795 493f 602e 193f 6386 2e3f cd4f 3a3f
00000230: c4e2 2c3f 8b1b 313f c5b9 313f 924f 293f
00000240: 468f 323f 41b5 1c3f 92f7 2a3f 4106 2a3f
00000250: 8827 363f a142 3b3f 8c10 073f 5049 203f
00000260: ae7e 483f bb7a 353f f252 393f be2c 253f
00000270: deb6 3d3f 94f2 1e3f 1f99 243f ee0a 223f
00000280: a96b 303f 3c08 323f 315b 343f 48c7 253f
00000290: 0111 243f 03ac 4d3f 060a 3a3f cd3a 2f3f
000002a0: 6f44 353f 365f 453f bbc6 413f 47f9 293f
000002b0: 4622 0d3f 8cdc 223f 6580 353f 02ea 473f
000002c0: 5e89 333f 1441 2a3f 23ee 2e3f c5d4 1f3f
000002d0: 74a3 383f b6c3 e33e 0c74 253f 6e66 3a3f
000002e0: 21d6 393f 8101 333f 5b50 2b3f 1e08 263f
000002f0: e703 243f b827 093f e32a 233f 90fd 1f3f
00000300: 6cb9 2c3f 37e8 0b3f 7cfe 2d3f 198a 3e3f
00000310: ea7e 373f 7efa 2d3f 1a1d 303f d27c 403f
00000320: bb20 1f3f 0a32 453f 0f93 233f 5d45 3c3f
00000330: c64a 583f 4e73 273f c762 4e3f ff30 f63e
00000340: 751e 103f 8960 3b3f bcd1 383f aff6 1d3f
00000350: 834f 2d3f 43d0 fa3e 1aa1 2b3f 4fd4 363f
00000360: 5c85 4f3f 7b63 363f 4676 213f eb3e 2c3f
00000370: e077 2a3f c8bd 3e3f 85e1 3b3f 1390 243f
00000380: 2b9c 1e3f a757 2d3f 0e8c 1d3f 70d4 293f
00000390: a62e 463f a3d6 393f 5110 1b3f 8ed4 383f
000003a0: 0039 343f f8ce 3a3f cfed 3e3f 83ed da3e
000003b0: c0d1 383f bfbe 3c3f 1e4e 0c3f 977c 273f
000003c0: d001 343f 31c6 3d3f 45f4 363f 8390 703f
000003d0: 8346 2d3f 8937 2d3f 28ac 1a3f 8ceb 5f3f
000003e0: 4055 1a3f c155 433f 2acd 193f f314 273f
000003f0: d32e 233f 6b39 273f 12a7 2b3f 7500 383f
0.6338972 0.7216324 0.6869641 0.70014983 0.7346643 0.597299 0.72035134 0.6869999
0.7771738 0.67597663 0.8095056 0.6828217 0.7267732 0.7354744 0.6289966 0.66608155
0.7086821 0.67891246 0.6586517 0.6840249 0.6529739 0.6603087 0.7869733 0.75589186
0.7182137 0.589481 0.60936546 0.7479507 0.7269126 0.76374775 0.7148997 0.71736526
0.6378483 0.7571391 0.68849117 0.75953734 0.76619637 0.6377569 0.61713696 0.6538817
0.6971449 0.65038794 0.6798668 0.7067416 0.6302835 0.6529265 0.7613221 0.74700683
0.756604 0.73628265 0.7370701 0.58880025 0.638026 0.74363065 0.60169905 0.6696011
0.7165386 0.73621273 0.6956061 0.6264246 0.6801397 0.6611346 0.55408794 0.6936787
0.63550305 0.63434356 0.69030154 0.66283524 0.5844304 0.7029522 0.68468577 0.75534713
0.64233595 0.708245 0.7092365 0.76565045 0.7280209 0.6966291 0.7369765 0.63354564
0.66281646 0.64416367 0.63723284 0.7332912 0.71846265 0.72175866 0.5347902 0.6304467
0.68906593 0.66039574 0.53961897 0.68376833 0.68284446 0.66320074 0.77244794 0.739242
0.5917074 0.66826695 0.6752414 0.67666686 0.6456605 0.599174 0.6586845 0.7409634
0.6631836 0.61198425 0.732706 0.6925105 0.7128628 0.79206336 0.69512206 0.70327663
0.73792034 0.7203661 0.7798483 0.6702369 0.6936134 0.65903556 0.63321346 0.74336314
0.6907568 0.6999891 0.6734251 0.6584309 0.7265354 0.61652774 0.69549084 0.49293575
0.623096 0.65051866 0.76111454 0.5769039 0.73502994 0.6561614 0.6523374 0.76416045
0.78743404 0.5983639 0.6817381 0.72778016 0.67533517 0.6918265 0.69424087 0.6613704
0.6974987 0.6121407 0.6678401 0.6641579 0.7115407 0.7314854 0.52759624 0.62611866
0.783183 0.70890397 0.7239219 0.64521396 0.7410716 0.62088895 0.64296144 0.6329793
0.68914276 0.69543815 0.7045165 0.64757204 0.64088446 0.80340594 0.72671545 0.684491
0.70807546 0.77098405 0.75693864 0.6639599 0.5513042 0.6361778 0.7089904 0.7809144
0.7013148 0.6650555 0.6833212 0.62434036 0.7212441 0.44485253 0.646302 0.72812545
0.7259236 0.6992417 0.6691949 0.64856136 0.64068455 0.5357623 0.63737315 0.6249628
0.6747043 0.54651207 0.6796644 0.7442947 0.7167803 0.67960346 0.68794405 0.7519046
0.6215932 0.7702948 0.6389627 0.7354334 0.84489095 0.65410316 0.8061947 0.48084256
0.56296474 0.73194176 0.7219503 0.61704534 0.6769945 0.48987016 0.67042696 0.7141771
0.81062865 0.71245545 0.63071096 0.67283505 0.66589165 0.74508333 0.7339099 0.6428234
0.61957043 0.6771187 0.6154183 0.6633978 0.7741493 0.72593135 0.6057177 0.7219933
0.70399475 0.7297206 0.7458162 0.42759332 0.72195053 0.73728555 0.548067 0.65424484
0.70315266 0.7413054 0.71466476 0.9397051 0.6768572 0.67662865 0.6041894 0.8746879
0.6028633 0.76302725 0.6007868 0.6526634 0.63743323 0.6532199 0.67051804 0.718757

down_blocks.0.resnets.0.norm2.bias f4 [320]
00000000: 7879 86be a0ea 99be 7cf8 abbe 89fa 28be
00000010: 5f53 2bbe 231a 77be dd24 7bbe 3b6b 6cbe
00000020: a037 d7bd 8236 33bd 8c3c 17be 47ff fabd
00000030: 3748 8fbe a357 99be 1fbd 6fbe 0fd5 87be
00000040: 9ec4 403c a00b 34be f00a 72be fefd 31be
00000050: a6fd 25be 1d61 9abc 655a 52be 474b 82be
00000060: caae eebd 8b1b 8abe bcd9 62be e6c7 56be
00000070: 4713 ffbd c59d 74be 55c5 0bbe 2701 07be
00000080: 7214 31be acbc 08be 2d39 50be 8d97 05be
00000090: 2957 04be dead 26be 4f16 73be d97d 3cbe
000000a0: 34bc 37be b262 66be 44b5 3dbe 9474 84be
000000b0: d1d5 53be 5132 dfbd 82c9 40be 0fae 3abe
000000c0: d5ea 3fbe 5b20 86bd f6cc 17be 4860 01be
000000d0: 3a6b 2cbe 59e3 2fbe 28da 12be b361 15be
000000e0: 0d0b 25be 4b4b 22be 116e ddbd e311 0fbe
000000f0: 33dd 37be a466 32be af79 6bbe cf0f 82be
00000100: a10d 15be 9591 8ebc 4d49 9bbd 70c6 19be
00000110: 9117 41be 798e 37be 533a 59be 564f 6abe
00000120: a9a1 80be 777a 16be b844 55bd 9708 0dbe
00000130: a6e7 8cbd be9b 63be 786f 54be 0cf5 7bbe
00000140: edee 21be 2909 bcbd d285 4abd d344 24be
00000150: f23a f5bd e426 20be 091f 0abe 6add 45be
00000160: 9d5c 30be 0fcb 67be b1c8 9ebd cc80 dcbd
00000170: 29de 7abe 472d 9dbe a8da cf3c 572a cebd
00000180: cba1 7cbe d928 59be 6722 4fbe 224a 45be
00000190: 8873 1cbe 6c2f 1cbe 1ccd 49be 19b3 58be
000001a0: f05d 3fbe f0ac 57be e05f 54be 408e 56be
000001b0: 09a9 2cbe 6411 35be abfa 923d 4bc6 39be
000001c0: 09c1 5dbe 7f03 49be f777 71be c936 64be
000001d0: eb9f 46be 4673 33be 3ca2 1bbe f65e efbd
000001e0: d317 55be 1728 40be dc2a 6abe abfb 2cbe
000001f0: 7761 91bd 9298 5dbe fa66 10be ec45 1cbe
00000200: 7e15 53be 6464 49be 6c00 51be 038d 42be
00000210: 574d 4abe 9cae 25be 1e36 2bbe c3a8 48be
00000220: d0f4 3bbe 2171 47be 3cb2 31be 899a 34be
00000230: af7e 19be 6727 2cbe c7dc 8dbe 3fdd 87bd
00000240: 7ee2 f1bd 8da2 63be b26d 6fbe d524 48be
00000250: 4bc6 27be 61dd 1ebe ad8b 95be 0cd6 90be
00000260: 7100 80be a308 82bd 0596 4abe c574 71be
00000270: c13b 8dbd bf41 56be 9e54 6fbe a1ac 4abe
00000280: 68be 15be 77cc 17be 4f43 67be 8a35 69be
00000290: b553 39be b3c3 38be 0dfe 9ebe 7e48 a6bd
000002a0: 9a49 bcbd 845f a6be 3fa0 3bbe 1fe1 97bd
000002b0: 2fb4 5ebe 335a 80be 74a0 ebbd c518 81be
000002c0: 9e32 93be d2ef 0cbe 84d7 51be c2c6 0abe
000002d0: 8f6e 3dbe 329c f0bd 8683 11be d46b 9cbd
000002e0: 671c 2fbe 172f 5cbe ed2b 43be c4fd 61be
000002f0: 8017 40be ac88 32be 1fec 93be fb65 d7bd
00000300: 0940 f0bd e583 85be 95e7 6fbe 1ce9 3ebe
00000310: 043e 24bd cea1 5cbe 5753 57be 6e0f 4ebe
00000320: 031c 65be bc8e 9cbd c1e5 36be 8a28 5dbe
00000330: 93a3 36be b397 85be 9748 8cbe d3e7 36be
00000340: acbe 4dbe f57e 70be 2f38 a7bd fad4 53be
00000350: 2aaa 45be e3f8 21be 317c 2dbe 7776 09be
00000360: 672d 64be 050c 4bbe e29e fcbd c37b 37be
00000370: 46c1 2dbe 7fe6 10be cb07 5abe 118c 34be
00000380: d6a8 63be 0e0d 61be 5820 53be a546 97bd
00000390: 581e 40be b57a babd c083 c7bd ecc3 62be
000003a0: bc4c 8abe e934 74be 3f55 62be 1d5f 19be
000003b0: cf48 09be 1d01 a0bd 64bc 8ebe 0bd3 26be
000003c0: adf3 30be fe02 2bbe 710c 1dbe c624 26be
000003d0: 0bee 8dbd 9da7 24be 9ea6 15be 711f 1cbe
000003e0: 42f9 1abe 145a 24be 2c7a 36be ccca 2ebe
000003f0: 3aa1 2cbe 7dcc 30be 8105 abbd e7ac e3bd
-0.26264548 -0.30061817 -0.33588016 -0.16501822 -0.16731022 -0.24131064 -0.24525781 -0.2308778
-0.105086565 -0.043753155 -0.1476919 -0.122557215 -0.27984783 -0.29949674 -0.23411988 -0.26529738
0.011765627 -0.1758256 -0.23636985 -0.17382047 -0.1621004 -0.018845135 -0.20542295 -0.25448057
-0.11654432 -0.2697414 -0.22153372 -0.20974693 -0.12454849 -0.2388831 -0.13649495 -0.13184033
-0.17292956 -0.13353223 -0.20334311 -0.13046093 -0.12923874 -0.16277263 -0.23738979 -0.18407382
-0.17942888 -0.22498587 -0.18526179 -0.25870192 -0.20687033 -0.10898269 -0.18826869 -0.1823046
-0.18741925 -0.0654914 -0.1482428 -0.12634385 -0.16837779 -0.1717657 -0.14341033 -0.1458805
-0.16117497 -0.15849034 -0.10812009 -0.13971667 -0.17955475 -0.17421967 -0.22995637 -0.25402686
-0.1455598 -0.017403403 -0.075823404 -0.15017104 -0.18856646 -0.17925443 -0.21213655 -0.22881827
-0.25123337 -0.14695154 -0.05206749 -0.13772808 -0.06880121 -0.2222738 -0.20745647 -0.24605197
-0.15813799 -0.09181435 -0.049444027 -0.1604188 -0.119741336 -0.15639836 -0.13488401 -0.19322744
-0.17222829 -0.22636054 -0.077531226 -0.107667536 -0.2449881 -0.30698606 0.025372818 -0.100666694
-0.24671094 -0.21206988 -0.20227967 -0.1926656 -0.15278447 -0.15252465 -0.1970715 -0.2116207
-0.18688178 -0.21062064 -0.20739698 -0.20952702 -0.16861357 -0.17682415 0.07176717 -0.18142049
-0.21655668 -0.1963024 -0.23580919 -0.22286524 -0.19396941 -0.17524442 -0.15198606 -0.11688034
-0.2080987 -0.18765293 -0.22867912 -0.16892879 -0.07098668 -0.21640232 -0.14101782 -0.15261048
-0.20613667 -0.19667202 -0.20410317 -0.18999104 -0.19756065 -0.1617989 -0.16719863 -0.19595627
-0.18355107 -0.19476749 -0.17353147 -0.17637075 -0.14989732 -0.16811906 -0.27707502 -0.06633996
-0.11810778 -0.22229977 -0.23381689 -0.195453 -0.16384237 -0.15514137 -0.29208127 -0.28288305
-0.25000337 -0.063493036 -0.1978379 -0.235797 -0.06896163 -0.20923518 -0.23372123 -0.19792415
-0.14623415 -0.14824091 -0.2258427 -0.2277433 -0.18098338 -0.18043403 -0.310532 -0.081192955
-0.09193726 -0.32494748 -0.18322848 -0.07415985 -0.21748422 -0.25068817 -0.115052134 -0.2521421
-0.28749555 -0.13763359 -0.20492369 -0.13552383 -0.18499206 -0.11748542 -0.14210328 -0.07637754
-0.17100678 -0.21502338 -0.19059725 -0.2206946 -0.18758965 -0.17434949 -0.28891084 -0.10517498
-0.11730964 -0.2607719 -0.23428185 -0.18643612 -0.040098205 -0.21546099 -0.21027885 -0.20123073
-0.22373967 -0.07644412 -0.17861082 -0.21597496 -0.17835836 -0.260923 -0.27399132 -0.17861871
-0.20092267 -0.2348593 -0.08165013 -0.20686713 -0.19303194 -0.15817599 -0.16941907 -0.13424097
-0.22282945 -0.19828804 -0.12334992 -0.17918305 -0.16968259 -0.14150427 -0.21292035 -0.17631556
-0.22232375 -0.21977636 -0.20617807 -0.07386521 -0.18761575 -0.09105436 -0.09741926 -0.22145051
-0.2701167 -0.23848309 -0.22102831 -0.14977689 -0.1340668 -0.07812712 -0.27878106 -0.16291444
-0.17280455 -0.1670036 -0.15336777 -0.16224965 -0.06930169 -0.16079564 -0.1461434 -0.15246369
-0.15134147 -0.16049987 -0.17820042 -0.17069548 -0.16858378 -0.17265506 -0.08350659 -0.11116963

down_blocks.0.resnets.0.norm2.weight f4 [320]
00000000: ceaf 423f b598 203f d51e b13e 5e57 2b3f
00000010: d22c 133f 9a33 df3e 9d5b d43e 3b73 403f
00000020: 95cd 253f 98ca 3c3f ff1c 833f 666b 793f
00000030: 109d cf3e e3c0 c03e 67a5 e73e 6002 d53e
00000040: bc09 3c3f 500e 683f d082 d43e 22bf 3c3f
00000050: 0198 e83e e8b7 3b3f af6c fe3e 787c ef3e
00000060: af39 373f f618 f93e 07cf 003f bc27 fa3e
00000070: bf94 513f f9a3 e23e b970 123f 98d0 153f
00000080: 6eac 0b3f ba88 143f 0f82 593f 926a 233f
00000090: 749e 333f a35f 1b3f 7d1a f33e 19b8 073f
000000a0: 87eb 6f3f 753b d93e 23c0 fb3e ee70 cf3e
000000b0: c7b7 e73e d823 1d3f 053c fa3e 0ef4 883f
000000c0: 5894 f23e e6e7 4c3f fd02 043f 05b8 563f
000000d0: 0d75 083f fed8 fb3e b17d 043f 77b7 003f
000000e0: 1dda f83e 8729 013f 93f8 913f 3ee3 093f
000000f0: edb8 f93e 38a9 083f 8342 e33e 5e9e dc3e
00000100: 982b 113f 0920 163f d1b0 363f f00c 513f
00000110: 10bb ff3e 7f6b 233f 3554 f33e 6f14 f53e
00000120: 087f e43e 42da 203f 66f8 453f 6602 4d3f
00000130: 97b8 173f 5e06 003f 0f92 143f f388 e53e
00000140: 7420 023f c93a 223f d25a 2a3f 8708 273f
00000150: 2cf8 363f d934 153f e738 713f 3ece fb3e
00000160: a1ed ff3e 6de3 3a3f e6f9 213f 639a 453f
00000170: 13b6 ee3e 3da8 263f 8b68 3d3f fa24 093f
00000180: bd93 f03e fba5 f13e cfb6 0a3f 3e08 073f
00000190: 25ab 263f 051b e23e bc88 d33e 1f20 8e3f
000001a0: f0d4 f33e 1e8c d63e c077 c83e b024 d83e
000001b0: 7758 8e3f 238e e93e 0b4d 4a3f aa15 023f
000001c0: 9f2a e33e f95b 053f 5d1e e93e bdf5 e73e
000001d0: e990 ff3e 32bf f93e 636d 043f d9db 8c3f
000001e0: 1ad4 fe3e 9333 183f 7ad8 e33e 7685 3b3f
000001f0: acf2 113f cc3f fa3e b028 173f 4cb2 0b3f
00000200: a56d 3b3f cb82 0b3f 1fdf 7e3f a20b fd3e
00000210: 83a7 553f 2c00 043f 5fd7 023f cd97 fc3e
00000220: 1092 033f 29d4 fc3e 3b69 2d3f ed2f ff3e
00000230: 768b 203f 84b9 223f 47af cd3e a498 8e3f
00000240: 1430 f53e 0911 dd3e 69c3 dd3e 34af dd3e
00000250: 3b85 043f 3eda 883f d4ee fd3e 78a5 c73e
00000260: e937 db3e 7955 1b3f d0dd 4d3f 8ba6 213f
00000270: c854 4a3f e3bb 103f dd88 e93e 4d0a ea3e
00000280: 1732 183f e4d4 393f 8b9a 093f b3b3 ed3e
00000290: db58 083f 743d 543f f0cd b33e 784f 2b3f
000002a0: e059 493f 6428 c43e aaa8 363f fde1 473f
000002b0: 7c92 f83e 7639 e63e 684f 843f 4bd0 cc3e
000002c0: 8a1b cb3e 8a8e 633f d456 123f 3d14 333f
000002d0: c024 103f 7451 193f e640 143f eadc 893f
000002e0: 46ce 0a3f 0519 f13e 2399 013f 315e ef3e
000002f0: 667b 053f d2cb 1f3f 7009 bc3e 5a78 2b3f
00000300: d65f 9e3f 7a94 c73e a466 d13e c998 003f
00000310: 856e 833f dede f73e c95e f13e 67ff 2f3f
00000320: b5a3 ff3e 2aeb 1e3f 4b82 1e3f 2a8d 4e3f
00000330: b30b 373f e496 d73e 7c51 dd3e dd0c 503f
00000340: 56b1 0b3f 35e6 473f 0d3a 473f d16a ef3e
00000350: db97 fb3e 6e57 013f 8bfe 063f 8dd8 f13e
00000360: 51ff e73e 49e3 f43e ff2a 873f 1f88 023f
00000370: 2de2 3b3f 3967 0b3f da29 fe3e f287 003f
00000380: 9c7f f13e 3b9f e73e e936 ee3e caee 293f
00000390: 5c20 063f 2d80 2a3f a37f 203f ff49 523f
000003a0: 2475 da3e 05b0 ec3e a802 f23e 29a4 373f
000003b0: abf3 253f 9a06 2f3f 7b3e d83e ae05 0b3f
000003c0: 9d5b 073f ddd9 033f 9804 073f fed7 063f
000003d0: d360 3b3f 3fb7 083f dca1 163f e121 0a3f
000003e0: d7c9 0b3f f30f 8a3f e91d eb3e 02f5 063f
000003f0: 39aa 033f 2e54 013f cfdd 473f 5ac4 123f
0.76049507 0.6273301 0.34593835 0.66930187 0.57490265 0.43594056 0.41476145 0.7517583
0.6476682 0.73746634 1.0243224 0.974295 0.40549517 0.3764716 0.4524338 0.41603374
0.73452353 0.9064684 0.41506052 0.73729146 0.4542847 0.73327494 0.49692294 0.4677465
0.71572393 0.48651856 0.503159 0.4885844 0.81867594 0.44265726 0.5720325 0.58521414
0.5455998 0.5802113 0.8496408 0.6383449 0.70163655 0.60692805 0.47481146 0.53015286
0.9371876 0.42428175 0.49170026 0.40515846 0.45257398 0.6138282 0.48873916 1.069948
0.47378802 0.8004135 0.5156706 0.8387454 0.53303605 0.4918899 0.5175429 0.50279945
0.48603907 0.5045399 1.1403984 0.5386237 0.487739 0.5338321 0.44386682 0.43089575
0.56707144 0.5864263 0.7136355 0.81660366 0.49947405 0.638359 0.47525182 0.47867152
0.44628167 0.62833035 0.7733215 0.80081785 0.59266037 0.50009716 0.5803537 0.44831046
0.5083077 0.6337095 0.6654483 0.65247387 0.7147243 0.58283764 0.9422745 0.49180788
0.49985984 0.73003274 0.6327194 0.771887 0.46623287 0.6510046 0.73987645 0.53572047
0.46987715 0.47196946 0.54185194 0.5274695 0.65104896 0.4416124 0.41315258 1.1103553
0.47623396 0.41903776 0.39153862 0.4221549 1.1120747 0.45616254 0.7902381 0.50814307
0.44368455 0.52093464 0.45530978 0.4530467 0.49915245 0.48778683 0.5172941 1.1004592
0.49771196 0.59453696 0.44501096 0.7325052 0.5701091 0.48876798 0.5904646 0.54568934
0.7321418 0.5449645 0.99559206 0.49422938 0.8345873 0.5156276 0.5110988 0.49334565
0.5139475 0.49380615 0.67738694 0.49841252 0.627128 0.63564324 0.40172789 1.1140332
0.47888243 0.4317706 0.4331315 0.43297732 0.51765794 1.0691602 0.49596274 0.3899343
0.42816094 0.60677296 0.80416584 0.6314475 0.79035616 0.5653669 0.4561223 0.45710984
0.5945143 0.7259047 0.5375144 0.46426162 0.5326058 0.8290627 0.35118055 0.66918135
0.78652763 0.38312066 0.7135111 0.78079206 0.4854926 0.44965714 1.0336733 0.40002665
0.39669448 0.8888937 0.5716374 0.69952756 0.56306076 0.5988991 0.5791153 1.0770543
0.54221 0.470894 0.50624293 0.4675155 0.52141416 0.6242038 0.3672595 0.66980517
1.2372997 0.38980466 0.4089862 0.5023313 1.0268103 0.48412222 0.47142628 0.6874909
0.49929586 0.6207758 0.6191756 0.8068415 0.71502227 0.42107308 0.4322623 0.8126963
0.5456747 0.78085643 0.77822953 0.46761182 0.49139294 0.5052403 0.5273215 0.47235528
0.45311978 0.47829655 1.0559996 0.50988954 0.7339199 0.5445438 0.49641305 0.50207436
0.4716767 0.4523867 0.46526268 0.6637999 0.52393126 0.6660183 0.6269476 0.8214416
0.42667496 0.46228042 0.47267652 0.71734864 0.6482493 0.6836945 0.4223517 0.5430554
0.52874166 0.5150431 0.52741385 0.5267333 0.7319462 0.5340461 0.5884073 0.53957945
0.5460486 1.0786117 0.45921257 0.527176 0.51431614 0.50519073 0.7807283 0.5733086

down_blocks.0.resnets.1.norm1.bias f4 [320]
00000000: 175f b1bd 7bb4 2abe 0008 24be 7991 8bbe
00000010: a731 f6bd 433f 33be 722a fbbd 505a d1bd
00000020: fd8f e7bd 2a56 f1bd bec0 b1bd b718 27be
00000030: c0a8 0fbe c13a 3abe e7f8 1ebe ad2b 03be
00000040: 86ca f0bd 4bec ddbd 1081 02be 7338 96bd
00000050: 5a9b 52be 48f9 45be 169d a1be b813 debd
00000060: c6d1 1bbe e9c6 76be c2d6 3dbe 136a 57bd
00000070: 9f47 08be abde 84be a726 9bbd e4d5 adbd
00000080: 4da8 ebbd a4d8 23be 9c5b fabd 434d 34be
00000090: b549 1bbe 97aa 6fbe 0276 54be 69c2 66bd
000000a0: 233c f2bd abab 9ebd 55ca 01be 74dd bdba
000000b0: 3f3f 12be 595b cebd 9d0a dfbd f3d6 1bbe
000000c0: 6c1b 78bd 0d21 20be 62fd 91be b911 5cbe
000000d0: f7c7 b5be e435 a2be 43c6 6abe a36c 70be
000000e0: bae4 4dbe 3192 93be b1f1 88be a0aa 79be
000000f0: d3eb f6bd 06b6 debd 3053 b0bd e8a5 b6bd
00000100: 839b 81bd 5d0c ddbd f29c ffbd 03be 1abe
00000110: 35d8 1abe 8e19 afbd d5bb 21be f28a 0dbe
00000120: 95db fcbd 74c7 1bbe aac6 3abe 06a8 f8bd
00000130: 0d02 b9bd 9c67 4fbe bc7b a4bd 10b9 2dbe
00000140: 447b febd 92fd c4bd fba9 00be 7b2b a0bd
00000150: 5b3a 53bd 6420 a7bd d16d bcbd fc15 323c
00000160: db0c f7bd 2f80 1ebe a6c9 19be bd79 1abe
00000170: f5dc 52be 4ef3 1fbe 7016 64be bea3 16be
00000180: c3c6 26be 8cf4 03be e2c5 2fbe a3e2 0ebe
00000190: f29e 40be b7a0 53be f4ff b3bd 4ca8 4dbe
000001a0: 5539 f4bd 41c6 37be a49e 41be 1a1a d7bc
000001b0: b1a2 18be ca13 6fbd f9fe 29be e0e1 21be
000001c0: 0993 24be f2e8 89bd 1a6b 2fbe 6510 f1bd
000001d0: 5dfd 05be cac6 3fbe 6a24 27be 81bb 33be
000001e0: 4b88 28be d1e9 27be f6c5 fcbc 909c edbd
000001f0: 0008 a4be 931b 0cbe 6a6f 09be 29f6 81bd
00000200: bc63 6bbe 2197 60be cb29 02be a8e2 3fbe
00000210: f90a ffbd deaa 07be 9974 c4bd 7f9e 9f3d
00000220: 2e9b 37be 411b 49be 4ac9 19be 7c5e 7abd
00000230: c2fb 6fbe b736 733c fe98 56be 1f61 59be
00000240: 221b 41be 6a8e 85be d394 71be c091 23be
00000250: 0683 1cbe 50de 8e3c 712e 5dbe ecf9 3dbe
00000260: 6959 2abe b938 8abe 6f34 b5bd d26c d9bd
00000270: da07 e0bd 2cee 1abe 20ed 58be b446 06be
00000280: 5270 333d a97b 07be 3de5 c8bd 5d79 34be
00000290: 353b 62be 4e59 0bbe 560e 11be 5f36 32be
000002a0: 0310 08be d7c7 3bbe fea4 40be b5db 52be
000002b0: 0952 3dbe 253d 09be 5505 c0bd 38cc febd
000002c0: 567d 59be 4ad4 44be 2db2 29be f6b3 34be
000002d0: c123 fabd b07e e6bd eabe 01be d461 41be
000002e0: bd97 07be fb47 b0bd 0922 31be 6871 1fbe
000002f0: 3aa2 f3bd dd6b 81be e2a3 33be 9922 94bd
00000300: fa54 a2bd a2d0 b1bd bfb0 6bbd ef06 48be
00000310: 63bd eebd 30be 09be 507f e0bc 63c4 c3bd
00000320: ffea 0abe 4e92 17be 2f0a a5bd 66ef e9bd
00000330: f79b ffbc 1028 14be f180 afbd 4147 12be
00000340: af80 c4bd 8cd6 9cbd 9f97 19be c99d f5bd
00000350: 2c59 09be f9b2 87be 34b7 f9bd fff1 07be
00000360: 64c7 3abe 60be adbd aee8 5fbe c674 2cbe
00000370: e0e4 7bbe a3ef 2fbe 5b37 48be 8c9b 2cbe
00000380: 8544 8ebe 1c16 11be 0618 39bc 18d8 38be
00000390: 10b0 44be 71a2 1bbe 5b6c 08be 719d adbd
000003a0: e9de a5bd 811e acbd ff91 d5bd c8d0 2bbe
000003b0: e679 453d 80de 06be aa16 a6bd c0d6 1dbe
000003c0: 49b0 e8bd 87d0 3dbe c566 5cbe 5a4e ebbd
000003d0: 3f61 b0bd a318 b3be 2c64 4bbe 3c02 09be
000003e0: 3b28 04be 4ff2 94be f95d 82be 053b e4bc
000003f0: 20ee 25be 69ce 31be cc30 12be b446 20be
-0.08660715 -0.1667041 -0.16018677 -0.27259424 -0.12021189 -0.17504601 -0.12263955 -0.10222304
-0.113067605 -0.117840126 -0.08679341 -0.16318022 -0.14029217 -0.18186475 -0.15524636 -0.1280963
-0.11757378 -0.10836085 -0.12744546 -0.073349856 -0.20567074 -0.19333375 -0.3156516 -0.10843605
-0.15216741 -0.24099316 -0.18538955 -0.052591395 -0.13308571 -0.25951132 -0.07575732 -0.08488062
-0.1150671 -0.1600061 -0.12224504 -0.17607598 -0.15164836 -0.23404919 -0.20748141 -0.056337748
-0.118278764 -0.07747587 -0.1267484 -0.0014485554 -0.14281939 -0.10076017 -0.10890696 -0.15218715
-0.060573027 -0.15637608 -0.28513628 -0.21491136 -0.35504124 -0.3168174 -0.22927193 -0.23478942
-0.20106784 -0.28822473 -0.26746896 -0.24381495 -0.12056699 -0.10874562 -0.08609617 -0.08918363
-0.0632849 -0.10793374 -0.12481107 -0.15111546 -0.15121539 -0.08549796 -0.15794308 -0.13822535
-0.123465694 -0.15212804 -0.18239847 -0.12141423 -0.09033594 -0.20254368 -0.08031413 -0.16965127
-0.12425855 -0.09618677 -0.12564842 -0.07820793 -0.051569324 -0.08160475 -0.09200633 0.010869499
-0.12062999 -0.15478586 -0.15018329 -0.15085502 -0.20592101 -0.15620157 -0.22274184 -0.147109
-0.16286759 -0.12886256 -0.1716533 -0.13953643 -0.18810633 -0.20666777 -0.087890536 -0.20083731
-0.11924998 -0.17946722 -0.18908173 -0.026257563 -0.14905812 -0.05836848 -0.1660117 -0.1580882
-0.16071714 -0.06733884 -0.171307 -0.11770705 -0.13084932 -0.18728176 -0.16322485 -0.17551996
-0.16458242 -0.16397788 -0.030856114 -0.116021276 -0.32037354 -0.13682394 -0.13421407 -0.063457794
-0.22987264 -0.21932651 -0.12711255 -0.18738806 -0.12453265 -0.13248774 -0.09592552 0.077939026
-0.1793029 -0.19639303 -0.15018192 -0.061125264 -0.23435882 0.014844588 -0.209568 -0.21228455
-0.18858007 -0.26085216 -0.23591928 -0.15973568 -0.15284356 0.017439991 -0.21599747 -0.18552369
-0.1663567 -0.269964 -0.088478915 -0.10616459 -0.109389976 -0.15129918 -0.21184206 -0.13112909
0.04380829 -0.13230766 -0.09809349 -0.17624421 -0.22092898 -0.13608286 -0.14165625 -0.17403553
-0.13287358 -0.18337952 -0.1881294 -0.20591624 -0.18488325 -0.13402231 -0.09376017 -0.124412954
-0.21239218 -0.19221607 -0.16571875 -0.17646775 -0.12213851 -0.112546325 -0.12670484 -0.18884975
-0.13241477 -0.08607479 -0.1729814 -0.15570605 -0.11896177 -0.25277606 -0.17542985 -0.072331615
-0.07926364 -0.08682372 -0.057541605 -0.19533895 -0.116572164 -0.13451457 -0.027404457 -0.09558942
-0.13566206 -0.14801905 -0.08058583 -0.11422615 -0.0312023 -0.14468408 -0.085695155 -0.14284994
-0.09594857 -0.07658109 -0.14999245 -0.11992986 -0.13412923 -0.26503733 -0.12193146 -0.13275908
-0.18240124 -0.08483577 -0.21866104 -0.1684142 -0.24599028 -0.17181258 -0.19552366 -0.16856211
-0.2778665 -0.1416859 -0.011297232 -0.18051183 -0.19207788 -0.15198685 -0.13322584 -0.08477295
-0.08099157 -0.08404256 -0.10428237 -0.16778862 0.048211955 -0.13170815 -0.081097916 -0.15413952
-0.11361749 -0.18536578 -0.21523578 -0.11489554 -0.08612298 -0.34979734 -0.19862431 -0.13379759
-0.12905972 -0.29091117 -0.2546232 -0.027860174 -0.16204119 -0.17363895 -0.14276427 -0.15651971

down_blocks.0.resnets.1.norm1.weight f4 [320]
00000000: 27be 393f 2db8 703f faef 533f bf53 853f
00000010: be56 6a3f fd50 443f da5c 433f 7ce2 393f
00000020: 31d7 693f 352e 2a3f 85c4 6a3f b353 413f
00000030: bc12 6e3f 6be0 813f 5c0e 5a3f 0cda 1d3f
00000040: 1292 4d3f c5aa 253f d4a9 5c3f b962 403f
00000050: 7cee 6d3f 7c4c 293f 3458 423f 6f02 643f
00000060: 4ef3 353f 540d 7a3f 7688 0f3f 1224 7c3f
00000070: 6ee9 253f b732 723f 209b 603f d223 413f
00000080: a192 1a3f 7805 6c3f 7de5 663f 9ce0 513f
00000090: f78e 333f 9571 0f3f 2ffc fc3e 26db 7d3f
000000a0: 14d8 303f ac63 2d3f b6f8 393f ef4e 973f
000000b0: 887a 2e3f 327d 2f3f 44e7 3d3f 6f9b 4c3f
000000c0: 503d 3e3f 188f 2b3f f72b 993f cd26 313f
000000d0: 2f37 af3f 1f31 aa3f 7d85 2b3f 2771 113f
000000e0: 9362 0d3f af99 4e3f 4b76 323f a754 8a3f
000000f0: 79c4 5a3f a0d7 423f 3b26 573f 29f7 153f
00000100: 8448 3f3f 5e9c 2d3f a282 393f dc9f 3e3f
00000110: b91f 3a3f 1c9e 6b3f f3d5 533f fea3 613f
00000120: 125e 413f 3508 2a3f 2cec 553f 4ca5 443f
00000130: c5d3 443f 889b 3f3f ae3e 5d3f a7bd 3f3f
00000140: 2b9d 323f 3d97 303f 85f9 3c3f 5fe6 433f
00000150: 40a5 3a3f d3b7 1e3f 821b 1c3f b4b9 5e3f
00000160: 877c 3e3f 8617 ec3e 053f 2a3f 25de 1a3f
00000170: 1938 843f b231 303f 80c2 7c3f 2765 583f
00000180: 8dca 5c3f b006 293f 64d6 523f 189d 623f
00000190: 4027 3e3f 512f 973f f676 653f f59c 6b3f
000001a0: 444a 363f 4aca 723f 378e 233f 07a9 663f
000001b0: fff6 1d3f 46ac 423f 1ddc 5f3f 43de 543f
000001c0: 886e 243f 66e1 6b3f 5c83 503f de40 2a3f
000001d0: baab 3f3f 29bd 693f 8347 153f b8ce 403f
000001e0: 4e77 503f 0f94 593f fe11 6f3f 1574 383f
000001f0: 00d2 bd3f f804 4a3f 4207 143f e89d 363f
00000200: 8b6a 3b3f 8c4c 563f fc99 513f 7ac9 333f
00000210: 0fe6 603f d098 303f 4876 573f a016 473f
00000220: 471e 8a3f 5334 063f 64c9 3a3f 3652 5f3f
00000230: c2ae 0f3f 098c 633f a1ea 2e3f 4f1a 113f
00000240: 4d1e 223f ab40 ae3f 7a6d 573f cf99 303f
00000250: 1ee0 4c3f 17a8 433f 7cab 5d3f 0de3 0d3f
00000260: ac0c 2f3f adea af3f b8fe 6f3f ddf6 4e3f
00000270: 35dc ab3f a792 1f3f bb29 3c3f f8c1 223f
00000280: c6b0 7b3f 1586 193f faa1 413f b524 1e3f
00000290: 521d 713f a89f 363f ff37 533f 9711 273f
000002a0: e612 363f 9fd6 463f a005 9e3f 2801 433f
000002b0: 473b 253f ee20 713f 4dce 603f c738 2c3f
000002c0: 950f 8a3f a9e0 203f 4bef 323f bff8 5e3f
000002d0: 5623 303f afd4 173f 2fd3 433f e1b4 383f
000002e0: 13d2 603f 5970 6e3f 33e9 1f3f 9275 2c3f
000002f0: eb1e 4a3f 4a62 fb3e 0c19 393f f622 333f
00000300: 7a44 223f c372 123f 8003 3f3f a5ce 733f
00000310: f005 563f 2deb 353f 1e8e 453f 1887 213f
00000320: 241e 4d3f d476 1d3f ca1c 6e3f e6b5 163f
00000330: 0eca 683f 84a1 0e3f 64e3 3d3f 16c3 dc3e
00000340: 523b 303f a8ff 1b3f 5054 393f b4b6 4b3f
00000350: 48f3 083f 1036 bd3e 8aa1 303f f450 503f
00000360: e44c 313f 982c 3b3f 09bc 063f 34b8 2b3f
00000370: f825 853f 2098 803f 27b7 683f 55de 853f
00000380: 8bd0 2b3f e8e1 233f 70be 2d3f 59ac 6e3f
00000390: cdf5 623f 37ab 3a3f 99a3 1e3f c257 3d3f
000003a0: ca20 1c3f e675 373f f0cb 433f 81ec d93e
000003b0: 564a 553f ec9e 4f3f 5a78 263f 3e5a 083f
000003c0: 0665 343f ddef 6f3f 828c 613f 0f1a 6e3f
000003d0: 2d98 383f bd55 523f d75e 1e3f 1b42 753f
000003e0: d4ea 2e3f d1e2 d03f 79fb 2b3f d18e 673f
000003f0: afe5 023f d69a 573f b482 2c3f f725 1d3f
0.72555774 0.9403103 0.8278805 1.0416182 0.9153861 0.7668608 0.76313555 0.7261121
0.9134398 0.66476756 0.91706115 0.7551834 0.92997336 1.0146612 0.8517816 0.6166084
0.8030101 0.647137 0.8619664 0.7515064 0.92942023 0.6613233 0.7591584 0.89066213
0.7107438 0.9767659 0.560676 0.9849254 0.6480931 0.94608635 0.877367 0.7544528
0.6037999 0.92195845 0.9019392 0.8198335 0.7014002 0.5603269 0.4941115 0.9916252
0.6907971 0.6773021 0.7264513 1.1820964 0.6815572 0.6855041 0.7418101 0.7992467
0.74312305 0.6701522 1.1966542 0.6919983 1.3688716 1.329624 0.6700056 0.5681328
0.5522854 0.8070325 0.6971175 1.0807084 0.85456043 0.7611027 0.8404271 0.5858026
0.74720025 0.6781672 0.72464955 0.74462676 0.72704655 0.9203813 0.82748336 0.8814086
0.75534165 0.6641877 0.83563495 0.76814723 0.76885635 0.74846697 0.86423767 0.7489876
0.6977107 0.6898077 0.73818237 0.76523393 0.729084 0.61999243 0.60979474 0.8700211
0.74408764 0.46111697 0.6650241 0.60495216 1.032962 0.6882583 0.98734283 0.84529346
0.8624657 0.6602583 0.82358384 0.88520956 0.7427864 1.1811315 0.89634645 0.9203637
0.7120707 0.9483992 0.6388888 0.90101665 0.6170501 0.7604412 0.8744524 0.83151644
0.6423116 0.92140806 0.8145044 0.6650523 0.7487141 0.9130426 0.58312243 0.7531543
0.81432045 0.84991544 0.9338683 0.7205213 1.4829712 0.7891383 0.57823575 0.71334696
0.73209447 0.8371055 0.81875587 0.70229304 0.8785104 0.68983173 0.8416486 0.777689
1.079049 0.5242359 0.7296355 0.8723482 0.56126034 0.8888555 0.68326765 0.5668077
0.63327485 1.3613485 0.8415142 0.68984693 0.80029476 0.7642836 0.8658979 0.55424577
0.6837871 1.3743492 0.93748045 0.80845433 1.3426577 0.6233315 0.73501176 0.6357722
0.9831661 0.5997022 0.7563778 0.6177476 0.94185364 0.71337366 0.8250732 0.65261215
0.71122587 0.77671236 1.2345467 0.7617364 0.64543575 0.9419087 0.8781479 0.67274135
1.0786005 0.62842804 0.6989638 0.87098306 0.6880392 0.59308904 0.76494116 0.72151
0.8782055 0.9314018 0.6246521 0.673669 0.7895343 0.49098426 0.72303843 0.6997522
0.63385737 0.5720636 0.74614716 0.9523719 0.8360281 0.71061975 0.7716998 0.6309676
0.80124116 0.6150944 0.9301268 0.58871305 0.9093331 0.55715203 0.74175096 0.4311759
0.68840516 0.60936975 0.72394276 0.7957566 0.5349622 0.3695531 0.6899649 0.81373525
0.6925795 0.7311492 0.5263067 0.67077947 1.0402212 1.0046425 0.9090447 1.0458475
0.67115086 0.6401658 0.6786871 0.9323173 0.8865631 0.72917503 0.6196838 0.7396203
0.6098753 0.71664274 0.7648306 0.4256325 0.8331655 0.8110187 0.6502739 0.532627
0.7046665 0.9372538 0.8810502 0.9300851 0.721072 0.82162076 0.61863464 0.95803994
0.6832707 1.6319219 0.6718059 0.90452296 0.5113172 0.84220636 0.6738694 0.61386055

down_blocks.0.resnets.1.norm2.bias f4 [320]
00000000: 1cba babe d0f8 55be e7be a4be 8f4f a5bd
00000010: 6416 43be 8942 a4be 55f8 b0be bf87 c5be
00000020: 858a 33be feb0 a4be 8f65 4ebe 21b4 06be
00000030: 5fec 70be 9560 7bbe c790 92be d3b1 18be
00000040: 8625 7bb9 7eed 88be 69b7 efbd b31f 4cbe
00000050: d137 50be 8279 3abe 6e50 54bd f6c7 66be
00000060: c039 513e 0d18 43be f75f 17be 879a 3cbe
00000070: f350 03be a761 01be edfe 62be cde7 91be
00000080: 2a29 82be 6cf3 a3be 2942 e7bd f559 3cbe
00000090: b03f 35be 8ee2 8abe a81b a6be 6e15 8dbe
000000a0: 0cdb e5bd 912d 61be 76fc 2abe 239f 61be
000000b0: 36ef 7fbe 155f 5abe 367b 6fbe 58b3 72be
000000c0: 3755 38be 2c76 65be e47b 9cbe 39a4 95be
000000d0: 7dcc adbe 0785 1fbe a7c7 cdbd 2242 8cbe
000000e0: 249b 90be 1a14 55be 3af9 9bbe 13f9 80be
000000f0: 570d 4fbe 92ad 61be 822d 5ebe 8594 2bbe
00000100: 87e5 b8bd 9ba5 64be ebe9 23be 1f12 64be
00000110: 1e6a 67be 7ec8 5abe 7e58 42be 583f 3bbe
00000120: 6de7 e83d b7b4 39be 3d39 52be af08 6fbe
00000130: 2c46 e3bd e1ba 4bbe 58ba 37be 5139 48be
00000140: 629d 8bbe 9a72 9abe 7ac6 7cbe 50d5 92be
00000150: 0a3e 45be 16be c1be 4c4e 98be 611e 49be
00000160: 4f8d 41be da18 1ebe 2dee 12be a982 fcbd
00000170: c349 8dbe 2ac1 9dbe aab3 43be b430 0bbe
00000180: 8417 90be 5ac9 97be ad11 bcbe 6ebc b6be
00000190: 0cbc 29be f49c 3abe 21f2 1bbe 7408 4ebe
000001a0: 66d1 40be 2473 1cbe bc2d c4bd 278d 35be
000001b0: ce28 25be a022 33be 76d7 34be 89fd 4ebe
000001c0: f5fa 5bbe 0e33 63be e945 4cbe 4ed0 61be
000001d0: 0b8f 34be 4765 68be 7ba6 43be 260d 20be
000001e0: 16c8 8ebe 5a1e 9ebe 20b6 73be 7b9c 13be
000001f0: fd84 4dbe 94ea a0be 7950 90be 6481 a7be
00000200: e085 9fbd 4463 30bd b2ba 0ebe bb44 66be
00000210: 6d95 99be f151 90be 4657 7ebd e096 43be
00000220: cd44 99be 088e 10be 0e13 acbe b107 a2be
00000230: f960 a1be a2b2 34be 88d2 143e cf49 58be
00000240: f960 88be ac19 59be 44e5 0dbd f502 8dbe
00000250: cd77 96be d29b 53bc aa0b 30be 93d1 4bbe
00000260: 2618 75be 5e42 cfbe 80b4 a3be e4f3 47be
00000270: 8be4 39be 926c 27be 7f55 bfbe 35cf 85bd
00000280: f795 7dbe cb08 cabd 1d35 65be 149f 6cbe
00000290: 0694 9bbe e567 7bbe 57fe 44be b398 81be
000002a0: 6243 84be 772f 53be 6787 89be 3332 58be
000002b0: 7cbf 47bd 6dad 9dbe 277d 58bc 9444 acbe
000002c0: eed2 34be 54be 10be ae0d 06be 5649 a4be
000002d0: 737f 87be 5a0f a2bd ae70 93be 567c 3dbe
000002e0: ced0 8bbe 5fc9 85be a36c 08be 9252 81be
000002f0: 8527 8fbe 3c54 c6bd 279e febd 0148 84be
00000300: ab02 63be 7ce4 253e 91ae 12be 730b 6fbe
00000310: 3560 2dbe 2eed ffbd 3db3 16be 74e9 17be
00000320: 8a81 8dbe 9311 afbc 3532 4bbe b5bf 86be
00000330: 81b2 76be 83bc 8ebe 26cb 45be 2ce1 41be
00000340: 7fba 6bbe 28d4 87be 0527 91be 5afd 54be
00000350: 7d44 aebe 20b3 aabe 3c68 56be c421 c6bd
00000360: 94a5 f9bd 5ac7 babe 9e65 a2be a077 b7be
00000370: 0e84 55be 5356 42bd 8ea3 73be 9975 47be
00000380: 2b6d 88be e640 77be ba21 46be 686f 77be
00000390: a286 6fbe 8c92 e5bd d0bf abbe b0b1 96be
000003a0: 8a76 5ebe 59b6 2ebe becd 43be b477 20be
000003b0: f5c5 11be 3a3c 91be 0d29 a0bd 48ba 8fbe
000003c0: e2aa bfbe fe8b 76be 8024 fbbc 224f 7ebe
000003d0: e5aa a6be 8c3c 6bbe 1ce2 9fbe 26fe 8cbe
000003e0: 8314 c6be e134 95be 7315 14be b158 0ebe
000003f0: d8d6 dcbd 25f7 fbbd d5d4 0bbe 0e33 08be
-0.36470115 -0.20895696 -0.32176897 -0.08071815 -0.1905151 -0.32082012 -0.34564462 -0.3858013
-0.1753331 -0.32166284 -0.20155929 -0.13154651 -0.23527668 -0.24548562 -0.2862608 -0.14911585
-0.00023951204 -0.26743692 -0.117049046 -0.19933967 -0.20333792 -0.18210414 -0.051834516 -0.22537217
0.20432186 -0.19052143 -0.14782701 -0.18418323 -0.12823848 -0.12634908 -0.22167559 -0.28497162
-0.2542203 -0.32021654 -0.11291916 -0.18393691 -0.17700076 -0.27125973 -0.32442975 -0.27555412
-0.112234205 -0.21990038 -0.16697869 -0.22033362 -0.24993595 -0.21325333 -0.23386845 -0.23701227
-0.18001257 -0.2240836 -0.3056327 -0.29226854 -0.33945075 -0.1557809 -0.10047846 -0.27394205
-0.28243363 -0.2080845 -0.30463582 -0.2519003 -0.20219932 -0.22038868 -0.21697047 -0.16755874
-0.09028154 -0.22328798 -0.16007201 -0.22272538 -0.22599074 -0.21365544 -0.1897907 -0.18285882
0.11372266 -0.18135343 -0.20529647 -0.23343156 -0.110973686 -0.19895507 -0.17942178 -0.19553114
-0.2726851 -0.3016556 -0.24685088 -0.2867837 -0.19261947 -0.37840337 -0.29747236 -0.19640495
-0.18901561 -0.15439168 -0.1434867 -0.12329609 -0.27595338 -0.30811435 -0.19111505 -0.13592798
-0.2814294 -0.29645807 -0.36732236 -0.35690635 -0.1657564 -0.18223935 -0.15229084 -0.20120412
-0.18829879 -0.15278298 -0.09579036 -0.17729627 -0.16128847 -0.17493677 -0.17660317 -0.20213903
-0.21482451 -0.22187445 -0.19948544 -0.22052118 -0.17632692 -0.22694884 -0.19106476 -0.15630016
-0.27887028 -0.3088253 -0.23799944 -0.14415161 -0.20070262 -0.3142897 -0.28186396 -0.32715905
-0.077892065 -0.043063417 -0.13938406 -0.22487156 -0.29996815 -0.28187516 -0.06209495 -0.19100523
-0.29935303 -0.1411668 -0.33608288 -0.31646493 -0.31519297 -0.17646268 0.14533436 -0.21121906
-0.26636484 -0.212012 -0.034642473 -0.2754132 -0.29388276 -0.012915568 -0.1719195 -0.19904165
-0.23934993 -0.40480322 -0.31973648 -0.1952663 -0.18153588 -0.1635001 -0.37369916 -0.06533662
-0.24764238 -0.098649584 -0.22383542 -0.23107558 -0.3038637 -0.24551351 -0.19237648 -0.25311813
-0.2583266 -0.20623575 -0.26861116 -0.211129 -0.048766598 -0.30796376 -0.013213432 -0.3364607
-0.17658588 -0.14135104 -0.13091156 -0.320872 -0.26464424 -0.07913084 -0.28796905 -0.18504462
-0.27307743 -0.26130196 -0.13322692 -0.2525831 -0.27959839 -0.09684035 -0.12432509 -0.25836185
-0.22168986 0.16200441 -0.14324404 -0.23344211 -0.16931231 -0.1249641 -0.14716811 -0.14835149
-0.27637893 -0.021370685 -0.19843371 -0.26318136 -0.24091531 -0.27878198 -0.19315776 -0.18933553
-0.23020361 -0.2652905 -0.28350082 -0.20799771 -0.34036627 -0.33339787 -0.209382 -0.09674409
-0.12189785 -0.36480218 -0.31718153 -0.35833454 -0.20851156 -0.047445606 -0.2379286 -0.19478454
-0.2664579 -0.2414585 -0.19348803 -0.24163592 -0.23391202 -0.11209592 -0.3354478 -0.2943244
-0.21724907 -0.17061748 -0.19121453 -0.15670663 -0.14235671 -0.28366262 -0.0782033 -0.2807181
-0.3743506 -0.2407684 -0.030657053 -0.24834874 -0.32552257 -0.22972316 -0.31227195 -0.2753765
-0.38687524 -0.29141906 -0.14461307 -0.1390102 -0.10783166 -0.123029985 -0.13655408 -0.13300726

down_blocks.0.resnets.1.norm2.weight f4 [320]
00000000: 40dd 393f fb11 5f3f e8c3 b43e d2ea 713f
00000010: a801 8b3f 438a 193f 9b91 093f 03f6 f73e
00000020: f9a5 243f 1b75 0d3f 68bd 0e3f 3311 3b3f
00000030: 7d13 e03e f5f8 dc3e 271f c03e 1d19 a13f
00000040: 4c1c 243f a151 e13e f13e 8d3f 3328 2d3f
00000050: a494 d93e f3a8 023f a409 463f e5cd e23e
00000060: 3eee 8c3f 8a67 113f fc0c 7f3f 0ee2 ef3e
00000070: f6d2 f03e f649 ee3e e263 3d3f 3783 333f
00000080: b94b 363f 72d3 c23e 53cd 593f 5763 083f
00000090: bc01 423f 2221 033f 87f0 fa3e e0b7 133f
000000a0: e019 453f d4c9 143f d1bd 753f 7a52 113f
000000b0: e49f 073f 5e85 253f f667 ee3e 965c f43e
000000c0: 6810 423f ac7e f63e 151f 263f 4253 dd3e
000000d0: 7295 f13e 5af2 943f e0b2 4f3f 824e 1f3f
000000e0: aa15 553f b6a5 243f 9039 423f 442d 003f
000000f0: a4b2 023f 73d3 f73e c7b6 f63e 2966 4c3f
00000100: d398 4b3f 31a2 053f 2099 9b3f 0ccb 063f
00000110: 5c8b f43e 9bc1 f33e c411 ec3e e0c2 193f
00000120: a5d1 393f 6527 fa3e fdf8 f43e a7c7 023f
00000130: 8f17 923f 3acb f43e 7432 e93e 846a f93e
00000140: e66e 3d3f a471 fb3e bddb 3c3f 4477 1c3f
00000150: fe39 6d3f 5367 b83e a6e7 2a3f 7c02 683f
00000160: 1a6c 563f 1c81 2b3f e170 7b3f 3db7 6a3f
00000170: d7e1 cf3e 76de d03e 064a 453f 5c62 2c3f
00000180: 4de4 f53e ea42 983f 008f 073f 3e2f 1a3f
00000190: 8fdf ff3e 06c8 113f 6b20 373f f7d0 033f
000001a0: e9cc 323f c889 073f 971e 823f feab 153f
000001b0: 0f4a 103f da0b 083f b6ec 173f 00a1 073f
000001c0: df47 063f ba3f 1d3f 61c2 093f c0fc 073f
000001d0: 2a02 573f fa34 0b3f 6136 483f bd32 193f
000001e0: 5f9b 153f 1503 1c3f a01e 2a3f 229f 1a3f
000001f0: 4e1f 323f 9966 e93e bea6 ed3e e00b e03e
00000200: 82f5 483f 37ec 473f 0085 2d3f 5ca8 443f
00000210: a55f 283f 7959 fe3e 096f 513f 2e6c 7a3f
00000220: 3313 e83e d9fa 4b3f 93d6 de3e 1ec0 d83e
00000230: 64cb c73e cc94 043f b7b1 943f 2c22 f13e
00000240: fad7 013f cdaf 763f 52aa 433f 08de d23e
00000250: 6c53 573f 0fbc 3a3f 74ba 333f 4b42 5c3f
00000260: ff1b dd3e 33d2 c83e 3beb 263f 19df 2c3f
00000270: 8745 323f fbec 923f 89cd b93e 8e31 543f
00000280: 2d5a 3d3f a14c 2b3f 5997 043f 3e20 f93e
00000290: 2eda 3a3f 3281 0f3f 71f9 873f 051b f63e
000002a0: 64f8 153f e110 613f 9153 cc3e d04c 2a3f
000002b0: 2527 3d3f 6101 203f 2bb0 733f fa43 c03e
000002c0: 54a2 073f f7e6 943f 88ad 523f 09ab c53e
000002d0: ec86 013f 4a31 4a3f 07a4 013f c1ff 9f3f
000002e0: ea58 e83e f527 f03e 3d08 803f 91a7 e83e
000002f0: d2ac e53e 634f 853f a427 1a3f 9510 ec3e
00000300: 5bd9 f63e 2bc6 253f 4157 113f a510 e83e
00000310: d6e8 013f eb92 9b3f df10 133f 969f 083f
00000320: 3107 3a3f 4116 3e3f d031 5c3f 700d fc3e
00000330: e458 e23e 6c37 263f 1db4 393f ace1 1e3f
00000340: c127 ef3e 6013 0a3f 225b 123f 1713 6a3f
00000350: 8282 ea3e dff1 c53e d4f7 4f3f 689d 583f
00000360: 1bd9 703f 42a3 1e3f c311 923f 3957 d43e
00000370: 747e f43e 0070 273f baf4 f03e c970 f83e
00000380: 15e5 dc3e 77d2 9a3f 7d9c 143f b248 043f
00000390: 3fc2 243f 4b0d 913f 0b16 f73e cc4e d73e
000003a0: 65c8 f23e 1130 603f cbba 4b3f 4f56 413f
000003b0: 573a 313f c28b d13e d4b1 633f 2d81 fc3e
000003c0: 0817 c63e f85f a23f 1386 4d3f fbfe 5b3f
000003d0: e964 413f 093b 2b3f 5865 d13e 1c54 643f
000003e0: 672e bd3e e1c2 783f f009 0f3f b723 0b3f
000003f0: 3ca7 113f 821e 0f3f 1b8e 0d3f 4c94 0f3f
0.72603226 0.8713681 0.35305715 0.9449893 1.085988 0.59976596 0.537378 0.4842988
0.64315754 0.55256814 0.5575776 0.7307312 0.43764868 0.4315869 0.37523767 1.2585789
0.6410568 0.4400759 1.1034833 0.67639464 0.42496216 0.51039046 0.7735846 0.4429771
1.1010206 0.56798613 0.9962919 0.46852154 0.4703595 0.46540803 0.73980534 0.7012209
0.71209294 0.38051945 0.85078925 0.5327658 0.75783896 0.5122243 0.49011633 0.57702446
0.7699261 0.58120465 0.9599276 0.56766474 0.5297835 0.6465663 0.4656369 0.47726887
0.75806284 0.48143518 0.6489118 0.43227583 0.4718433 1.163646 0.81132317 0.6222917
0.8323618 0.64315355 0.75869083 0.5006907 0.51053834 0.4840351 0.48186323 0.79843384
0.79530066 0.5220061 1.2156105 0.52653575 0.47762573 0.47608647 0.46107304 0.6006298
0.7258552 0.4885818 0.47846213 0.51085895 1.141344 0.478113 0.45546305 0.48714077
0.7399734 0.49110138 0.73772794 0.61119485 0.92666614 0.3601633 0.6675972 0.9062879
0.837587 0.6699388 0.98219115 0.9168585 0.4060199 0.40794724 0.77066076 0.67337584
0.48025742 1.189542 0.52952576 0.60228336 0.4997525 0.56945837 0.7153384 0.5149073
0.6984392 0.5294461 1.0165585 0.58465564 0.56363004 0.53143084 0.5934557 0.5298004
0.52453417 0.61425364 0.53812224 0.5312004 0.8398768 0.5437771 0.78207976 0.59843045
0.584402 0.609422 0.6645298 0.6039907 0.6957902 0.45586088 0.46416277 0.4375906
0.78499615 0.7809481 0.67781067 0.76819396 0.6577094 0.49677637 0.8181005 0.9782132
0.45327148 0.7967964 0.43523082 0.42334074 0.39022362 0.51789546 1.1616734 0.47096384
0.5072018 0.96362 0.76431763 0.4118502 0.84111667 0.72943205 0.7020638 0.86038655
0.43185422 0.3922287 0.65202683 0.6752792 0.6963734 1.1478571 0.36289623 0.82888114
0.7396572 0.669138 0.5179344 0.4865741 0.72989166 0.5605651 1.0622998 0.4806749
0.5858214 0.8791638 0.39907506 0.66523457 0.73887855 0.62502104 0.95190686 0.37551862
0.5298207 1.1632985 0.8229604 0.38607052 0.505965 0.7898146 0.5064091 1.2499925
0.45380336 0.46905485 1.0002514 0.45440343 0.44858414 1.0414852 0.60216737 0.461064
0.48212704 0.64755505 0.56773764 0.453252 0.50745904 1.2154211 0.5744762 0.5336851
0.72667223 0.74252707 0.8601351 0.49229002 0.44208443 0.6492832 0.72540456 0.620631
0.46710017 0.53935814 0.5717031 0.9143538 0.45802695 0.38661095 0.8123753 0.8461518
0.94081277 0.6196786 1.141167 0.41472796 0.47752726 0.65405273 0.47061712 0.48523548
0.43143526 1.2095479 0.5805128 0.51673424 0.64358896 1.1332182 0.48259005 0.42052305
0.47418514 0.87573344 0.795819 0.7552232 0.69229645 0.4092694 0.8894322 0.49317303
0.38689446 1.2685537 0.80282706 0.85935944 0.755446 0.66886955 0.40897632 0.8919084
0.36949465 0.9717236 0.5587454 0.5435137 0.56895804 0.55905926 0.5529496 0.5608566
