models/res_adapter/resadapter_v2_sdxl/pytorch_lora_weights.safetensors (safetensors, 923064 bytes, 8 tensors)

lora_unet_down_blocks_0_downsamplers_0_conv.lora_down.weight f2 [16, 320, 3, 3]
0	0x2681	0.0254
1	0x2eca	0.1061
2	0x2c94	0.07153
3	0x1dac	0.00554
4	0x292a	0.04034
5	0x2ddc	0.09155
6	0xa78d	-0.0295
7	0x260b	0.0236
8	0x2edf	0.10736
9	0xac77	-0.06976
10	0x2e4b	0.0983
11	0xa2e9	-0.0135
12	0x2741	0.02834
13	0x2d7b	0.08563
14	0xacc9	-0.07477
15	0x2806	0.03143
16	0x2857	0.0339
17	0xa38a	-0.014725
18	0x2cb7	0.07367
19	0x21c8	0.01129
20	0x25ca	0.02261
21	0x2487	0.01768
22	0xa4a3	-0.01811
23	0xaebd	-0.1053
24	0x3127	0.161
25	0x2c28	0.06494
26	0xaa54	-0.04944
27	0xab91	-0.0591
28	0xa2aa	-0.013016
29	0x3057	0.1356
30	0xb03f	-0.1327
31	0xa84d	-0.0336
32	0xaa49	-0.0491
33	0x25f5	0.02327
34	0x2a3d	0.04874
35	0xa8c1	-0.03714
36	0xa897	-0.03586
37	0xadd9	-0.0914
38	0xa9e1	-0.04593
39	0xa825	-0.03238
40	0x1bbf	0.003782
41	0xadeb	-0.09247
42	0x264f	0.02464
43	0x24f0	0.01929
44	0x2843	0.0333
45	0xac15	-0.0638
46	0xa6de	-0.02682
47	0xadb3	-0.08905
48	0xacd6	-0.07556
49	0x1e06	0.005882
50	0x1a22	0.002995
51	0x3112	0.1584
52	0x2816	0.03192
53	0xac37	-0.06586
54	0x96bc	-0.001644
55	0x26d7	0.02672
56	0x2959	0.04178
57	0x3011	0.1271
58	0x27ad	0.02998
59	0x29ac	0.0443
60	0xa758	-0.02869
61	0xa40f	-0.01585
62	0xaeec	-0.10815
63	0x25c1	0.02248
64	0x9f89	-0.00736
65	0xa587	-0.02159
66	0x2927	0.04025
67	0x2882	0.03522
68	0x9e09	-0.005894
69	0x20f4	0.009674
70	0xa649	-0.02455
71	0x2bc7	0.06076
72	0x2bdd	0.06143
73	0xa153	-0.0104
74	0xace7	-0.0766
75	0xa7ee	-0.03098
76	0x2c9f	0.0722
77	0xacd8	-0.0757
78	0xa530	-0.02026
79	0x2f74	0.11646
80	0xa6a9	-0.02602
81	0xa370	-0.01453
82	0x2b04	0.0548
83	0x29a5	0.0441
84	0xa77d	-0.02925
85	0xacd6	-0.07556
86	0x30ea	0.1536
87	0xacd9	-0.07574
88	0xa8a8	-0.03638
89	0xa999	-0.04373
90	0x156f	0.001327
91	0x2c11	0.06354
92	0x2d3a	0.08167
93	0x3067	0.1376
94	0x27cd	0.03047
95	0x971a	-0.001734
96	0x2182	0.01076
97	0x29c4	0.04504
98	0x2935	0.04068
99	0xa34d	-0.01426
100	0x200e	0.00792
101	0x301c	0.1284
102	0x98fa	-0.00243
103	0xa8d5	-0.03775
104	0x2c9f	0.0722
105	0xaaff	-0.05466
106	0x2996	0.04364
107	0xa7db	-0.03069
108	0xa9f4	-0.0465
109	0x279a	0.0297
110	0xab75	-0.05826
111	0x25a2	0.022
112	0x2ce8	0.07666
113	0x2cf1	0.0772
114	0x24b0	0.01831
115	0x1a16	0.002972
116	0xa91a	-0.03986
117	0x2a8d	0.05118
118	0xab6b	-0.05795
119	0xabe2	-0.06158
120	0x2e11	0.0948
121	0x292c	0.0404
122	0x2ee7	0.10785
123	0x20b2	0.00917
124	0x1f99	0.00742
125	0x2a50	0.04932
126	0xa722	-0.02786
127	0xa820	-0.03223
128	0x2688	0.02551
129	0xa5ac	-0.02216
130	0xa8e2	-0.03815
131	0x2615	0.02376
132	0xafe1	-0.1231
133	0x1a15	0.00297
134	0xa465	-0.01717
135	0xab4a	-0.05695
136	0x259a	0.02188
137	0xafca	-0.1217
138	0xabba	-0.06036
139	0x9fbe	-0.00756
140	0xaeac	-0.10425
141	0x2cee	0.077
142	0xad57	-0.08344
143	0xaa2f	-0.0483
144	0x2841	0.03323
145	0x22a1	0.01295
146	0x2787	0.0294
147	0x246e	0.0173
148	0x26e3	0.0269
149	0xa60e	-0.02365
150	0x25f1	0.02321
151	0xa632	-0.0242
152	0xaba6	-0.05975
153	0xa92b	-0.04037
154	0xabc2	-0.0606
155	0x23d2	0.015274
156	0xac92	-0.0714
157	0x217b	0.010704
158	0xa8f6	-0.03876
159	0x2885	0.0353
160	0xb01f	-0.1288
161	0xa41c	-0.01605
162	0x2d71	0.085
163	0xaceb	-0.07684
164	0x243a	0.01651
165	0xa576	-0.02133
166	0x3040	0.1328
167	0xb06b	-0.1381
168	0x25dc	0.02289
169	0x2efc	0.10913
170	0xac9f	-0.0722
171	0x978b	-0.001842
172	0xa6ff	-0.02733
173	0xb090	-0.1426
174	0x28e0	0.0381
175	0xb1cc	-0.1812
176	0xac20	-0.06445
177	0xa997	-0.04367
178	0xaf78	-0.1167
179	0xaa14	-0.0475
180	0xacb4	-0.0735
181	0x986b	-0.002157
182	0x2d45	0.08234
183	0xa9d3	-0.0455
184	0x2122	0.010025
185	0x28ee	0.0385
186	0xab48	-0.0569
187	0x29b8	0.04468
188	0xa2b4	-0.01309
189	0xa0d9	-0.00947
190	0xaea5	-0.1038
191	0xadab	-0.08856
192	0xaf8e	-0.11804
193	0xa876	-0.03485
194	0xa96a	-0.0423
195	0xa9c7	-0.04514
196	0xaf39	-0.11285
197	0x2ccb	0.0749
198	0x29f4	0.0465
199	0x29f2	0.04645
200	0x2cfc	0.0779
201	0x1b4e	0.003567
202	0x2a95	0.05142
203	0xa261	-0.01246
204	0x286f	0.03464
205	0xa422	-0.01614
206	0x2aae	0.0522
207	0x306b	0.1381
208	0x2996	0.04364
209	0x2d67	0.0844
210	0xa6f3	-0.02715
211	0xa712	-0.02762
212	0x2a30	0.04834
213	0x2d4c	0.08276
214	0x2dbf	0.0898
215	0x2b22	0.05573
216	0x1c78	0.004364
217	0xa90c	-0.03943
218	0xa90e	-0.0395
219	0xad25	-0.0804
220	0x3147	0.1649
221	0x2cef	0.0771
222	0xb043	-0.1332
223	0x2738	0.0282
224	0x2aa9	0.05203
225	0xae60	-0.0996
226	0xa0d9	-0.00947
227	0xae3e	-0.09753
228	0x9f15	-0.006916
229	0xaf33	-0.1125
230	0xaf45	-0.1136
231	0x1eda	0.00669
232	0xa94c	-0.04138
233	0xa790	-0.02954
234	0x2ae5	0.05386
235	0x22e7	0.01348
236	0x2ddd	0.0916
237	0xab5e	-0.05756
238	0x1535	0.001271
239	0x9736	-0.0017605
240	0x2844	0.03333
241	0x2c5c	0.0681
242	0xa900	-0.03906
243	0x2f2b	0.112
244	0xaea9	-0.10406
245	0xa827	-0.03244
246	0xabaa	-0.05988
247	0x2b6b	0.05795
248	0xad10	-0.0791
249	0xa572	-0.02127
250	0x28a9	0.0364
251	0x2475	0.01741
252	0xa060	-0.008545
253	0x27cc	0.03046
254	0x2990	0.04346
255	0xa14c	-0.010345

lora_unet_down_blocks_0_downsamplers_0_conv.lora_up.weight f2 [320, 16, 1, 1]
0	0x9fb0	-0.007507
1	0xa179	-0.01069
2	0x261b	0.02385
3	0x205c	0.008514
4	0x9d3e	-0.00512
5	0x2190	0.010864
6	0xa521	-0.02003
7	0x904a	-0.0005236
8	0x25ee	0.02316
9	0x2230	0.012085
10	0x2062	0.00856
11	0x1da6	0.005516
12	0xa1b9	-0.01118
13	0x2453	0.01689
14	0xa71c	-0.02777
15	0x2298	0.01288
16	0xa468	-0.01721
17	0xa15b	-0.01046
18	0x983e	-0.002071
19	0x1860	0.002136
20	0xa193	-0.01089
21	0x1914	0.00248
22	0x9d89	-0.005405
23	0x236f	0.01452
24	0x1f4e	0.007133
25	0x2397	0.014824
26	0x2095	0.00895
27	0x96ac	-0.001629
28	0xa18c	-0.01083
29	0x93a0	-0.000931
30	0x9bd9	-0.003832
31	0x24b7	0.01842
32	0x251a	0.01993
33	0x26db	0.02678
34	0x271d	0.02779
35	0xa81a	-0.03204
36	0xa495	-0.0179
37	0xa520	-0.02002
38	0x2529	0.02016
39	0x28c0	0.0371
40	0xa13d	-0.01023
41	0xa369	-0.01447
42	0xa421	-0.01613
43	0x26ff	0.02733
44	0x2505	0.0196
45	0xa4c6	-0.01865
46	0x21ed	0.01157
47	0xa567	-0.0211
48	0x1cd8	0.00473
49	0x9cd0	-0.0047
50	0xa022	-0.00807
51	0x1866	0.002148
52	0x9833	-0.00205
53	0x9495	-0.001119
54	0xa16a	-0.010574
55	0x2434	0.01642
56	0x2337	0.01409
57	0x2096	0.00896
58	0x968e	-0.0016
59	0x1eb3	0.006542
60	0x9b7c	-0.003654
61	0x1f83	0.007336
62	0xa67c	-0.02533
63	0x2402	0.01566
64	0x2030	0.00818
65	0x1fe6	0.007713
66	0x9e23	-0.005993
67	0xa4ab	-0.01823
68	0xa102	-0.00978
69	0x9732	-0.001757
70	0x2088	0.00885
71	0x1e36	0.006065
72	0xa2b9	-0.01313
73	0x9fd0	-0.00763
74	0x8518	-7.77e-05
75	0x239b	0.014854
76	0x11dc	0.0007153
77	0x1a13	0.002966
78	0x219a	0.01094
79	0xa34b	-0.014244
80	0xa85b	-0.03403
81	0xa788	-0.02942
82	0xa92d	-0.04044
83	0x22ac	0.01303
84	0x2417	0.01598
85	0x2853	0.03378
86	0xa4e6	-0.01913
87	0x1f1a	0.006935
88	0x2651	0.02467
89	0x2906	0.03925
90	0x297c	0.04285
91	0xa686	-0.02548
92	0xa551	-0.02077
93	0x2814	0.03186
94	0xa666	-0.025
95	0x297c	0.04285
96	0xa01a	-0.00801
97	0xa5f4	-0.02325
98	0xa658	-0.02478
99	0x25a2	0.022
100	0x1c0a	0.003944
101	0x24b9	0.01845
102	0xa50c	-0.01971
103	0x060e	9.24e-05
104	0x22d6	0.01335
105	0x280d	0.03165
106	0x2394	0.0148
107	0xa35a	-0.01436
108	0xa4ae	-0.01828
109	0x244c	0.01678
110	0xa568	-0.02112
111	0x26ec	0.02704
112	0x8a22	-0.0001872
113	0xa4bc	-0.0185
114	0x14c4	0.0011635
115	0x20ab	0.00912
116	0x1f8c	0.00737
117	0x89c4	-0.000176
118	0xa1b8	-0.01117
119	0x9eb2	-0.00654
120	0x205e	0.00853
121	0x1a5f	0.00311
122	0x1e18	0.00595
123	0x246a	0.01724
124	0x1c48	0.00418
125	0x22fd	0.01365
126	0x909a	-0.0005617
127	0x24e2	0.01907
128	0xa13f	-0.01025
129	0x9e8c	-0.006393
130	0x98ac	-0.002281
131	0x236e	0.01451
132	0x23f8	0.015564
133	0x259a	0.02188
134	0xa1e0	-0.011475
135	0xa431	-0.01637
136	0x224a	0.01228
137	0x2045	0.00834
138	0x2569	0.02113
139	0x9039	-0.0005155
140	0xa168	-0.01056
141	0x11ef	0.0007243
142	0xa4a3	-0.01811
143	0x26ea	0.02701
144	0x2299	0.012886
145	0x26a2	0.02591
146	0x212a	0.010086
147	0xa521	-0.02003
148	0x1eb9	0.006565
149	0xa1eb	-0.01156
150	0x220b	0.0118
151	0xa633	-0.02422
152	0xa515	-0.01985
153	0xa665	-0.02498
154	0x9d53	-0.0052
155	0x1d77	0.005337
156	0x2603	0.02348
157	0xa272	-0.01259
158	0x25e9	0.02309
159	0xa415	-0.01595
160	0xa79c	-0.02972
161	0xa93f	-0.041
162	0xa379	-0.014595
163	0x263a	0.02432
164	0x244e	0.01682
165	0x2789	0.02943
166	0xa540	-0.02051
167	0x1fde	0.007683
168	0x27a8	0.0299
169	0x286c	0.03455
170	0x2874	0.0348
171	0xa07a	-0.00874
172	0xa523	-0.02007
173	0x26d7	0.02672
174	0xa684	-0.02545
175	0x2643	0.02446
176	0xa2d9	-0.013374
177	0xa248	-0.01227
178	0xa5d5	-0.02278
179	0x20fa	0.00972
180	0x1e0f	0.005917
181	0x2476	0.01743
182	0xa41c	-0.01605
183	0xa3bb	-0.0151
184	0x266f	0.02513
185	0x25e5	0.02303
186	0x2488	0.0177
187	0xa492	-0.01785
188	0xa21e	-0.01195
189	0x1843	0.00208
190	0xa0b9	-0.009224
191	0x276c	0.02899
192	0x10e0	0.000595
193	0xa47e	-0.01755
194	0xa42e	-0.01633
195	0x1e29	0.006016
196	0x206d	0.008644
197	0x2491	0.01784
198	0xa262	-0.01247
199	0xa01a	-0.00801
200	0x21dd	0.01145
201	0x22c8	0.013245
202	0x212d	0.01011
203	0x130e	0.000861
204	0xa236	-0.01213
205	0x2040	0.0083
206	0xa72b	-0.028
207	0x2842	0.03326
208	0x2128	0.01007
209	0x214e	0.01036
210	0x23a3	0.014915
211	0x1e48	0.006134
212	0x91e1	-0.0007176
213	0x9fd4	-0.007645
214	0x2060	0.008545
215	0xa507	-0.01964
216	0xa1de	-0.01146
217	0xa269	-0.01252
218	0x9b3d	-0.003534
219	0x219e	0.01097
220	0x2410	0.01587
221	0xa538	-0.02039
222	0x2779	0.02919
223	0xa074	-0.0087
224	0x25aa	0.02213
225	0x1f76	0.007286
226	0x1fd0	0.00763
227	0xa16e	-0.010605
228	0xa346	-0.014206
229	0xa3eb	-0.015465
230	0x20ac	0.009125
231	0xa4f5	-0.01936
232	0xa525	-0.0201
233	0xa47c	-0.01752
234	0xa494	-0.01788
235	0x1c7a	0.00437
236	0x9965	-0.002634
237	0xa16f	-0.01061
238	0x1eea	0.006752
239	0xa7ee	-0.03098
240	0xa27f	-0.01269
241	0x95a2	-0.001375
242	0x2289	0.012764
243	0x893d	-0.0001599
244	0x21c0	0.01123
245	0x181b	0.002005
246	0xa319	-0.01386
247	0x231a	0.01387
248	0x2604	0.0235
249	0x1c78	0.004364
250	0x21f2	0.01161
251	0x23b6	0.01506
252	0x97de	-0.001921
253	0x0ebd	0.0004113
254	0xa6b1	-0.02614
255	0x1589	0.001351

lora_unet_down_blocks_1_downsamplers_0_conv.lora_down.weight f2 [16, 640, 3, 3]
0	0x3018	0.1279
1	0x287b	0.035
2	0xa78d	-0.0295
3	0x29f4	0.0465
4	0xb0f4	-0.1548
5	0xafcc	-0.1218
6	0x2aff	0.05466
7	0xb064	-0.1372
8	0xb036	-0.1316
9	0x31c4	0.1802
10	0x2c35	0.06573
11	0x26cb	0.02654
12	0x314a	0.1653
13	0x2b61	0.05765
14	0x2870	0.03467
15	0x30dd	0.152
16	0x2cf8	0.07764
17	0x2130	0.01013
18	0xac31	-0.0655
19	0xb131	-0.1622
20	0x24f8	0.01941
21	0x2ca8	0.07275
22	0xb173	-0.1703
23	0xaf9c	-0.1189
24	0xa905	-0.0392
25	0xa416	-0.01596
26	0xacd5	-0.0755
27	0xa5f8	-0.02332
28	0xaa75	-0.05045
29	0x2832	0.03278
30	0x2631	0.02419
31	0xafbf	-0.12103
32	0xadc8	-0.09033
33	0xa892	-0.0357
34	0xac96	-0.07166
35	0xa26f	-0.012566
36	0xadf0	-0.0928
37	0x9daf	-0.00555
38	0x1d0c	0.00493
39	0xa964	-0.0421
40	0x3040	0.1328
41	0xa35f	-0.0144
42	0x2b7a	0.0584
43	0x29a5	0.0441
44	0xa600	-0.02344
45	0xa927	-0.04025
46	0x2442	0.01663
47	0xa525	-0.0201
48	0x1b9d	0.003717
49	0xac7c	-0.07007
50	0xac32	-0.06555
51	0xaed8	-0.10693
52	0xaa99	-0.05154
53	0xa222	-0.01198
54	0x2ac3	0.05283
55	0xacfb	-0.0778
56	0xac2f	-0.06537
57	0x2055	0.00846
58	0xad96	-0.0873
59	0xa179	-0.01069
60	0xadc5	-0.09015
61	0xa9e9	-0.04617
62	0xa9f4	-0.0465
63	0x28a9	0.0364
64	0xad2b	-0.08075
65	0xabea	-0.06183
66	0x2cf2	0.0773
67	0x2550	0.02075
68	0xaed8	-0.10693
69	0x2ae2	0.05377
70	0xad43	-0.0822
71	0x148c	0.00111
72	0x9bf0	-0.003876
73	0xa9a5	-0.0441
74	0x2c0d	0.0633
75	0xa8f5	-0.03873
76	0x2f66	0.1156
77	0xab61	-0.05765
78	0x2f16	0.1107
79	0x299d	0.04385
80	0x27a2	0.02982
81	0xae26	-0.09607
82	0x9a40	-0.003052
83	0x2102	0.00978
84	0xa819	-0.032
85	0x1daa	0.00553
86	0x2623	0.02397
87	0x2ec9	0.106
88	0xacc8	-0.0747
89	0xaf3b	-0.113
90	0x256c	0.02118
91	0x12c7	0.0008273
92	0xa731	-0.02809
93	0x2d4d	0.0828
94	0x2fc9	0.12164
95	0x308f	0.1425
96	0x30a9	0.1456
97	0x2bf3	0.0621
98	0xa878	-0.0349
99	0xa9f2	-0.04645
100	0x25b3	0.02226
101	0xa1d6	-0.0114
102	0x2b01	0.05472
103	0x2881	0.0352
104	0xa303	-0.013695
105	0xa73b	-0.02824
106	0x2c93	0.0715
107	0x2821	0.03226
108	0x26ab	0.02605
109	0x119f	0.000686
110	0xac6b	-0.06903
111	0x2ad6	0.0534
112	0x2a04	0.047
113	0x9fe2	-0.007698
114	0x28ac	0.0365
115	0x2869	0.03445
116	0xa7e3	-0.0308
117	0x29e4	0.04602
118	0xab2e	-0.0561
119	0x2054	0.00845
120	0xa99d	-0.04385
121	0xa4a7	-0.01817
122	0xb0cf	-0.1503
123	0xaa38	-0.04858
124	0x2e21	0.09576
125	0xac0b	-0.0632
126	0x2f2f	0.11224
127	0x30d2	0.1506
128	0x2d6f	0.0849
129	0x2fc8	0.1216
130	0x2c7e	0.0702
131	0xad47	-0.08246
132	0x2e94	0.1028
133	0xab65	-0.05777
134	0x2b64	0.05774
135	0x9a64	-0.00312
136	0xa27d	-0.01267
137	0xa851	-0.03372
138	0x9061	-0.0005345
139	0x2359	0.01435
140	0xa8ba	-0.03693
141	0xa5e5	-0.02303
142	0xa9e1	-0.04593
143	0xa8fe	-0.039
144	0xaacb	-0.05307
145	0xa59a	-0.02188
146	0x0d76	0.0003333
147	0x25bb	0.02238
148	0xad4c	-0.08276
149	0x2bd4	0.06116
150	0xa7a5	-0.02986
151	0xad45	-0.08234
152	0x29d1	0.04544
153	0x26f2	0.02713
154	0x12e0	0.000839
155	0xad28	-0.08057
156	0x1e99	0.006443
157	0x2635	0.02425
158	0xaa8c	-0.05115
159	0xa93f	-0.041
160	0xa984	-0.0431
161	0x2be2	0.06158
162	0x2a19	0.04764
163	0x251a	0.01993
164	0xabd8	-0.06128
165	0x9e58	-0.006195
166	0xae1b	-0.0954
167	0x2584	0.02155
168	0xa3ee	-0.01549
169	0xafd3	-0.12225
170	0xa6dc	-0.0268
171	0x1562	0.001314
172	0xa91d	-0.03995
173	0xa257	-0.01238
174	0xa6ef	-0.02708
175	0x29c8	0.04517
176	0x2a4b	0.04916
177	0xaf94	-0.1184
178	0xac0a	-0.0631
179	0x29a8	0.0442
180	0xa342	-0.014175
181	0x26ac	0.02606
182	0xa9f4	-0.0465
183	0xaa73	-0.05038
184	0xac63	-0.06854
185	0xa3e9	-0.01545
186	0xaef6	-0.10876
187	0x9b24	-0.003487
188	0xad04	-0.07837
189	0xb0a2	-0.1448
190	0xac5a	-0.068
191	0xace0	-0.0762
192	0x156f	0.001327
193	0xb017	-0.1278
194	0xb246	-0.196
195	0x992f	-0.002531
196	0xa057	-0.00848
197	0xac7f	-0.07025
198	0x2f74	0.11646
199	0x216c	0.01059
200	0xa469	-0.01723
201	0x2c2c	0.0652
202	0xb034	-0.1313
203	0x28b4	0.03674
204	0x2ce5	0.0765
205	0x238f	0.01476
206	0x2b60	0.05762
207	0x3181	0.172
208	0x2352	0.0143
209	0x2ac6	0.05292
210	0x2d49	0.0826
211	0x2056	0.00847
212	0x2ddc	0.09155
213	0x308a	0.1418
214	0xa959	-0.04178
215	0x2df2	0.0929
216	0x30b4	0.147
217	0x1b9e	0.00372
218	0xabbd	-0.06046
219	0x26f8	0.02722
220	0xae54	-0.0989
221	0xa914	-0.03967
222	0x2bc9	0.06082
223	0x943c	-0.001034
224	0xa42d	-0.01631
225	0x29d9	0.0457
226	0xab53	-0.05722
227	0xad4a	-0.08264
228	0xaca0	-0.07227
229	0xb05d	-0.1364
230	0xa9fa	-0.0467
231	0xae1e	-0.0956
232	0xa408	-0.01575
233	0x2697	0.02574
234	0xadb6	-0.08923
235	0xa543	-0.02055
236	0x2d92	0.08704
237	0x9954	-0.002602
238	0x262d	0.02412
239	0x2096	0.00896
240	0x24c7	0.01866
241	0x2b94	0.0592
242	0xa6bd	-0.02632
243	0xa9d7	-0.04562
244	0xa557	-0.02086
245	0xaa80	-0.05078
246	0x2d06	0.0785
247	0xaab1	-0.05228
248	0xa8e2	-0.03815
249	0xab39	-0.05643
250	0x9efa	-0.006813
251	0xad34	-0.0813
252	0x9f84	-0.00734
253	0x2355	0.01432
254	0x1ccc	0.004684
255	0x2a5f	0.04977

lora_unet_down_blocks_1_downsamplers_0_conv.lora_up.weight f2 [640, 16, 1, 1]
0	0xa4d3	-0.01884
1	0x285b	0.03403
2	0x252c	0.0202
3	0x24f6	0.01938
4	0x2a23	0.04794
5	0xa546	-0.0206
6	0x2805	0.0314
7	0x2682	0.02542
8	0xa840	-0.0332
9	0x2432	0.01639
10	0x246a	0.01724
11	0xa57d	-0.02144
12	0xa4c9	-0.01869
13	0xa413	-0.01591
14	0xa546	-0.0206
15	0xa77a	-0.0292
16	0x9827	-0.002028
17	0x98a7	-0.002272
18	0x9fba	-0.007545
19	0x9f3b	-0.00706
20	0x9fac	-0.007492
21	0x21a4	0.01102
22	0x9cc3	-0.00465
23	0x9a02	-0.002934
24	0x1c7e	0.004387
25	0xa1fd	-0.011696
26	0x9fcc	-0.007614
27	0x1844	0.002083
28	0xa03a	-0.008255
29	0x1c4e	0.004204
30	0x9780	-0.001831
31	0x1af1	0.00339
32	0x29cb	0.04526
33	0xa849	-0.03348
34	0xab6f	-0.05807
35	0xa86d	-0.03458
36	0xa896	-0.03583
37	0x2921	0.04007
38	0xa903	-0.03915
39	0xaa6a	-0.0501
40	0x26fc	0.02728
41	0xa886	-0.03534
42	0xaacd	-0.05313
43	0x2940	0.04102
44	0x2b7f	0.05856
45	0x2950	0.0415
46	0x2951	0.04153
47	0x2abc	0.0526
48	0xa455	-0.01692
49	0x2493	0.01787
50	0x205c	0.008514
51	0x2456	0.01694
52	0x2437	0.01646
53	0xa201	-0.01173
54	0x22ad	0.01304
55	0x22ca	0.01326
56	0xa1ee	-0.01158
57	0x2306	0.01372
58	0x2330	0.01404
59	0x9e00	-0.00586
60	0xa420	-0.01611
61	0xa491	-0.01784
62	0xa41f	-0.0161
63	0x9d63	-0.00526
64	0xa265	-0.01249
65	0x25b4	0.02228
66	0x1ffc	0.007797
67	0x2282	0.01271
68	0x22a9	0.01301
69	0xa13a	-0.01021
70	0x2358	0.01434
71	0x1f0f	0.006893
72	0xa4d9	-0.01894
73	0x2559	0.02089
74	0x211e	0.009995
75	0xa635	-0.02425
76	0xa0d1	-0.00941
77	0xa3ea	-0.01546
78	0xa4b2	-0.01834
79	0xa136	-0.01018
80	0xa53d	-0.02046
81	0x2757	0.02867
82	0x238f	0.01476
83	0x28bf	0.03708
84	0x2735	0.02815
85	0xa551	-0.02077
86	0x2648	0.02454
87	0x28a5	0.0363
88	0xa5a6	-0.02206
89	0x2807	0.03146
90	0x2678	0.02527
91	0xa57c	-0.02142
92	0xa4bd	-0.01851
93	0xa5de	-0.02292
94	0xa774	-0.02911
95	0xa6ae	-0.0261
96	0xa7ef	-0.03099
97	0x2823	0.03232
98	0x285a	0.034
99	0x2631	0.02419
100	0x2813	0.03183
101	0xa540	-0.02051
102	0x25e0	0.02295
103	0x2a86	0.05096
104	0x9aea	-0.003376
105	0x2434	0.01642
106	0x286d	0.03458
107	0xa64f	-0.02464
108	0xaa9a	-0.05157
109	0xa912	-0.0396
110	0xa83f	-0.03317
111	0xa8a8	-0.03638
112	0x195b	0.002615
113	0xa7c0	-0.03027
114	0xa236	-0.01213
115	0xa838	-0.03296
116	0xa711	-0.0276
117	0x2669	0.02504
118	0xa6ac	-0.02606
119	0xa076	-0.00871
120	0x236e	0.01451
121	0xa881	-0.0352
122	0x9870	-0.002167
123	0x2322	0.01393
124	0x1c69	0.004307
125	0x2271	0.01258
126	0x2452	0.01688
127	0x2495	0.0179
128	0x246e	0.0173
129	0xa282	-0.01271
130	0xa765	-0.02888
131	0x9ef1	-0.00678
132	0xa2bb	-0.013145
133	0x2431	0.01637
134	0xa2ca	-0.01326
135	0xa975	-0.04263
136	0x1871	0.002169
137	0x9c73	-0.004345
138	0xa710	-0.02759
139	0x249f	0.01805
140	0x2656	0.02475
141	0x2716	0.02768
142	0x2661	0.02492
143	0x27df	0.03075
144	0xa420	-0.01611
145	0x266e	0.02512
146	0x257e	0.02145
147	0x25f7	0.0233
148	0x25b9	0.02235
149	0xa548	-0.02063
150	0x24c7	0.01866
151	0x24e9	0.01918
152	0xa472	-0.01736
153	0x2231	0.01209
154	0x20c0	0.00928
155	0xa25e	-0.012436
156	0xa555	-0.02083
157	0xa59e	-0.02194
158	0xa1cc	-0.01132
159	0xa519	-0.01991
160	0xa949	-0.0413
161	0x285b	0.03403
162	0x2699	0.02577
163	0x2683	0.02544
164	0x2544	0.02057
165	0xa655	-0.02473
166	0x25d4	0.02277
167	0x2a69	0.05008
168	0xa589	-0.02162
169	0x2411	0.01588
170	0x29ce	0.04535
171	0xa95d	-0.0419
172	0xac22	-0.0646
173	0xa9e0	-0.0459
174	0xa92c	-0.0404
175	0xa7fb	-0.03117
176	0x16ab	0.001628
177	0x1534	0.00127
178	0x252b	0.02019
179	0x0893	0.0001396
180	0x1ef4	0.00679
181	0xa145	-0.01029
182	0x1e46	0.006126
183	0x2054	0.00845
184	0x9f45	-0.0071
185	0x9c49	-0.004185
186	0x959b	-0.0013685
187	0x2034	0.00821
188	0x1d5f	0.005245
189	0x1dea	0.005775
190	0x88fd	-0.0001522
191	0xa049	-0.00837
192	0x1c3d	0.00414
193	0x9ccb	-0.00468
194	0x94ea	-0.0012
195	0x12a5	0.000811
196	0x9de4	-0.005753
197	0x911b	-0.000623
198	0x9f1b	-0.00694
199	0x240c	0.01581
200	0x1bd7	0.003828
201	0x1c52	0.00422
202	0x1ecf	0.00665
203	0x2186	0.01079
204	0x999c	-0.002739
205	0x1a45	0.003061
206	0x9da0	-0.005493
207	0x1bb2	0.003757
208	0x225a	0.012405
209	0xa644	-0.02448
210	0x9e54	-0.00618
211	0xa60c	-0.02362
212	0xa551	-0.02077
213	0x2213	0.01186
214	0xa48e	-0.01779
215	0xa57e	-0.02145
216	0x1ad8	0.003342
217	0xa4bf	-0.01854
218	0xa2d8	-0.01337
219	0x2381	0.014656
220	0x271a	0.02774
221	0x2539	0.0204
222	0x220a	0.011795
223	0x2477	0.01744
224	0xa480	-0.01758
225	0x245b	0.01701
226	0x1dfd	0.005848
227	0x269c	0.02582
228	0x24c4	0.01862
229	0xa3c4	-0.01517
230	0x1ff5	0.00777
231	0x2663	0.02495
232	0xa042	-0.008316
233	0x1694	0.001606
234	0x24d2	0.01883
235	0xa16c	-0.01059
236	0xa672	-0.02518
237	0xa46e	-0.0173
238	0xa647	-0.02452
239	0x9e8e	-0.0064
240	0x1707	0.001716
241	0x9d25	-0.005024
242	0x18ae	0.002285
243	0x99c2	-0.002811
244	0x90bf	-0.0005794
245	0x1996	0.002728
246	0x9698	-0.00161
247	0xa48c	-0.01776
248	0x1d91	0.005436
249	0x9ceb	-0.004803
250	0x985b	-0.002127
251	0x963d	-0.001523
252	0x9c95	-0.004475
253	0x1a7d	0.003168
254	0x9067	-0.0005374
255	0x10ee	0.000602

lora_unet_up_blocks_0_upsamplers_0_conv.lora_down.weight f2 [16, 1280, 3, 3]
0	0xa7c9	-0.03041
1	0x269e	0.02585
2	0x2528	0.02014
3	0x2d45	0.08234
4	0xa2c4	-0.013214
5	0x1544	0.001286
6	0xadf4	-0.093
7	0x293b	0.04086
8	0x3085	0.1412
9	0x2fa4	0.1194
10	0xb15a	-0.1672
11	0x2510	0.01978
12	0x2905	0.0392
13	0x1858	0.002121
14	0xad00	-0.0781
15	0xac96	-0.07166
16	0xaa51	-0.04935
17	0x27ac	0.02997
18	0xaec5	-0.1058
19	0x2a6e	0.05023
20	0xabac	-0.05994
21	0x9777	-0.001822
22	0xa678	-0.02527
23	0xa5d9	-0.02284
24	0xad6f	-0.0849
25	0x2655	0.02473
26	0x18d1	0.002352
27	0x286b	0.03452
28	0x2df2	0.0929
29	0x2d79	0.0855
30	0x2c43	0.0666
31	0x1593	0.001361
32	0xaa67	-0.05002
33	0x311b	0.1595
34	0x21de	0.01146
35	0xa1a8	-0.01105
36	0xaae2	-0.05377
37	0xa689	-0.02553
38	0x2435	0.01643
39	0xa74b	-0.02849
40	0x18e0	0.00238
41	0xa868	-0.03442
42	0x25b5	0.0223
43	0x280b	0.0316
44	0x175a	0.001795
45	0xa81a	-0.03204
46	0x2f3d	0.1131
47	0x2ea1	0.1036
48	0xaae7	-0.05392
49	0x2ae0	0.0537
50	0x1ab2	0.00327
51	0x2e2a	0.0963
52	0x9d7a	-0.00535
53	0x24c9	0.01869
54	0xb2a2	-0.2073
55	0x1f76	0.007286
56	0xa309	-0.01374
57	0xaad0	-0.05322
58	0x2833	0.0328
59	0xac41	-0.06647
60	0xab9f	-0.05954
61	0x2c36	0.0658
62	0xa8e6	-0.03827
63	0x1967	0.002638
64	0xaa4b	-0.04916
65	0xad14	-0.07935
66	0xa437	-0.01646
67	0xa8d1	-0.03763
68	0xacd6	-0.07556
69	0x98ff	-0.00244
70	0x2880	0.03516
71	0xaa50	-0.04932
72	0xa333	-0.01406
73	0x3136	0.1628
74	0x2cde	0.07605
75	0x1916	0.002483
76	0xa252	-0.012344
77	0xa11a	-0.009964
78	0xa595	-0.0218
79	0x28d2	0.03766
80	0x2e07	0.0942
81	0x305a	0.136
82	0x24cf	0.01878
83	0xac0f	-0.0634
84	0xa03b	-0.00826
85	0x30da	0.1516
86	0x237e	0.01463
87	0x2ce2	0.0763
88	0x301c	0.1284
89	0x2d90	0.0869
90	0xad48	-0.0825
91	0x9724	-0.001743
92	0x1274	0.0007877
93	0xaa6a	-0.0501
94	0x2124	0.01004
95	0x250f	0.01976
96	0xa520	-0.02002
97	0xaa64	-0.04993
98	0x2956	0.0417
99	0x263d	0.02437
100	0x2b82	0.05865
101	0x2da8	0.0884
102	0xaa5d	-0.0497
103	0xaa25	-0.048
104	0x2c35	0.06573
105	0xa6cb	-0.02654
106	0x2f23	0.1115
107	0x231d	0.01389
108	0xa9f1	-0.04642
109	0xa1ed	-0.01157
110	0xa99a	-0.04376
111	0x9dee	-0.00579
112	0x3133	0.1625
113	0xa520	-0.02002
114	0x2dac	0.0886
115	0x1214	0.000742
116	0x9e12	-0.005928
117	0xafaa	-0.11975
118	0x143a	0.001032
119	0xa9b2	-0.0445
120	0x250c	0.01971
121	0xb193	-0.1742
122	0x157e	0.001341
123	0xa0fd	-0.00974
124	0x14fe	0.001219
125	0x21d4	0.01138
126	0x1e51	0.00617
127	0x9e25	-0.006
128	0x2cdc	0.0759
129	0xab86	-0.05878
130	0xa997	-0.04367
131	0x29fd	0.04678
132	0xa8c3	-0.0372
133	0x29a7	0.04416
134	0x1601	0.001466
135	0xa910	-0.03955
136	0xabea	-0.06183
137	0xb411	-0.2542
138	0x17af	0.001876
139	0xa75f	-0.0288
140	0xaf2e	-0.1122
141	0xa4a9	-0.0182
142	0xac58	-0.0679
143	0xae82	-0.1017
144	0x2141	0.01026
145	0x2dab	0.08856
146	0x2e15	0.09503
147	0x25cb	0.02263
148	0xb027	-0.1298
149	0xa078	-0.00873
150	0xabd1	-0.06107
151	0xaa3d	-0.04874
152	0xaf0f	-0.1103
153	0x3005	0.1256
154	0xac10	-0.0635
155	0x99e4	-0.002876
156	0x2c03	0.0627
157	0x2d90	0.0869
158	0x2a27	0.04807
159	0xa67d	-0.02534
160	0x2cbf	0.07416
161	0x998a	-0.002705
162	0x2513	0.01982
163	0x256e	0.02121
164	0x299a	0.04376
165	0xaa22	-0.0479
166	0x2ba8	0.0598
167	0xaf16	-0.1107
168	0x1787	0.001838
169	0xa29c	-0.01291
170	0xa63b	-0.02434
171	0x297e	0.0429
172	0x83af	-5.62e-05
173	0x21a4	0.01102
174	0xa8f8	-0.03882
175	0x2734	0.02814
176	0xa99f	-0.0439
177	0xb181	-0.172
178	0x289e	0.03607
179	0xaa68	-0.05005
180	0xb112	-0.1584
181	0x284e	0.03363
182	0xa839	-0.033
183	0x1c59	0.004246
184	0x2ba4	0.0597
185	0xa53b	-0.02043
186	0x2941	0.04105
187	0xb186	-0.1726
188	0x26ae	0.0261
189	0xa49a	-0.01797
190	0xaaa4	-0.05188
191	0x2bd1	0.06107
192	0xacde	-0.07605
193	0xa844	-0.03333
194	0x9d5c	-0.005234
195	0xabb1	-0.0601
196	0x282a	0.03253
197	0x2ebf	0.1054
198	0xa35a	-0.01436
199	0x306c	0.1382
200	0x315d	0.1676
201	0x28ce	0.03754
202	0x2a80	0.05078
203	0xa6af	-0.02611
204	0x2110	0.00989
205	0x2dd1	0.0909
206	0x302b	0.1302
207	0x2aa4	0.05188
208	0xaa61	-0.04984
209	0x18b1	0.00229
210	0xad5d	-0.0838
211	0xa947	-0.04123
212	0xa30b	-0.013756
213	0x2a8c	0.05115
214	0x25f1	0.02321
215	0xa423	-0.01616
216	0xa9d4	-0.04553
217	0xa978	-0.04272
218	0xa678	-0.02527
219	0xab6e	-0.05804
220	0x2d95	0.0872
221	0xa780	-0.0293
222	0xada2	-0.088
223	0xad1c	-0.07983
224	0xa0ae	-0.00914
225	0xa92b	-0.04037
226	0xa8db	-0.03793
227	0x29af	0.0444
228	0x25bb	0.02238
229	0x305d	0.1364
230	0x1b31	0.003511
231	0xa37c	-0.01462
232	0xa3ad	-0.01499
233	0xacd5	-0.0755
234	0x2c21	0.0645
235	0xa859	-0.03397
236	0xad28	-0.08057
237	0x1e70	0.006287
238	0x27a0	0.02979
239	0x298f	0.04343
240	0x2aa4	0.05188
241	0xa932	-0.0406
242	0x26d1	0.02663
243	0x281d	0.03214
244	0x27db	0.03069
245	0xac80	-0.0703
246	0xb197	-0.1747
247	0x2ae1	0.05374
248	0xaf7d	-0.117
249	0xa8e4	-0.0382
250	0x296f	0.04245
251	0x2716	0.02768
252	0x9f8e	-0.007378
253	0x2ce2	0.0763
254	0x246a	0.01724
255	0xa4cd	-0.01875

lora_unet_up_blocks_0_upsamplers_0_conv.lora_up.weight f2 [1280, 16, 1, 1]
0	0x9fb6	-0.00753
1	0xa260	-0.01245
2	0x8e5f	-0.0003889
3	0x1c4a	0.00419
4	0x9bae	-0.00375
5	0x2182	0.01076
6	0x9dd2	-0.005684
7	0xa0bc	-0.00925
8	0x22db	0.01339
9	0x213f	0.01025
10	0xa514	-0.01984
11	0xa38a	-0.014725
12	0xa205	-0.01176
13	0x215f	0.01049
14	0x258f	0.02171
15	0x2083	0.00881
16	0x1a7c	0.003166
17	0x1fbc	0.007553
18	0xa446	-0.0167
19	0x19a5	0.002756
20	0x9961	-0.002626
21	0x908a	-0.000554
22	0xa03b	-0.00826
23	0xa16b	-0.01058
24	0x2177	0.01067
25	0xa07d	-0.008766
26	0x9f05	-0.006855
27	0x1803	0.001959
28	0x1f26	0.00698
29	0xa1a8	-0.01105
30	0x9ae5	-0.003366
31	0x2429	0.01625
32	0x228b	0.01278
33	0x2037	0.00823
34	0x9ef6	-0.006798
35	0xa012	-0.00795
36	0x9405	-0.000981
37	0x9ffe	-0.007805
38	0x9c3b	-0.00413
39	0xa08a	-0.008865
40	0x1a85	0.003183
41	0x98d4	-0.002357
42	0x24d2	0.01883
43	0x1561	0.001313
44	0x1f33	0.00703
45	0xa129	-0.01008
46	0x97d3	-0.00191
47	0x1c95	0.004475
48	0x12db	0.000837
49	0xa83b	-0.03305
50	0x2837	0.03293
51	0x2557	0.02086
52	0x25ab	0.02214
53	0x2105	0.0098
54	0x1db5	0.005573
55	0x2589	0.02162
56	0x243e	0.01657
57	0x2910	0.03955
58	0xa4b3	-0.01836
59	0xa744	-0.02838
60	0xa235	-0.01212
61	0x2206	0.011765
62	0x27fb	0.03117
63	0x9747	-0.001777
64	0x2088	0.00885
65	0x19fe	0.002926
66	0x9c8f	-0.00445
67	0x2100	0.009766
68	0x8a1c	-0.0001864
69	0x19e0	0.002869
70	0x1e0b	0.0059
71	0x1b67	0.003614
72	0x1dc5	0.005634
73	0xa0dd	-0.0095
74	0x1cd4	0.004715
75	0x1b77	0.003645
76	0x92b6	-0.000819
77	0xa016	-0.00798
78	0x9d55	-0.005207
79	0x14df	0.001189
80	0x217a	0.0107
81	0x1d04	0.004898
82	0xa385	-0.01469
83	0x1d58	0.00522
84	0x9ce4	-0.004776
85	0x00ae	1.04e-05
86	0x986a	-0.002155
87	0x9ed9	-0.006687
88	0xa2fb	-0.01363
89	0x1e74	0.0063
90	0x21e0	0.011475
91	0x1df4	0.005814
92	0x1a1a	0.00298
93	0x1a05	0.00294
94	0x9f58	-0.00717
95	0xa200	-0.01172
96	0x1c1f	0.004025
97	0x2369	0.01447
98	0x1e1d	0.00597
99	0x9fef	-0.007748
100	0x9b9c	-0.003716
101	0x9128	-0.0006294
102	0xa2e7	-0.01348
103	0xa39a	-0.01485
104	0xa1d8	-0.01141
105	0x9e31	-0.006046
106	0x1d22	0.005013
107	0x9c5b	-0.004253
108	0x1e79	0.00632
109	0xa3f2	-0.01552
110	0x2077	0.00872
111	0xa114	-0.00992
112	0x1f50	0.00714
113	0x9d62	-0.005257
114	0x9f37	-0.007046
115	0x8f58	-0.0004482
116	0x9b4b	-0.003561
117	0xa8a0	-0.03613
118	0x25ba	0.02237
119	0x1e9d	0.00646
120	0x1f0c	0.00688
121	0x2605	0.02351
122	0xa41a	-0.01602
123	0x22e4	0.01346
124	0x060c	9.227e-05
125	0x20ca	0.00935
126	0xa058	-0.008484
127	0xa60e	-0.02365
128	0xa455	-0.01692
129	0x9598	-0.001366
130	0x1fd8	0.00766
131	0x1fd3	0.00764
132	0x1ddc	0.005722
133	0x180c	0.001976
134	0x9022	-0.0005045
135	0x1d0f	0.00494
136	0x9461	-0.001069
137	0x23e5	0.01542
138	0xa0db	-0.00948
139	0x14d1	0.001176
140	0x9e2d	-0.00603
141	0x1ed1	0.006657
142	0x9ddc	-0.005722
143	0xa73e	-0.02829
144	0xa23a	-0.01216
145	0x9d09	-0.004917
146	0x14fd	0.001218
147	0x2051	0.00843
148	0x2130	0.01013
149	0xa1bd	-0.01121
150	0x245b	0.01701
151	0x9cad	-0.004566
152	0x1773	0.001819
153	0x19d2	0.002842
154	0x9a82	-0.003178
155	0x1d00	0.004883
156	0x9d9c	-0.005478
157	0x9588	-0.00135
158	0xa283	-0.01272
159	0x1674	0.001575
160	0x2445	0.01668
161	0x0291	3.916e-05
162	0xa55d	-0.02095
163	0xa485	-0.01765
164	0x9cd4	-0.004715
165	0x1e8d	0.006397
166	0xa051	-0.00843
167	0xa22e	-0.01207
168	0xa0d4	-0.00943
169	0x13b9	0.0009427
170	0x2033	0.0082
171	0x205d	0.00852
172	0x22db	0.01339
173	0x9e90	-0.00641
174	0xa350	-0.01428
175	0x1fab	0.00749
176	0xa4a2	-0.0181
177	0x1f04	0.00685
178	0xa03b	-0.00826
179	0x9be2	-0.003849
180	0x1ca0	0.004517
181	0xa1b9	-0.01118
182	0x9cd5	-0.00472
183	0x2343	0.01418
184	0x1765	0.001805
185	0x106e	0.0005407
186	0x20d5	0.00944
187	0x1c0e	0.00396
188	0x99ac	-0.00277
189	0x9ead	-0.00652
190	0x9a57	-0.003096
191	0x1db7	0.00558
192	0x1cd2	0.004707
193	0x95ec	-0.001446
194	0x1a19	0.002977
195	0x2473	0.01738
196	0x1c51	0.004215
197	0x1421	0.001008
198	0x9fa1	-0.00745
199	0x215b	0.01046
200	0x191b	0.002493
201	0x2077	0.00872
202	0x22d1	0.01331
203	0x1d42	0.005135
204	0x1ff1	0.007755
205	0x980a	-0.001972
206	0x9c8f	-0.00445
207	0xa31d	-0.01389
208	0xa0a2	-0.00905
209	0x14b0	0.001144
210	0x1caa	0.004555
211	0x9e98	-0.00644
212	0x9ad1	-0.003328
213	0xa30a	-0.01375
214	0x2463	0.01714
215	0x2093	0.008934
216	0x9eb2	-0.00654
217	0x9b89	-0.00368
218	0x9dcf	-0.005672
219	0x1424	0.001011
220	0xa2b8	-0.01312
221	0x2243	0.01223
222	0x9549	-0.00129
223	0x180d	0.001978
224	0x1c9f	0.004513
225	0x1c1f	0.004025
226	0x9b1b	-0.00347
227	0xa2b2	-0.01308
228	0x2006	0.00786
229	0xa062	-0.00856
230	0x10ff	0.00061
231	0xa2bf	-0.013176
232	0x99bc	-0.0028
233	0xa1b9	-0.01118
234	0x221b	0.011925
235	0x9d05	-0.0049
236	0xa1d9	-0.01142
237	0xa26b	-0.012535
238	0x9f91	-0.00739
239	0x1d2a	0.005043
240	0x1f9f	0.007442
241	0x9c26	-0.00405
242	0x1b83	0.003668
243	0x21ff	0.01171
244	0x9d4a	-0.005165
245	0x9a1c	-0.002983
246	0x140b	0.000987
247	0x21ce	0.01134
248	0x1606	0.001471
249	0x94f6	-0.001211
250	0x8b78	-0.0002279
251	0x2230	0.012085
252	0x2112	0.0099
253	0x9b85	-0.003672
254	0x9ee5	-0.006733
255	0x155d	0.001309

lora_unet_up_blocks_1_upsamplers_0_conv.lora_down.weight f2 [16, 640, 3, 3]
0	0x2afa	0.0545
1	0x29cf	0.04538
2	0xa5eb	-0.02312
3	0xaf17	-0.1108
4	0xb0d2	-0.1506
5	0xaa88	-0.05103
6	0xa8bc	-0.037
7	0xaf91	-0.1182
8	0x2ce8	0.07666
9	0xab9f	-0.05954
10	0x2182	0.01076
11	0xaa8e	-0.0512
12	0x2843	0.0333
13	0xad91	-0.087
14	0xa755	-0.02864
15	0xaa77	-0.0505
16	0xa3ea	-0.01546
17	0xad67	-0.0844
18	0x291d	0.03995
19	0x3223	0.1918
20	0xa794	-0.0296
21	0xae68	-0.1001
22	0xa643	-0.02446
23	0x29c5	0.04507
24	0x296c	0.04236
25	0xad87	-0.08636
26	0xabe3	-0.0616
27	0xada6	-0.08826
28	0xa2c9	-0.01325
29	0xa5a9	-0.02211
30	0xa48e	-0.01779
31	0xaa3e	-0.04877
32	0x2c51	0.06744
33	0x9e61	-0.00623
34	0xb00e	-0.1267
35	0x2d12	0.0792
36	0xa3de	-0.015366
37	0x2d20	0.0801
38	0x1949	0.00258
39	0xaee0	-0.1074
40	0xb01b	-0.1283
41	0x9e6c	-0.00627
42	0x27c7	0.03038
43	0x30de	0.1521
44	0xad66	-0.08435
45	0x203d	0.00828
46	0xa169	-0.01057
47	0x2f22	0.11145
48	0x2eb2	0.1046
49	0x2c44	0.06665
50	0xad00	-0.0781
51	0xa976	-0.04266
52	0x271f	0.02782
53	0x2a25	0.048
54	0xac58	-0.0679
55	0xacac	-0.073
56	0xa520	-0.02002
57	0x300e	0.1267
58	0xa8f2	-0.03864
59	0x2981	0.043
60	0xa449	-0.01674
61	0x98e4	-0.002388
62	0x8f12	-0.0004315
63	0x1a14	0.002968
64	0x2456	0.01694
65	0x2b68	0.05786
66	0xa5a1	-0.02199
67	0x269a	0.02579
68	0x2247	0.01226
69	0xa816	-0.03192
70	0x21ab	0.01107
71	0xa1d0	-0.01135
72	0x22fb	0.01363
73	0xabcc	-0.0609
74	0x9e88	-0.00638
75	0xabeb	-0.06186
76	0xa722	-0.02786
77	0x25ba	0.02237
78	0x28c4	0.03723
79	0xa56c	-0.02118
80	0x2d55	0.0833
81	0x3035	0.1315
82	0x2c93	0.0715
83	0x2010	0.007935
84	0x2a32	0.0484
85	0xa8c8	-0.03735
86	0x2cb6	0.0736
87	0x1aa3	0.00324
88	0x2c57	0.0678
89	0x2562	0.02103
90	0x2047	0.008354
91	0x2b6b	0.05795
92	0x24a0	0.01807
93	0x290b	0.0394
94	0x269e	0.02585
95	0x24a3	0.01811
96	0xa62e	-0.02414
97	0x2b05	0.05484
98	0x302b	0.1302
99	0xaee6	-0.1078
100	0x22fe	0.01366
101	0x9b3e	-0.003536
102	0xa5fe	-0.0234
103	0xb006	-0.1257
104	0x2564	0.02106
105	0xab90	-0.05908
106	0xa82a	-0.03253
107	0x2507	0.01964
108	0xa3de	-0.015366
109	0x24b8	0.01843
110	0x00e9	1.39e-05
111	0x2878	0.0349
112	0x2aad	0.05215
113	0x24ee	0.01926
114	0xa5f9	-0.02333
115	0x1e7d	0.006336
116	0x28d2	0.03766
117	0x2d3f	0.082
118	0x2911	0.03958
119	0x2845	0.03336
120	0xa636	-0.02426
121	0xa901	-0.0391
122	0x2b0b	0.05502
123	0xa4c9	-0.01869
124	0xa6c1	-0.02638
125	0xadce	-0.0907
126	0xa76c	-0.02899
127	0x1bb1	0.003756
128	0xaceb	-0.07684
129	0x290e	0.0395
130	0x2c86	0.0707
131	0x9f18	-0.006927
132	0x28f6	0.03876
133	0xadb1	-0.0889
134	0xa2e6	-0.01347
135	0x274f	0.02855
136	0x28ad	0.03653
137	0x29e4	0.04602
138	0x29b4	0.04456
139	0x2ae6	0.0539
140	0x27fa	0.03116
141	0x2cc5	0.0745
142	0x30f2	0.1545
143	0x2d45	0.08234
144	0x2a61	0.04984
145	0xa78e	-0.02951
146	0xac0c	-0.06323
147	0x2c50	0.0674
148	0xa829	-0.0325
149	0x1f9b	0.007427
150	0xa7bf	-0.03026
151	0xb03d	-0.1324
152	0x3190	0.1738
153	0x1e0c	0.005905
154	0x25e5	0.02303
155	0x2c13	0.06366
156	0xa717	-0.0277
157	0x2e8d	0.10236
158	0x286e	0.0346
159	0xa4fe	-0.0195
160	0xa3b8	-0.015076
161	0x2cea	0.0768
162	0x99e5	-0.002878
163	0xad92	-0.08704
164	0xad84	-0.0862
165	0xab49	-0.05692
166	0xad52	-0.0831
167	0xa8b6	-0.0368
168	0x9f34	-0.007034
169	0xa7ba	-0.03018
170	0x2c7f	0.07025
171	0x19ab	0.002768
172	0xadfe	-0.0936
173	0x2e6a	0.1002
174	0x2a16	0.04755
175	0xac3b	-0.0661
176	0xa7c5	-0.03035
177	0x9fe2	-0.007698
178	0xac05	-0.0628
179	0xaf6c	-0.11597
180	0x26b8	0.02625
181	0xa344	-0.01419
182	0x2b28	0.0559
183	0xa919	-0.03983
184	0x1b2d	0.003504
185	0x250d	0.01973
186	0x20ae	0.00914
187	0x2c79	0.0699
188	0xa4d1	-0.01881
189	0xa453	-0.01689
190	0x1b2e	0.003506
191	0xac27	-0.0649
192	0x1c0f	0.003963
193	0x2a0c	0.04724
194	0xad34	-0.0813
195	0x2aec	0.05408
196	0x2881	0.0352
197	0xab63	-0.0577
198	0xa845	-0.03336
199	0xa5cf	-0.02269
200	0x2a84	0.0509
201	0x9c3e	-0.004143
202	0xa487	-0.01768
203	0x1f2f	0.007015
204	0xa4a7	-0.01817
205	0xaa00	-0.04688
206	0xa9eb	-0.04623
207	0x2b67	0.05783
208	0x9dcf	-0.005672
209	0xa8cf	-0.03757
210	0x2a13	0.04745
211	0xa899	-0.03592
212	0x2c47	0.06683
213	0x2921	0.04007
214	0xacb9	-0.0738
215	0x222b	0.01205
216	0xa6fe	-0.02731
217	0x2aa0	0.05176
218	0x2ba4	0.0597
219	0x2ef4	0.10864
220	0xabc1	-0.06058
221	0xac94	-0.07153
222	0x2c30	0.0654
223	0xad64	-0.0842
224	0x282f	0.03268
225	0xad6d	-0.0848
226	0xac16	-0.06384
227	0xac00	-0.0625
228	0xa49e	-0.01804
229	0x28c7	0.03732
230	0xad42	-0.08215
231	0x2502	0.01956
232	0xac7d	-0.0701
233	0xad83	-0.0861
234	0x262b	0.0241
235	0x3077	0.1395
236	0x2c70	0.06934
237	0xaedb	-0.1071
238	0xad75	-0.08527
239	0xaec9	-0.106
240	0x2463	0.01714
241	0x2c4b	0.0671
242	0x2b8c	0.05896
243	0xab73	-0.0582
244	0x2ab8	0.0525
245	0xac35	-0.06573
246	0x2a9e	0.0517
247	0xafad	-0.11993
248	0xa5e5	-0.02303
249	0x2ac5	0.0529
250	0xab98	-0.05933
251	0xa9d3	-0.0455
252	0xafc8	-0.1216
253	0x1f51	0.007145
254	0x1c11	0.00397
255	0x28d7	0.0378

lora_unet_up_blocks_1_upsamplers_0_conv.lora_up.weight f2 [640, 16, 1, 1]
0	0xa3ec	-0.01547
1	0x9edf	-0.00671
2	0x9cc5	-0.004658
3	0xa485	-0.01765
4	0xa095	-0.00895
5	0x1f59	0.007175
6	0x96e6	-0.001684
7	0x1dfa	0.005836
8	0x1a09	0.002947
9	0x23cb	0.01522
10	0x21fd	0.011696
11	0xa155	-0.010414
12	0xa2ff	-0.013664
13	0x23c9	0.015205
14	0xa43c	-0.01654
15	0x1e31	0.006046
16	0x1b6b	0.003622
17	0x221d	0.01194
18	0xa24f	-0.01232
19	0x1658	0.001549
20	0xa0c8	-0.00934
21	0x9647	-0.001533
22	0x9972	-0.002659
23	0xa0bd	-0.009254
24	0x96aa	-0.001627
25	0x2030	0.00818
26	0x9649	-0.001534
27	0x9ec8	-0.006622
28	0xa216	-0.01189
29	0xa348	-0.01422
30	0xa54f	-0.02074
31	0x19c5	0.002817
32	0xa600	-0.02344
33	0x2099	0.00898
34	0xa0fd	-0.00974
35	0x1d06	0.004906
36	0x15ed	0.001447
37	0x157f	0.001342
38	0xa476	-0.01743
39	0x1856	0.002117
40	0x94ab	-0.00114
41	0x1723	0.001742
42	0x2131	0.01014
43	0xa10d	-0.009865
44	0x9d77	-0.005337
45	0x19d9	0.002855
46	0x218a	0.01082
47	0x9e9c	-0.006454
48	0xa00f	-0.00793
49	0xa1f3	-0.01162
50	0x9d20	-0.005005
51	0xa2f6	-0.013596
52	0x9494	-0.001118
53	0x18f5	0.00242
54	0x9813	-0.00199
55	0x1d2c	0.00505
56	0x9ba8	-0.003738
57	0x2060	0.008545
58	0x1d41	0.00513
59	0x9768	-0.001808
60	0x925b	-0.000776
61	0x21f0	0.0116
62	0x9942	-0.002567
63	0x1963	0.00263
64	0xa420	-0.01611
65	0x1e16	0.005943
66	0x237a	0.0146
67	0x280f	0.0317
68	0xa0cf	-0.00939
69	0x203e	0.008286
70	0x2423	0.01616
71	0x21b3	0.01113
72	0x175d	0.001798
73	0x9cfe	-0.004875
74	0xa3e3	-0.0154
75	0x9b1a	-0.003468
76	0x9ed7	-0.00668
77	0xa465	-0.01717
78	0x9e1d	-0.00597
79	0x20e0	0.00952
80	0x24ea	0.0192
81	0x2115	0.009926
82	0x19ac	0.00277
83	0x1cb3	0.00459
84	0x90c9	-0.000584
85	0xa066	-0.00859
86	0x2270	0.01257
87	0x9601	-0.001466
88	0x96e4	-0.001682
89	0xa410	-0.01587
90	0xa129	-0.01008
91	0x1c44	0.004166
92	0x2450	0.01685
93	0x9d17	-0.00497
94	0xa139	-0.0102
95	0x9856	-0.002117
96	0x241e	0.01608
97	0x222e	0.01207
98	0xa33b	-0.01412
99	0x1b9e	0.00372
100	0x1a64	0.00312
101	0x9ddd	-0.005726
102	0x1e35	0.00606
103	0xa1c4	-0.01126
104	0x16d4	0.001667
105	0x1437	0.001029
106	0x1c02	0.003914
107	0x1749	0.001779
108	0xa475	-0.01741
109	0x1109	0.0006146
110	0x9ee1	-0.006718
111	0x1aab	0.003256
112	0x1c40	0.00415
113	0xa3fe	-0.01561
114	0x21f3	0.01162
115	0x221d	0.01194
116	0x21da	0.01143
117	0x9ed3	-0.006664
118	0x2020	0.00806
119	0x9db3	-0.005566
120	0x9da6	-0.005516
121	0x158a	0.001352
122	0x9eb3	-0.006542
123	0x2523	0.02007
124	0x201f	0.00805
125	0xa557	-0.02086
126	0xa3de	-0.015366
127	0x21b0	0.01111
128	0xa1e8	-0.011536
129	0x1d3b	0.005108
130	0x9f5b	-0.007183
131	0xa1ef	-0.01159
132	0x994d	-0.002588
133	0x231a	0.01387
134	0xa4ec	-0.01923
135	0x1e17	0.005947
136	0x9b57	-0.003584
137	0x24a2	0.0181
138	0x226f	0.012566
139	0x9e5b	-0.006207
140	0xa376	-0.01457
141	0x24a8	0.01819
142	0x9d77	-0.005337
143	0x91ce	-0.0007086
144	0xa25a	-0.012405
145	0x18af	0.002287
146	0x981b	-0.002005
147	0xa607	-0.02354
148	0xa6a4	-0.02594
149	0x1c43	0.00416
150	0xa74f	-0.02855
151	0x2413	0.01591
152	0xa643	-0.02446
153	0x2555	0.02083
154	0x2698	0.02576
155	0xa174	-0.01065
156	0xa1ab	-0.01107
157	0x2070	0.00867
158	0xa46e	-0.0173
159	0xa520	-0.02002
160	0x948c	-0.00111
161	0x244d	0.0168
162	0xa191	-0.01087
163	0x18a1	0.00226
164	0x9c09	-0.00394
165	0x21b1	0.011116
166	0xa0ab	-0.00912
167	0xa21e	-0.01195
168	0xa0b9	-0.009224
169	0x2239	0.01215
170	0x9cb2	-0.004585
171	0x9dd9	-0.00571
172	0xa210	-0.01184
173	0x1d0b	0.004925
174	0xa356	-0.01433
175	0x9d75	-0.00533
176	0x90d3	-0.000589
177	0x9f7b	-0.007305
178	0x24c2	0.01859
179	0x97bb	-0.001887
180	0x108f	0.0005565
181	0x9d5f	-0.005245
182	0xa06b	-0.00863
183	0xa22f	-0.01208
184	0x1dc7	0.005642
185	0x1dab	0.005535
186	0x9efe	-0.00683
187	0x1e87	0.006374
188	0x2490	0.01782
189	0xa527	-0.02013
190	0xa083	-0.00881
191	0x1f7c	0.00731
192	0x9f74	-0.00728
193	0x9e44	-0.00612
194	0x9efc	-0.00682
195	0x213f	0.01025
196	0xa2d3	-0.01333
197	0x177a	0.001825
198	0xa1b3	-0.01113
199	0x221b	0.011925
200	0x9b52	-0.003574
201	0x2400	0.01563
202	0x9ffa	-0.00779
203	0x9dfd	-0.005848
204	0x20ea	0.0096
205	0x949d	-0.001126
206	0x22da	0.01338
207	0x2110	0.00989
208	0x228f	0.01281
209	0x226e	0.01256
210	0x8fd4	-0.0004778
211	0xa49d	-0.01802
212	0x2695	0.02571
213	0x9892	-0.002232
214	0x2016	0.00798
215	0xa283	-0.01272
216	0x9fd6	-0.007652
217	0x2191	0.01087
218	0x2571	0.02126
219	0x1cab	0.00456
220	0x2249	0.012276
221	0x9da5	-0.005512
222	0xa599	-0.02187
223	0x9b29	-0.003496
224	0x1fba	0.007545
225	0x1d5e	0.00524
226	0x950c	-0.001232
227	0xa2a0	-0.01294
228	0xa152	-0.01039
229	0x2074	0.0087
230	0x918a	-0.000676
231	0x9779	-0.001824
232	0xa167	-0.01055
233	0xa40a	-0.01578
234	0x2068	0.008606
235	0x19ba	0.002796
236	0x9ee6	-0.006737
237	0x2570	0.02124
238	0x2125	0.01005
239	0x21e3	0.0115
240	0x9a14	-0.002968
241	0x2490	0.01782
242	0xa26f	-0.012566
243	0xa3af	-0.01501
244	0x19e4	0.002876
245	0x9542	-0.001284
246	0x2068	0.008606
247	0xa237	-0.01214
248	0x1985	0.002695
249	0x8dba	-0.0003495
250	0x15cf	0.001418
251	0x15ba	0.001398
252	0x1e84	0.006363
253	0x9ef3	-0.006786
254	0x9bb0	-0.003754
255	0xa0b5	-0.00919
